webnn/model-tests/resources/test-data/models/squeezenet1.0_nhwc/weights/conv10_Conv2D_bias.npy (npy, 4084 bytes, 1 tensors)

array f4 [1001]
0	0xbc71778d	-0.014737976
1	0x3d91a501	0.0711155
2	0x3dbded53	0.092737816
3	0x3cb579da	0.02215283
4	0xbd541b79	-0.051784012
5	0x3d88384e	0.06651364
6	0x3d175bc4	0.03695275
7	0x3e5966f9	0.21230687
8	0xbb95f4bd	-0.004576294
9	0xbb95260f	-0.004551656
10	0xbd322f61	-0.043502215
11	0x3c9d13fb	0.019174566
12	0xbdba92f1	-0.09110058
13	0xbce3ea34	-0.027821638
14	0x3d79a8e5	0.060952086
15	0xbcb4c204	-0.02206517
16	0x3d640ad5	0.055674393
17	0xbd092d94	-0.033490732
18	0x3d67c69b	0.05658589
19	0x3cc85b54	0.024457611
20	0xbbde96ed	-0.006792894
21	0x3e31cb2d	0.17362662
22	0x3d3a0af0	0.045420587
23	0x3da25d05	0.07927898
24	0xbd200909	-0.039071117
25	0x3cf73b62	0.030179683
26	0xbb966288	-0.0045893826
27	0xbd6211a8	-0.05519262
28	0xbcade62a	-0.021227915
29	0x3c3ef956	0.011656126
30	0x3dd5040a	0.10401161
31	0x3da61a31	0.08110464
32	0xbcc43393	-0.023950374
33	0x3d11ec2d	0.035625625
34	0xbd114489	-0.03546575
35	0x3d39370c	0.045218512
36	0xbcc0f2e5	-0.023553321
37	0xbd4135d2	-0.047170468
38	0x3b818af1	0.0039533307
39	0x3d0625a3	0.032750737
40	0xbda47155	-0.08029429
41	0xbce69839	-0.028148757
42	0x3d83312c	0.06405863
43	0x3d4d84c7	0.050175454
44	0x3c759a6b	0.014990429
45	0x3c55fab3	0.01306026
46	0x3d5dbd9e	0.05413591
47	0x3bbb523e	0.005716591
48	0x3d0a2e3c	0.0337355
49	0x3cf98e2e	0.030463304
50	0xbc31a9e3	-0.010843727
51	0x3d3e98f9	0.046532605
52	0xba8e6c33	-0.0010865986
53	0x3c9c34e8	0.019068196
54	0xbc8b8e48	-0.017035618
55	0x3d4a60ff	0.04940891
56	0x3d9435b8	0.072368085
57	0x3cd9bd4b	0.02657952
58	0xbcb4fb2c	-0.022092424
59	0x3dbb8106	0.09155469
60	0x3ddea7f1	0.10871876
61	0x3d745f8a	0.059661426
62	0x3cc3f43e	0.023920175
63	0x3c74f1e8	0.014950253
64	0x3e1d23ed	0.15345736
65	0x3e037578	0.1283778
66	0x3d4965c8	0.04916933
67	0x3df35f7f	0.11883449
68	0x3d715a28	0.05892387
69	0x3e4557f3	0.19271831
70	0x3e068315	0.13135941
71	0xbcfce4c2	-0.030870799
72	0x3a5bb25b	0.0008380764
73	0x3d3e6cec	0.046490595
74	0xbdaeaadb	-0.08528682
75	0x3d363e0b	0.044492763
76	0x3d970ce4	0.073755056
77	0x3d4d6ea5	0.050154347
78	0x3d89e470	0.06733024
79	0x3cf23e56	0.02957074
80	0x3dfaaf2c	0.12240443
81	0x3dbae3a6	0.09125452
82	0x3e10a0e8	0.14123881
83	0x3d95c063	0.073120855
84	0x3d7f14f7	0.062275853
85	0x3b9ea391	0.004841276
86	0x3d39ece5	0.045391936
87	0xbc2a5eac	-0.010398548
88	0x3def6793	0.11689677
89	0xbd7a6b6f	-0.061137613
90	0x3dc5314b	0.096285425
91	0x3b8a3f35	0.0042189606
92	0xbd19cf23	-0.037551057
93	0xbc561045	-0.013065402
94	0xbdb2ce6c	-0.08730778
95	0xbdecfa67	-0.11571198
96	0xbca356c0	-0.019938827
97	0x3d01f3f7	0.031726804
98	0xbe08034a	-0.13282505
99	0xbdaeb5e6	-0.08530788
100	0xbd90d908	-0.070726454
101	0x3c7d48ef	0.015459283
102	0xbd076377	-0.03305384
103	0x3cccd2fa	0.025002945
104	0x3e819a52	0.2531305
105	0x3dd685bc	0.104747266
106	0x3c85550d	0.016275907
107	0x3e523d8c	0.20531291
108	0x3ca260bd	0.019821519
109	0x3e105722	0.14095739
110	0x3d9f6bbb	0.0778422
111	0xbd77fc21	-0.060543183
112	0x3e1fefb6	0.15618786
113	0xbc4d448d	-0.012528551
114	0xbdc2b7a9	-0.09507687
115	0xbd854bff	-0.06508636
116	0xbb681211	-0.003541116
117	0x3e24f441	0.161088
118	0xbbe57228	-0.007002134
119	0xbbf95fa6	-0.007610279
120	0x3cbf6ed8	0.023368284
121	0xbcf3d59a	-0.02976494
122	0xbd1e4b0b	-0.038645785
123	0xbcc6d251	-0.024270209
124	0x3ce4fafa	0.027951706
125	0xbd4a9eef	-0.049467977
126	0xbd972714	-0.073805004
127	0x3d4ab56d	0.049489427
128	0x3b35726a	0.0027686604
129	0xbd8ebb62	-0.06969334
130	0x3acd6079	0.001566901
131	0xbc8aaa50	-0.016926914
132	0x3bae3a45	0.005317005
133	0x3dbaa570	0.09113586
134	0xbcc48e58	-0.023993656
135	0xbe00d795	-0.12582238
136	0xbdff16e6	-0.124555394
137	0xbe051dbb	-0.12999623
138	0xbd9191db	-0.07107898
139	0xbcb87b59	-0.022519754
140	0x3cc34a73	0.023839211
141	0xbcf78d12	-0.030218635
142	0x3c2e6a7e	0.010645507
143	0xbb8b2bee	-0.00424718
144	0xbb350eee	-0.0027627307
145	0xbd880d9e	-0.06643222
146	0xbc654724	-0.013994012
147	0xbd963574	-0.07334414
148	0xbe2aac3f	-0.16667269
149	0xbdc868bc	-0.097856015
150	0x3d9c7cfe	0.07641028
151	0xbd136d7e	-0.03599309
152	0xbd396aa3	-0.045267712
153	0xbd442166	-0.047883414
154	0x3dcd3469	0.10019762
155	0x3d7f43ea	0.062320627
156	0x3d4979db	0.049188476
157	0xbc881ead	-0.01661619
158	0x3bfc59f5	0.0077011534
159	0xbd700031	-0.058593933
160	0xbc3787a0	-0.011201769
161	0xbd82b522	-0.063822046
162	0xbd11bc5a	-0.035580017
163	0x3dd7f5e1	0.105449446
164	0x3e047523	0.12935309
165	0xbbde5ae7	-0.0067857387
166	0xbd03da24	-0.032190457
167	0xbcfcea03	-0.030873304
168	0xbc3d9396	-0.011570832
169	0x3dbce696	0.09223668
170	0x3a060be0	0.0005113464
171	0x3d41bfd7	0.047302093
172	0x3da5e1f7	0.0809974
173	0xbbb63d68	-0.0055615194
174	0xbb5d0e5d	-0.0033730485
175	0x3d9223ba	0.071357206
176	0xbb9f0e43	-0.004853995
177	0xbd173ed6	-0.03692516
178	0x3d5f251e	0.054478757
179	0x3d343784	0.043998256
180	0xbd2ec13c	-0.04266475
181	0xbc3bfd28	-0.011473931
182	0x3d304d78	0.04304263
183	0x3d090368	0.033450514
184	0x3d774ef1	0.06037802
185	0xbcfe9744	-0.031077988
186	0x3c3d5295	0.011555334
187	0xbd95f803	-0.07322695
188	0x3d4ae495	0.0495344
189	0xbb6197a6	-0.0034422665
190	0x3cadf473	0.021234727
191	0x3d2582ff	0.04040813
192	0x3d65fc55	0.056148846
193	0x3c8faf5a	0.017539669
194	0xbd4ae82f	-0.049537834
195	0x3d69d2c6	0.057085775
196	0x3da31cdd	0.079644896
197	0xbba05f98	-0.004894208
198	0xbd208aa5	-0.03919472
199	0xbd3ca752	-0.046058007
200	0x3dff3463	0.12461164
201	0x3d0bfab4	0.034174636
202	0x3d1e4ce4	0.038647547
203	0x3d62ecbc	0.05540155
204	0x3daa121f	0.083042376
205	0x3d8dccb9	0.069238134
206	0xbd374f98	-0.04475364
207	0xbd8c5c2c	-0.06853518
208	0xbd3735ee	-0.044729166
209	0xbd7041c3	-0.058656465
210	0x3da79968	0.08183557
211	0xbb7ed48f	-0.003888402
212	0x3bb890dc	0.005632503
213	0xbc6b8abf	-0.014376341
214	0x3d4456a9	0.047934208
215	0x3c2d3c5c	0.010573473
216	0xbd47f5a1	-0.048818234
217	0xbbf472a4	-0.0074599553
218	0xbb257dec	-0.0025252057
219	0xbccbf9f3	-0.024899459
220	0xbcf42fa6	-0.029807877
221	0x3c94f9c1	0.018185498
222	0x3ca45124	0.020058222
223	0x3c21f181	0.009884239
224	0x3dea6341	0.114447124
225	0x3d40c7bc	0.04706548
226	0x3d99bb30	0.07506406
227	0x3d52081f	0.051277276
228	0xbc44458f	-0.011979475
229	0x3da342b4	0.07971707
230	0x3d9e7a11	0.07738126
231	0x3de78c38	0.113060415
232	0xbb230a61	-0.0024878012
233	0xbd54c674	-0.051947072
234	0x3df1ee18	0.11812991
235	0x3c3f1fb4	0.011665273
236	0x3b9efcdf	0.004851922
237	0x3cb8e23f	0.02256882
238	0x3ddb711d	0.10714934
239	0x3be711fe	0.0070517054
240	0x3d4cd6d8	0.05000958
241	0xbc2aad18	-0.010417245
242	0x3d021946	0.031762384
243	0xbc98f889	-0.018673198
244	0xbb966649	-0.00458983
245	0xbd3cfcf4	-0.046139672
246	0x3d27fc43	0.04101206
247	0xbd258d7f	-0.040418144
248	0x3dce41c1	0.10071135
249	0x3ba59854	0.0050535593
250	0xbcae2c0d	-0.02126124
251	0x3da4586a	0.08024676
252	0xbcf04913	-0.02933172
253	0x3d4ec9c8	0.050485402
254	0xbabca3d5	-0.0014392087
255	0x3d9fbe49	0.07799966
