webnn/model-tests/resources/test-data/models/squeezenet1.0_nhwc/weights/fire8_squeeze_kernel.npy (npy, 98384 bytes, 1 tensors)

array f4 [64, 1, 1, 384]
000000 55 14 88 bd 1c 2b 69 3c 63 ac f0 bd 19 e6 1d be
       -0.06644503 0.0142314695 -0.1175163 -0.15419807
000010 0c 2b fb 3c b6 c5 ca 3d f0 2b 04 3e cb 07 79 3c
       0.030660175 0.099009916 0.12907386 0.015199612
000020 01 26 00 3e 5a c6 c4 3c ce 36 21 bd 31 2b 0c 3d
       0.12514497 0.024020363 -0.039358906 0.034220878
000030 7a 30 4b be 6c 74 61 3b d1 26 5f bc 25 63 af 3d
       -0.19842711 0.0034401668 -0.013620094 0.08563832
000040 3d 42 b8 3c 62 62 54 3c 3a 3e 02 bc 60 76 b8 bd
       0.022492522 0.012962909 -0.007949406 -0.09006953
000050 34 bc 2a bd ae 95 e0 3d 44 62 6f be 5c a5 c5 3d
       -0.04168339 0.10966049 -0.23377329 0.096506804
000060 7c b6 37 3e 4a 85 a2 bd 4f f5 de 3b 8c b8 26 be
       0.17940706 -0.07935579 0.0068041454 -0.16281337
000070 25 70 d6 3c 86 77 17 bd 44 5c 04 3d 0a 57 91 3d
       0.026176522 -0.03697922 0.032314554 0.070966795
000080 8c b6 66 bd df 01 2d 3e 41 a9 b6 bd 7d a5 37 3e
       -0.056326434 0.16895245 -0.08919001 0.17934223
000090 ad 13 e2 bd 4d 2d b8 3d b5 e6 62 3b 44 8b ce bc
       -0.11038909 0.089930154 0.0034622375 -0.025212891
0000a0 aa b5 eb bd 43 97 3d be 6c a8 09 be c1 ec 6c bc
       -0.11509259 -0.18514733 -0.13443154 -0.014460743
0000b0 39 50 8a 3d 7a 0b 2a 3c e2 7c ad 3d 56 df b9 bd
       0.067535825 0.010378713 0.08471085 -0.09075801
0000c0 3d 7c 7d bc b5 44 58 bc 36 70 b7 3d 8e c9 09 3e
       -0.015471515 -0.013199975 0.089569494 0.13455793
0000d0 1f 6c b4 bd 18 7b 7d bd 5a da 10 3e af 8d 53 3b
       -0.08809685 -0.06188497 0.14145795 0.0032280495
0000e0 69 e6 e3 3c e7 46 cc bd 8d cc 86 bd 1e 25 e6 bd
       0.027819829 -0.09974461 -0.06581984 -0.11237548
0000f0 59 9d 35 bd da fe 38 3b e9 13 84 bc 9c 13 31 be
       -0.04433951 0.0028228075 -0.016122775 -0.17292637
000100 32 2e 1a bc bd 05 7f bd c4 8e 14 3e ef e3 3e bc
       -0.009410428 -0.06226133 0.14507586 -0.011651023
000110 21 23 a2 3d 3b 46 af bc 3b 1e 5b 3d 1f a0 84 3d
       0.079168566 -0.021395793 0.053495627 0.06475853
000120 dd fc 16 bc f8 1d 12 bc a6 6a 00 be 30 21 4f 3d
       -0.009215561 -0.008918278 -0.12540683 0.05056876
000130 5d c0 1a bd 54 0e 4d 3d 9d df a1 3d 15 18 1e be
       -0.03778111 0.050062492 0.07903979 -0.15438874
000140 a2 dd 26 be f8 51 e1 3c 16 51 be bd 2d b0 14 bc
       -0.16295484 0.027504906 -0.0929281 -0.009075207
000150 8e a6 18 3c 45 89 a2 3d cb fd d7 bd e1 2c 65 bc
       0.0093170535 0.07936338 -0.10546454 -0.013987751
000160 b5 3f 54 3d 77 2d de 3d 83 71 c3 3d a9 5d fb bb
       0.05181857 0.108485155 0.09543135 -0.0076710773
000170 28 ad 3d 3d ef 69 9b 3b 88 d1 e5 bd fe 50 81 bc
       0.046307713 0.004742853 -0.112216055 -0.01578569
000180 2b 0b 24 bd 8a c9 50 3e a6 e3 2f 39 84 bd 08 3e
       -0.040049713 0.20389381 0.00016774106 0.13353544
000190 05 55 5a bd 11 f5 13 3e 60 d8 0a 3d 02 e4 9b 3c
       -0.053303737 0.14448954 0.033897758 0.019029621
0001a0 4f 1b 27 be 9b 89 75 3c 15 42 3a bc bb e8 94 3d
       -0.16319011 0.014986421 -0.011368294 0.07270952
0001b0 cd 94 c3 bd 9e 3e f1 3d bb da 18 3c 4a a4 ad 3d
       -0.09549866 0.117795214 0.009329493 0.08478601
0001c0 d5 71 55 bd f7 dd ab 3d 18 8f 72 bd 8a 78 d8 3c
       -0.05211051 0.08391946 -0.059218496 0.026424665
0001d0 72 b7 de bd 90 c1 04 3e 81 a0 19 3e e3 9b b5 bc
       -0.10874833 0.12964463 0.15002634 -0.02216906
0001e0 98 94 43 bc da 37 40 3d eb fd 5d 3c 7b 95 4e 3d
       -0.011937283 0.046928264 0.013549308 0.050435524
0001f0 4d 94 cd bd 7c 68 5e be 87 f9 9c bd bd 7a a9 bc
       -0.10038052 -0.21719545 -0.07664781 -0.020688409
000200 85 0d 18 be 52 9c 45 3b e2 21 61 bd 3b f8 31 3d
       -0.14848907 0.0030152989 -0.054963954 0.04344962
000210 e0 0e 03 bd 14 1f 19 3e 21 72 c9 bb 88 70 36 bd
       -0.031996608 0.14953262 -0.0061476384 -0.044540912
000220 93 02 05 3e 5e 0b 24 3e f9 50 b5 3c 8c 5b 8f bc
       0.12989263 0.16019961 0.022133337 -0.017499708
000230 b7 a9 03 3d a7 4b 17 bd 50 09 38 3e 95 38 0b 3d
       0.032144275 -0.036937382 0.17972302 0.033989508
000240 d4 19 6f bc 97 58 bc bd e2 9a a4 b9 96 92 15 3e
       -0.01459356 -0.09196585 -0.00031395914 0.146067
000250 5c 5b 94 3d c1 f8 35 be 41 de 0a 3e 85 e7 88 bc
       0.07243988 -0.17770673 0.13561346 -0.01671196
000260 b9 41 cd 3d 69 00 9a 3d b3 a8 02 3e 61 44 76 3e
       0.10022301 0.075196095 0.12759666 0.24049522
000270 bc 5a ef bd 78 4f c0 bd f1 d2 38 be c9 67 b6 bc
       -0.11687228 -0.093901575 -0.18049218 -0.022266285
000280 fb 6d 98 bc c6 7d 57 3d 46 a6 0a 3d 63 98 0c 3d
       -0.01860713 0.05261018 0.033849977 0.034325015
000290 2e ee a0 3d 9a bd 15 bd 69 30 47 3e df b3 0c be
       0.07857929 -0.03655777 0.19452061 -0.1374049
0002a0 99 e3 cb bd 28 8e bb 3d a6 7c 71 be 28 cc a8 bd
       -0.0995552 0.091579735 -0.23582706 -0.08242065
0002b0 c8 e1 68 3d f1 a4 a2 3c 38 de 27 bc 79 16 24 bd
       0.056855947 0.01985404 -0.010245852 -0.040060494
0002c0 cb c3 92 3d 21 75 ec bc 4d 6d 3a 3e 37 7e 6e 3d
       0.07166251 -0.028864445 0.18205757 0.058225837
0002d0 b5 65 9f 3e fe ba 75 be 24 f7 d9 3a d8 3b 00 bb
       0.31132284 -0.23997113 0.001662944 -0.001956692
0002e0 b0 24 7b 3d 7a d2 1e bd 98 1a 8c bc c0 c1 b0 bc
       0.061314285 -0.038774945 -0.017102525 -0.021576762
0002f0 9d b9 e1 ba 2c d9 7e 3b 6b 53 c8 bc 4d c7 be 3d
       -0.0017221455 0.0038886769 -0.02445384 0.09315357
000300 05 fd c9 3c 5b ed e6 bd e0 ae 90 bc 6c ed 03 bc
       0.024656782 -0.11275741 -0.017661512 -0.008052211
000310 a0 be a2 3c a7 40 bb bd 46 64 8b bd fb e7 36 be
       0.019866288 -0.09143191 -0.06806235 -0.17861931
000320 e9 fb 09 3d ad e0 6e bd 7e f7 cd 3b 45 19 34 3d
       0.033687506 -0.058319736 0.006285607 0.04396941
000330 0b 91 04 3d 25 37 16 bd b0 02 93 3d 3e 54 2f 3e
       0.032364886 -0.036673684 0.07178247 0.1712198
000340 2a 9a 73 be 38 b2 38 3c b5 d5 14 3d 43 1f a4 bd
       -0.23789278 0.011272959 0.03633662 -0.08013775
000350 45 11 ab 3d 61 66 96 bd 88 98 9b 3d 98 03 1c bd
       0.08352903 -0.07343746 0.075974524 -0.038089365
000360 25 1a 19 3d d5 48 88 3e 15 9e 2b bc 52 a8 47 bc
       0.03737845 0.26618066 -0.010474701 -0.012186127
000370 f8 7e 84 3e 26 a2 f0 bc ff 9f 04 be 25 d5 4f bc
       0.2587812 -0.029374193 -0.12951659 -0.012685095
000380 cd cc 0e bd 86 85 52 be 68 60 a4 bd f4 bc 41 bd
       -0.034863282 -0.20558748 -0.080262005 -0.04729934
000390 a0 56 92 3d a5 76 ce be 06 fe b9 3d 13 73 10 3d
       0.07145429 -0.40324894 0.09081654 0.035265993
0003a0 32 52 1c 3d 31 6c 47 be 23 29 0d 3d cd 87 7c be
       0.038164325 -0.19474865 0.03446306 -0.24661179
0003b0 71 71 ec 3b e0 08 19 be 0b 5b cf 3c d6 2e a9 bd
       0.0072156717 -0.14944792 0.025311967 -0.08260886
0003c0 cc 25 aa bd 7c 5d 2e be 74 34 53 bc 44 6e ce bd
       -0.083079904 -0.17027849 -0.012890924 -0.10079625
0003d0 4c 12 9b 3d 18 03 a0 3e cb ef c1 bd c8 fe 9e 3e
       0.07571849 0.3125236 -0.09469565 0.31053758
0003e0 28 dc d5 bd d6 35 44 3c 06 68 c3 bd 4d 45 93 3b
       -0.10442382 0.011975726 -0.09541325 0.0044943453
0003f0 cd 93 a1 be dd 44 69 3e ca f8 4a 3c e0 8b 7b 3c
       -0.31558076 0.22780176 0.0123884175 0.015353173
