webnn/model-tests/resources/test-data/models/squeezenet1.0_nhwc/weights/fire8_e1x1_kernel.npy (npy, 65616 bytes, 1 tensors)

array f4 [256, 1, 1, 64]
0.038742065 -0.11855363 0.032054845 0.06873229 -0.016386112 -0.033571474 -0.017082341 -0.13409904
0.067890905 -0.050289948 -0.2509302 -0.079805784 0.08981103 0.17945556 -0.008700762 0.102675185
-0.1322519 -0.073442735 0.03847426 -0.2169111 -0.087728046 -0.12095075 -0.13123208 -0.16246004
0.121172465 -0.1436582 0.2641952 -0.1456081 -0.037343275 0.16855593 -0.20960133 -0.15125416
-0.18621263 -0.1611055 0.15319043 0.0048833857 0.04027565 -0.09396388 -0.07682708 -0.008476981
-5.154046e-05 0.05572735 0.013011508 -0.037015133 -0.00928932 0.38202927 -0.022674892 -0.04936551
-0.16951175 -0.011437157 0.10629754 0.023131086 -0.012810949 -0.1453284 0.25226116 -0.14813489
-0.056370802 0.34344006 -0.09270489 0.097093314 -0.010142265 -0.14025842 -0.17088273 0.35478058
0.04482045 -0.09012066 0.13501796 0.021910137 -0.0446855 -0.088596314 0.0047878004 -0.17143954
-0.3102886 0.0036036766 0.064886265 -0.033247124 -0.059149083 0.100713775 -0.10186496 -0.42388576
0.018220516 0.19494337 0.07030748 -0.07104383 -0.027757728 0.011797182 0.15122256 0.03331045
0.029279426 0.36082733 0.24152423 -0.026182413 0.0039329985 0.13726561 -0.036625568 -0.018157776
0.060333885 0.018208513 -0.025324864 -0.06530858 0.2564964 0.10698123 -0.06571629 -0.18736103
-0.10172764 0.060481515 -0.041202705 0.05953973 -0.053243075 -0.12944637 -0.06939083 -0.15319861
-0.042980965 0.03700132 0.08401674 -0.056727003 0.06797486 -0.069874644 -0.2169641 -0.19237824
0.09424862 -0.14057072 -0.10936185 -0.0731395 0.10422909 -0.09811375 -0.012026667 0.12986606
-0.13807103 -0.21781729 -0.21500103 -0.055615194 0.03964754 -0.18590501 -0.25001246 0.14455746
0.042424597 -0.046586234 -0.0004005969 -0.032768723 0.22159454 0.041605096 0.15716477 -0.13164186
-0.21486405 0.04444593 -0.075856544 -0.095868684 -0.12394041 -0.2556086 0.22177888 0.1023097
0.08960177 0.008538122 -0.06597154 -0.056476284 -0.058271423 -0.08491552 -0.07534712 0.06321112
-0.026361803 0.114771314 0.06788871 -0.099780425 -0.10561102 -0.06942721 -0.034554828 -0.0056758095
-0.15681651 -0.18721187 0.025039861 -0.051732056 -0.17634451 0.016668221 -0.02329859 -0.019371781
0.47583053 -0.16440827 0.1462536 0.073077194 -0.07199167 -0.039197803 -0.10827891 -0.059833296
-0.14378735 -0.29159397 0.3889577 -0.1566421 -0.06099416 0.057074107 -0.055830356 -0.24538787
0.09424732 -0.09710541 -0.073666215 -0.114706665 -0.023362119 0.18439013 0.022199241 -0.18140766
-0.20400655 -0.03025036 0.036374297 0.041794382 -0.029826444 0.01963258 -0.07315659 -0.22165471
-0.03245461 -0.056740902 0.08106468 0.047029354 0.16476767 0.019023543 0.21172506 0.07421819
-0.16237323 -0.24148835 0.009561911 0.06328312 -0.07775685 0.18565014 0.04885437 -0.0023236373
0.22014382 0.13141695 0.09801452 -0.041608952 0.20305514 0.06176683 -0.0814896 -0.19695899
-0.05823312 -0.10931608 -0.0026983488 0.008894402 0.23654768 0.06271224 -0.18717754 0.052667867
-0.18690364 0.058044907 -0.066374645 0.1352889 0.008645963 -0.2707756 -0.23879655 -0.16467811
0.0009121519 -0.053265292 0.030821213 -0.010407351 0.023981584 0.005510589 0.03162092 -0.324529
00000000: 00b0 1e3d 3fcc f2bd f14b 033d 84c3 8c3d
00000010: 2b3c 86bc 3e82 09bd 44f0 8bbc 4251 09be
00000020: 630a 8b3d d5fc 4dbd ec79 80be 3771 a3bd
00000030: d8ee b73d 33c3 373e a48d 0ebc 5e47 d23d
00000040: 0b6d 07be 2569 96bd 3097 1d3d f21d 5ebe
00000050: c3aa b3bd 07b5 f7bd b461 06be ed5b 26be
00000060: 4529 f83d 231b 13be 9844 873e 4a1a 15be
00000070: 43f5 18bd ed99 2c3e bba1 56be 5fe2 1abe
00000080: 86ae 3ebe d7f8 24be f4dd 1c3e cf04 a03b
00000090: 14f8 243d 2270 c0bd 8457 9dbd 09e3 0abc
000000a0: 262d 58b8 5d42 643d 382e 553c 2e9d 17bd
000000b0: 3b32 18bc 5799 c33e b2c0 b9bc 7d33 4abd
000000c0: 7d94 2dbe ea62 3bbc 86b2 d93d 677d bd3c
000000d0: 04e5 51bc f8d0 14be 6028 813e acb0 17be
000000e0: 12e5 66bd 60d7 af3e 10dc bdbd dcd8 c63d
000000f0: be2b 26bc e79f 0fbe e2fb 2ebe cda5 b53e
00000100: a695 373d 2e91 b8bd 2642 0a3e e37c b33c
00000110: 2508 37bd fc71 b5bd fbe2 9c3b d98d 2fbe
00000120: 26de 9ebe a92b 6c3b 17e3 843d 232e 08bd
00000130: 4f46 72bd 0643 ce3d 939e d0bd 8e07 d9be
00000140: 3143 953c 3c9f 473e 5efd 8f3d 6d7f 91bd
00000150: 2d64 e3bc f848 413c 16da 1a3e 8a70 083d
00000160: 68db ef3c 5cbe b83e 2152 773e 807c d6bc
00000170: 62e0 803b 5b8f 0c3e b104 16bd 9ebf 94bc
00000180: aa20 773d 052a 953c 1776 cfbc 81c0 85bd
00000190: 7f53 833e fa18 db3d 4396 86bd 92db 3fbe
000001a0: 9556 d0bd 77bb 773d 2bc4 28bd efdf 733d
000001b0: 6915 5abd 978d 04be c81c 8ebd 19e0 1cbe
000001c0: cf0c 30bd b28e 173d f810 ac3d 935a 68bd
000001d0: 6736 8b3d 701a 8fbd d62b 5ebe cdfe 44be
000001e0: 6c05 c13d c5f1 0fbe 1bf9 dfbd 2aca 95bd
000001f0: 1076 d53d ddef c8bd 7f0b 45bc 9cfb 043e
00000200: 7e62 0dbe 7f0b 5fbe 3b29 5cbe c2cc 63bd
00000210: 7565 223d e25d 3ebe a201 80be df06 143e
00000220: 6ac5 2d3d 35d1 3ebd 3507 d2b9 7f38 06bd
00000230: aee9 623e 1b6a 2a3d cdef 203e 20cd 06be
00000240: 5205 5cbe ef0c 363d ad5a 9bbd cd56 c4bd
00000250: 78d4 fdbd 21df 82be 011a 633e bf87 d13d
00000260: 2281 b73d 7be3 0b3c 161c 87bd ad53 67bd
00000270: 04ae 6ebd 30e8 adbd 974f 9abd d574 813d
00000280: b5f4 d7bc 390d eb3d 3c09 8b3d ae59 ccbd
00000290: 974a d8bd da2f 8ebd 5d89 0dbd 24fc b9bb
000002a0: 8294 20be 78b4 3fbe 6520 cd3c fee4 53bd
000002b0: a893 34be cb8b 883c afdc bebc 92b1 9ebc
000002c0: 0fa0 f33e a45a 28be 81c3 153e 7fa9 953d
000002d0: 5e70 93bd e08d 20bd 55c1 ddbd c213 75bd
000002e0: fe3c 13be ce4b 95be 7725 c73e c966 20be
000002f0: 03d5 79bd 8ac6 693d 5fae 64bd f546 7bbe
00000300: bd04 c13d 34df c6bd 50de 96bd 54eb eabd
00000310: ea61 bfbc c4d0 3c3e 2fdb b53c eec2 39be
00000320: 18e7 50be 9acf f7bc 37fd 143d 9630 2b3d
00000330: 9656 f4bc 81d4 a03c 1fd3 95bd 74f9 62be
00000340: 20ef 04bd 2669 68bd 3d05 a63d daa1 403d
00000350: dbb8 283e 43d7 9b3c 74ce 583e b5ff 973d
00000360: 2b45 26be b948 77be 90a9 1c3c 959a 813d
00000370: fc3e 9fbd 121b 3e3e 851b 483d 2a48 18bb
00000380: 626d 613e 2a92 063e d6bb c83d 266e 2abd
00000390: b0ed 4f3e 37ff 7c3d 05e4 a6bd 9eaf 49be
000003a0: da85 6ebd 1ce1 dfbd c8d6 30bb d3b9 113c
000003b0: 8e39 723e 466f 803d 78ab 3fbe 43ba 573d
000003c0: ab63 3fbe 7fc0 6d3d 6eef 87bd 2c89 0a3e
000003d0: cca7 0d3c 19a3 8abe 1587 74be 61a1 28be
000003e0: 7a1d 6f3a b52c 5abd c57c fc3c 9883 2abc
000003f0: 0775 c43c 2c92 b43b f084 013d aa28 a6be
