webnn/model-tests/resources/test-data/models/squeezenet1.0_nhwc/weights/fire6_e1x1_Conv2D_bias.npy (npy, 848 bytes, 1 tensors)

array f4 [192]
-0.23794934 -0.13819009 0.26138365 -0.14905289 0.20402993 -0.2042191 -0.51527745 -0.15617251
-0.09579354 0.036046665 0.0016559219 0.23287533 0.39033633 0.19848159 -0.17532624 -0.27519438
0.021917675 -0.38782203 0.03158097 -0.01984702 0.5625687 -0.4865715 -0.03250685 0.469792
-0.013375022 -0.21751714 -0.13429046 -0.13600476 0.25999397 -0.093753934 -0.16128619 0.5773732
0.82036036 -0.15843292 -0.077271655 -0.52029544 -0.017074954 -0.18685447 0.59754854 -0.0055949558
0.24238217 0.45145652 -0.00063011545 -0.09724334 0.7243602 0.713122 -0.001490743 -0.036295675
0.075349346 0.37989956 -0.04426488 0.45139357 0.038445987 -0.024250045 -0.03288869 -0.055119146
-0.22389677 -0.1439792 -0.06699328 -0.2141272 -0.10756993 -0.09802169 -0.17014861 0.41336736
0.52421343 -0.055655636 0.1264457 -0.3750182 0.022568934 -0.58964014 0.41473716 -0.17165333
-0.1788688 -0.0942432 0.2414001 -0.29726988 0.12470428 -0.7237236 -0.07746647 0.11089246
-0.095386535 0.39392036 -0.001580025 0.22223343 -0.15272455 -0.04271705 0.034456257 -0.14025857
-0.24805628 0.47829074 0.101323195 0.21664375 -0.26785594 -0.0065382356 -0.07979407 0.7419157
-0.14055043 0.07434738 0.31041172 -1.0179347 -0.39294097 -0.185287 -0.32162175 0.038283996
0.03151235 0.10363282 0.010341137 -0.14579836 0.2296749 -0.2174605 0.5261754 -0.026529854
0.09526968 1.8082408 -0.353868 0.54960006 -0.40817466 0.06974029 0.082739495 0.8809894
-0.017622503 -0.028232384 -0.0021448089 0.042349268 -0.015960516 -0.30782512 -0.10346954 -0.2236211
-0.093517445 -0.036025904 -0.015578499 -0.484258 -0.26997334 0.3227528 -1.1068995 -0.11054018
-0.39577904 -0.2484742 -0.0047876434 -0.14044237 0.16693921 0.84579396 0.27519044 -0.08544607
0.32468396 0.19257307 -0.22753522 -0.23425274 0.29990864 0.4242577 -0.299381 0.7328777
0.100815274 0.326674 -0.3877687 0.12250793 -0.23100565 -0.31757894 0.37494087 0.364514
-0.041225974 -0.45011738 -0.063543126 -0.22648162 0.14220938 -0.49274862 -0.051719196 -0.35537392
0.45090413 -0.014400026 0.29273126 -0.053318985 0.3923413 0.014046689 0.13320825 -0.19551477
0.6074769 0.47213197 -0.099792376 -0.23092203 -0.01560197 -0.09582217 -0.12709251 0.06366054
-0.43182358 -0.010497184 -0.09855709 0.18885449 0.14581423 0.18050191 0.10814566 0.03425772
00000000: fea8 73be b481 0dbe 14d4 853e 52a1 18be
00000010: 39ed 503e d01e 51be 39e9 03bf b0eb 1fbe
00000020: 672f c4bd aba5 133d 850b d93a df76 6e3e
00000030: 2ada c73e c23e 4b3e b988 33be 47e6 8cbe
00000040: b28c b33c 9c90 c6be 0c5b 013d 3896 a2bc
00000050: 8104 103f e61f f9be e725 05bd 9488 f03e
00000060: e922 5bbc d0bc 5ebe 7083 09be d544 0bbe
00000070: ee1d 853e 1002 c0bd 3528 25be bbce 133f
00000080: 2303 523f 3d3c 22be 9a40 9ebd 1532 05bf
00000090: c6e0 8bbc c756 3fbe f1f8 183f e455 b7bb
000000a0: 0833 783e 4f25 e73e 552e 25ba 8427 c7bd
000000b0: ac6f 393f 2a8f 363f 0965 c3ba c6aa 14bd
000000c0: c250 9a3d 3282 c23e 174f 35bd 0f1d e73e
000000d0: 8a79 1d3d 08a8 c6bc 4ab6 06bd 9dc4 61bd
000000e0: 3245 65be 496f 13be c633 89bd 2944 5bbe
000000f0: a04d dcbd 99bf c8bd 703b 2ebe e3a4 d33e
00000100: da32 063f 2af7 63bd fb7a 013e 6302 c0be
00000110: 7ce2 b83c a8f2 16bf 6e58 d43e e4c5 2fbe
00000120: 6229 37be 9402 c1bd 9631 773e c233 98be
00000130: f564 ff3d f345 39bf bea6 9ebd 961b e33d
00000140: 045a c3bd eeaf c93e d718 cfba 2991 633e
00000150: d363 1cbe 13f8 2ebd 0122 0d3d f19f 0fbe
00000160: 7702 7ebe 86e2 f43e 8982 cf3d dcd7 5d3e
00000170: 6a24 89be b23e d6bb 136b a3bd 30ee 3d3f
00000180: 74ec 0fbe 7043 983d 49ee 9e3e af4b 82bf
00000190: 8f2f c9be e0bb 3dbe 9bab a4be aecf 1c3d
000001a0: 1813 013d 723d d43d df6d 293c 2a4c 15be
000001b0: e62f 6b3e f7ad 5ebe 6eb3 063f 2355 d9bc
000001c0: c01c c33d 6f74 e73f 302e b5be 97b2 0c3f
000001d0: 45fc d0be ffd3 8e3d 5373 a93d 8588 613f
000001e0: 115d 90bc 9a47 e7bc ec8f 0cbb 6d76 2d3d
000001f0: a1bf 82bc 419b 9dbe d7e7 d3bd eefc 64be
00000200: 1386 bfbd e68f 13bd f63c 7fbc aaf0 f7be
00000210: f239 8abe db3f a53e e2ae 8dbf e462 e2bd
00000220: 8da3 cabe 0570 7ebe aae1 9cbb 20d0 0fbe
00000230: 1df2 2a3e f485 583f c3e5 8c3e 59fe aebd
00000240: fa3c a63e e031 453e fefe 68be f3df 6fbe
00000250: a08d 993e 4e38 d93e 7748 99be df9d 3b3f
00000260: 3d78 ce3d d141 a73e 9e89 c6be 70e5 fa3d
00000270: bf8c 6cbe b599 a2be 40f8 bf3e 94a1 ba3e
00000280: 91dc 28bd c975 e6be e622 82bd ccea 67be
00000290: 569f 113e 8c49 fcbe 82d7 53bd 92f3 b5be
000002a0: e8dc e63e 16ee 6bbc dfe0 953e 0265 5abd
000002b0: f5e0 c83e 1524 663c be67 083e 0635 48be
000002c0: 9b83 1b3f 48bb f13e f25f ccbd d376 6cbe
000002d0: 689f 7fbc 6a3e c4bd 8a24 02be 7560 823d
000002e0: fb17 ddbe 61fc 2bbc 4dd8 c9bd 1263 413e
000002f0: 5350 153e 7ed5 383e 797b dd3d d351 0c3d
