webnn/model-tests/resources/test-data/models/squeezenet1.0_nhwc/weights/fire4_squeeze_kernel.npy (npy, 16464 bytes, 1 tensors)

array f4 [32, 1, 1, 128]
00000000: 247f c9bd 0324 0ebd 5438 e63d 397c 7e3d
00000010: 89a8 a3bd 4917 4ebe 6d0e 053e 97bf 0fbc
00000020: 13fa b83d 2589 8f3e f80d 9bbe df97 1ebd
00000030: 7c1c bc3a f5f2 23be b559 83bd 80cf b43d
00000040: 9b6c d63a 4f21 68bd e517 553e d5eb 6abd
00000050: 639e 89bb d7ff 12bd 2e46 7dbd 1636 023d
00000060: 17d7 eb3d b1aa 35bc f43c fb3c 8f1d 08be
00000070: df42 81bd d75a 0cbd 4306 b43d 051a a1bd
00000080: ba04 c5bd 74fb e8bd 3ff5 e83b 4622 3dbc
00000090: f66d 2a3c cdfb 8c3c cad3 093e 85d2 09be
000000a0: 0d4d 77be 9408 a5bd 79d9 d83c 7f5f 873d
000000b0: 80fc f63d 3d78 6ebd 427b 55be 0a11 43bd
000000c0: b5d1 7939 3f95 aebc c925 ccbd 1760 35be
000000d0: b898 ae3d 17da 823e a5fd 4cbd 16ba d7bd
000000e0: 9ead ee3d 1eb3 a9bc 9a3c bfbd 7aa0 1abe
000000f0: a7bb 983d e11a cdbd 8281 1abe bf91 86be
00000100: eb0b 60bd 6035 00bb 1a9c 023d 529f 883d
00000110: 343b 57bd 1a0e ea3c dae0 883d 90f4 873d
00000120: 6035 29bd 9b83 29bd 44df 24bd a68e 683d
00000130: 7f9e 343e 65f8 72bd c792 5a3d da95 eb3d
00000140: 20ee a43c 4bf5 0a3e bddf 263b 65bd 8ebd
00000150: bb85 ffbc 8185 97bd ab6c b63d f381 bdbc
00000160: bfe6 24be 17eb 43bd 6196 8c3c a78d 68bd
00000170: 0f0c 143d fbf5 0bbe 721a b93d 3c3b 993d
00000180: f720 8cbd 7a7c 5d3c faf2 43bc f40f 4ebc
00000190: 3bba 123e 2584 a33c 2cea 87bd 48c1 023e
000001a0: 75ce fb3d 6366 46bd 470f f63d f672 cfbd
000001b0: 46f3 7f3d 2c92 f9bd 20b0 403e 7af0 e33d
000001c0: fb5e b6bd 40d4 39be 7d2a 523e 0e31 a43d
000001d0: 4b94 583e 9dd9 a63c 4784 653b 4000 313d
000001e0: f88e a3bd 7987 41bd 22e9 10bd 60f6 90bd
000001f0: 28fc 873c 2e1c 403c 96d6 d0bc d8cd cfbd
00000200: f83d 9bbd dc9e 94bd 015b 6cbe 9bc3 3b3e
00000210: 4c62 993c 843d 1d3e a282 c4bd f1d4 18bd
00000220: 7fbd 673b ec7e 7abc 0521 9abd edb1 a13d
00000230: b9bd 6c3d c11d ac3d b37e 703b 0d77 dcbd
00000240: 47be a23d bfed ba3d f9c3 59be 69b2 833d
00000250: 5b97 71be 6825 52be 5589 c53d 4547 09bd
00000260: 9e66 88bd 920f 153e 026c 14be 09d6 0dbe
00000270: e65f 50bb 8d89 593d c75d a93e 4aa0 843e
00000280: a937 b03d c134 193d 3fe9 fdbd 7b1e bebd
00000290: 0349 273c adc3 903a 46dc 8d3d 06d0 d13d
000002a0: 1f13 143c 8f56 b53d 99fb 09bd dfb3 2f3d
000002b0: 76d0 09bd d047 5f3e 33f4 a13e 77d1 333e
000002c0: ad35 8cbc 3c7f 9dbd d367 d53d 03ca 32be
000002d0: 198c b63d 91b2 c93d 5d75 6e3e 3e27 7e3c
000002e0: ae74 51bc 7403 8c3c 8548 fabd 7909 063d
000002f0: 9802 25bd 12df d03d a0af f2bd 8bca c1bd
00000300: 6bc7 e93c 00a2 953c 2ab9 f1bd a886 783d
00000310: 7911 bebd 56d1 47bd a517 3fbc a444 bf3d
00000320: 7f8b 6a3c 3c57 513c 1318 29bd b981 5fbd
00000330: 1d13 23bd 1fda 713d ac78 f93d 5d7c a5bd
00000340: 4f27 25ba 47c4 953d 03d6 cebd c010 73bd
00000350: 51ff e8bb 5578 a13b 40c5 623c baef 5dbd
00000360: 6b9d 5dbe df6d 0d3e e707 68bb 4aaf 90bd
00000370: c42f 46bc ce20 06be 2c96 34bd 9b78 ab3d
00000380: 7556 74bd 25fe 173c b1d9 3abc 79e2 6ebc
00000390: c4fd 9abd d37b ab3d d5df 263c 6081 12bd
000003a0: a33d 9c3d a16f 8e3b efdb 9dbd a736 023d
000003b0: 4231 b93c b799 d23d f970 6f3e cfc9 89bd
000003c0: 12b4 30bc 3667 7a3d 6fd0 34b8 ccc4 3cbc
000003d0: cbf0 443d 4c6b 463d 9b75 d13d 6017 b5bd
000003e0: cf09 dc3d 187e 12bd 8ea6 e7bb 5d73 b3bb
000003f0: b1e3 44bd 298d ef3d 2b86 27bd d4ee 93bc
-0.09838703 -0.034702312 0.112412125 0.062130187 -0.0799113 -0.2012607 0.12993784 -0.008773706
0.09032073 0.2803432 -0.30284095 -0.038719054 0.0014351751 -0.1601065 -0.06413595 0.0882864
0.0016359271 -0.05667239 0.20809896 -0.057353813 -0.0041997894 -0.03588852 -0.061834507 0.03178986
0.115156345 -0.011088059 0.030668713 -0.13292526 -0.06311583 -0.03426632 0.08790257 -0.07866291
-0.09620042 -0.11376086 0.0071093137 -0.011543816 0.010402193 0.017209912 0.13459697 -0.13459213
-0.24150486 -0.08058277 0.026470887 0.06610011 0.12059879 -0.058220137 -0.208478 -0.04762367
0.00023824612 -0.0213114 -0.099681444 -0.17712437 0.085252225 0.25557014 -0.05004658 -0.1053354
0.116542086 -0.020715293 -0.09337731 -0.1510028 0.07457667 -0.10014892 -0.15088466 -0.2628307
-0.054698866 -0.0019563064 0.03188715 0.06671013 -0.052546695 0.028571177 0.06683512 0.066384435
-0.041310668 -0.041385274 -0.040251985 0.056776665 0.17638586 -0.05931892 0.053362634 0.11503191
0.020133078 0.13570134 0.0025462948 -0.06969718 -0.031191697 -0.07398511 0.089074455 -0.023133254
-0.16103648 -0.04783162 0.01716155 -0.056775715 0.036144312 -0.13668053 0.09038247 0.07482001
-0.06842225 0.013518447 -0.011959786 -0.012577046 0.14328854 0.019960472 -0.066364616 0.12769043
0.12295238 -0.048437487 0.12014633 -0.10129349 0.062487863 -0.12186083 0.18817186 0.11129852
-0.08904835 -0.18147373 0.2052402 0.08017169 0.2115032 0.020367438 0.003502147 0.04321313
-0.079862535 -0.047248337 -0.035378583 -0.07078242 0.01659973 0.011725469 -0.025492948 -0.101466835
-0.07580179 -0.072568625 -0.2308159 0.18336336 0.01872363 0.15355498 -0.09595229 -0.03731245
0.0035360751 -0.01528905 -0.07525829 0.07895265 0.05779812 0.084041126 0.0036696612 -0.10764895
0.07946449 0.09127378 -0.21266164 0.064305134 -0.23592894 -0.20522082 0.09645335 -0.033515234
-0.06660198 0.14556721 -0.14494327 -0.13851179 -0.0031795441 0.053109694 0.3307936 0.2590354
0.08604366 0.037403826 -0.12398004 -0.092831574 0.010210278 0.0011044644 0.069267794 0.102447554
0.009037762 0.088544 -0.033687208 0.042896148 -0.03364607 0.21804738 0.31631622 0.17560373
-0.017115438 -0.07690284 0.104201935 -0.17459874 0.0891344 0.09848512 0.23286958 0.015512286
-0.012784166 0.01709149 -0.12220863 0.032723878 -0.040285677 0.10198797 -0.11849904 -0.0946246
0.028537473 0.018265724 -0.11802895 0.060675293 -0.092806764 -0.048783623 -0.011663352 0.09339264
0.014315485 0.012777146 -0.041282725 -0.054567073 -0.03981315 0.059045907 0.121812195 -0.08080361
-0.0006300108 0.073128276 -0.10099413 -0.059342146 -0.007110514 0.004927675 0.013840973 -0.0541837
-0.21642081 0.13811444 -0.00354051 -0.07064684 -0.012096349 -0.13098451 -0.044088528 0.08372613
-0.059652764 0.009276901 -0.011404441 -0.0145803625 -0.07567933 0.08373227 0.010185202 -0.035767913
0.07628944 0.0043468033 -0.07707965 0.0317904 0.022606496 0.10283225 0.2338294 -0.06727945
-0.01078512 0.061133586 -4.3109463e-05 -0.011521529 0.0480812 0.04844217 0.102275096 -0.08842349
0.10744058 -0.035764784 -0.0070694154 -0.005476399 -0.048068706 0.11696846 -0.040899437 -0.018058218
