webnn/model-tests/resources/test-data/models/squeezenet1.0_nhwc/weights/fire4_e1x1_Conv2D_bias.npy (npy, 592 bytes, 1 tensors)

array f4 [128]
0	0x3eee4922	0.4654017
1	0xbd9b7ba0	-0.07591939
2	0xbe5bb606	-0.21456155
3	0x3f0311ee	0.51199234
4	0xbd3f0b28	-0.0466415
5	0x3ecb98fa	0.3976515
6	0xbdb55b1b	-0.088552676
7	0xbf208241	-0.6269875
8	0x3e04ac25	0.12956293
9	0x3ebc4e04	0.3677827
10	0x3d9436cd	0.07237015
11	0x3e4edad5	0.20200665
12	0x3bb6bbcd	0.005576587
13	0xbf755a0e	-0.9584054
14	0x3e620e49	0.22075762
15	0x3e733bfc	0.23753351
16	0x3e7a58da	0.24447957
17	0xbd5fb751	-0.054618184
18	0x3d6e0aed	0.05811589
19	0x3ecf4349	0.40481022
20	0x3f184449	0.59479195
21	0x3e0c6cab	0.13713329
22	0xbe12cee1	-0.1433673
23	0x3f2db19f	0.67849153
24	0x3f36fc6c	0.71478915
25	0x3eaf5764	0.3424636
26	0xbd590e60	-0.052992225
27	0x3eaa44ca	0.33255607
28	0x3e15565d	0.14583726
29	0xbe2c3e24	-0.1682058
30	0x3cc6de3a	0.024275888
31	0xbda6bf02	-0.081419006
32	0x3eae7dfb	0.3408049
33	0xbe01afaf	-0.12664674
34	0xbe81dc1c	-0.25363243
35	0xbf372f4b	-0.7155654
36	0x3e96e63d	0.29472533
37	0xbf1a9022	-0.6037618
38	0x3e831ef4	0.25609553
39	0x3e381af7	0.17979036
40	0x3df4c3a2	0.119513765
41	0x3e05c2b1	0.1306255
42	0x3eaabb81	0.3334618
43	0x3eefae81	0.46812823
44	0xbd984e37	-0.07436793
45	0x3d493a47	0.049127843
46	0x3e36ddc8	0.1785804
47	0x3f20f30d	0.62870866
48	0x3ecceae3	0.40022954
49	0xbdf36653	-0.11884751
50	0x3d6088f4	0.05481811
51	0x3f6bcfa9	0.9211374
52	0x3ec664ed	0.38748875
53	0x3d8e114b	0.06936892
54	0xbeaf3cfa	-0.3422621
55	0xbe8e863c	-0.27836788
56	0xbdf76368	-0.12079507
57	0xbdcbd07b	-0.09951874
58	0xbf77d323	-0.96806544
59	0x3f29f80b	0.6639411
60	0xbefd04f2	-0.49417835
61	0xbe8fe864	-0.28106987
62	0x3e7d3363	0.24726634
63	0x3e9c1a57	0.30488846
64	0xbde66096	-0.11248891
65	0x3d03d05e	0.032181136
66	0xbd94e28b	-0.07269772
67	0x3ec99a0f	0.3937535
68	0xbded79b7	-0.11595481
69	0x3db0f1d3	0.08639874
70	0xbd67faa7	-0.056635525
71	0xbf32a274	-0.69779134
72	0xbe267595	-0.16255791
73	0xbd20348a	-0.039112605
74	0xbe4b70af	-0.19867204
75	0x3e692c18	0.22770727
76	0x3ddcedb4	0.10787526
77	0xbdc7bdb4	-0.0975298
78	0xbda553e8	-0.080726445
79	0x3e88c241	0.26710704
80	0xbe168aac	-0.14701337
81	0xbe16aabb	-0.14713566
82	0xbd9e163e	-0.07719086
83	0xbe19c8a6	-0.15017948
84	0xbee16e18	-0.44029307
85	0xbe1cf103	-0.15326314
86	0xbdf17342	-0.11789562
87	0x3f0657ad	0.5247753
88	0x3f3883a8	0.7207589
89	0xbe48ba61	-0.19602348
90	0x3e49a7d2	0.19692925
91	0x3e282ea4	0.16424042
92	0x3d644cd7	0.055737343
93	0xbe75147e	-0.23933598
94	0xbf1f98b9	-0.6234241
95	0xbe687e2e	-0.22704384
96	0x3e070884	0.13186842
97	0x3e4476a3	0.19185881
98	0xbe43ff2b	-0.19140308
99	0xbcc3949b	-0.023874572
100	0x3f1b7d3a	0.60737956
101	0xbee0dec4	-0.43919957
102	0xbe02d98c	-0.127783
103	0xbde92ceb	-0.113855205
104	0xbed2ce19	-0.41172865
105	0x3f102249	0.56302315
106	0x3e862f2f	0.26207873
107	0xbde2f435	-0.11081735
108	0x3e6c6172	0.23084047
109	0xbe82d87d	-0.25555792
110	0xbe8c02eb	-0.27345976
111	0xbdf4e1cd	-0.119571306
112	0x3d8ab80e	0.06773387
113	0xbedfa303	-0.43679056
114	0x3b59004d	0.0033111752
115	0x3df52ee7	0.119718365
116	0xbed60c9f	-0.41806504
117	0x3ee47203	0.44618234
118	0xbdb29a9d	-0.087208964
119	0x3eac01a3	0.33595
120	0x3e22649f	0.15858696
121	0x3e159a4d	0.14609642
122	0x3f093cfe	0.5360869
123	0x3ea378a3	0.31927976
124	0xbbfe634a	-0.007763301
125	0x3d1caac2	0.038248785
126	0x3f4ae940	0.7926216
127	0x3e902ef9	0.28160837
