webnn/model-tests/resources/test-data/models/squeezenet1.0_nhwc/weights/fire8_e3x3_Conv2D_bias.npy (npy, 1104 bytes, 1 tensors)

array f4 [256]
000000 4e 11 9b 3c c2 23 f6 bd c3 99 2d bc c6 93 26 3e
       0.01892915 -0.12018539 -0.010595742 0.16267309
000010 bd a2 29 be 84 44 e4 3d 04 ba da bc 48 5e cf 3c
       -0.16565986 0.11145881 -0.026700027 0.025313511
000020 0c c4 41 3d 74 55 7f bb 83 98 94 3d 7d b9 8d 3c
       0.047306105 -0.0038960846 0.07255652 0.017300362
000030 8b 26 21 3e f7 e2 09 3e 01 57 01 bd fe a3 a6 3d
       0.15737359 0.13465486 -0.031577114 0.08136748
000040 4c 43 c6 bb d7 f5 a7 3c 17 2f 76 3d ed 8e 64 bc
       -0.006050503 0.020502968 0.060103502 -0.013950092
000050 f5 2a 26 3d 08 d6 38 bd 1d 69 5d bd 02 46 d5 bc
       0.04056831 -0.04512599 -0.054055322 -0.026034359
000060 a6 ee 2b be 90 ed f1 3d e9 10 3f 3e a4 7c de 3c
       -0.16790256 0.118128896 0.18658794 0.027159043
000070 84 84 89 bc 42 a4 3f bc 77 b2 02 3e 17 36 f9 3c
       -0.016786821 -0.011696877 0.12763391 0.0304213
000080 c0 22 03 3e a7 55 98 bc e9 35 05 bd 96 8c e8 bc
       0.12806225 -0.01859553 -0.032522116 -0.02838735
000090 b2 3a 50 bc 07 5f 55 3d 05 28 b2 bb f8 63 37 3d
       -0.012709307 0.05209258 -0.0054368996 0.044773072
0000a0 ba fd c8 3d 18 ab f7 3c a0 a5 ad bc 80 9c 24 3d
       0.098140195 0.030232951 -0.02119714 0.040188313
0000b0 66 85 f1 bb 36 04 21 be 47 d1 f1 3d 85 77 93 bc
       -0.0073706387 -0.15724263 0.118074946 -0.018001327
0000c0 b5 84 7b bd 0b da 71 3c c5 db 3f 3d 14 1b 7d 3d
       -0.061405856 0.014761458 0.046840448 0.0617934
0000d0 87 5a 3f 3e 9f 95 71 bd 4e 12 8a 3d bf e5 67 3c
       0.18686877 -0.05898058 0.067417726 0.014153897
0000e0 8d 4f ac bc fb e0 9d bc 34 06 03 bd 35 0a 60 3d
       -0.021034027 -0.019272318 -0.031988338 0.054697234
0000f0 1a 4a ef 3a 2f 0a fb bc 2e 2f 68 bd fe 2d 7c 3c
       0.0018256337 -0.030644504 -0.05668562 0.015391825
000100 af 00 aa 3d 8c 01 e9 3c 31 3c 1c 3d e6 74 2b 3d
       0.08300912 0.02844312 0.03814334 0.04185953
000110 dd fc 1a 3d 2d 5c e7 3d ba 08 af bc 1d b0 99 3d
       0.037838805 0.11296878 -0.021366466 0.07504294
000120 d6 e1 ed 3d 01 02 e3 3d bf bf 05 3d e4 dc c9 3c
       0.116153404 0.110843666 0.032653566 0.024641462
000130 24 8f 0c 3e 17 26 45 bb f6 84 31 bd d0 b2 1c 3e
       0.13726479 -0.0030082518 -0.043339692 0.15302587
000140 c9 c0 1a bd 3c 49 a6 bc de ce e6 bc 17 11 9d bd
       -0.03778151 -0.020298593 -0.028174814 -0.07669275
000150 e5 29 29 3d 74 e3 ce 3d 17 bc c5 bd a6 8d a5 bd
       0.04129972 0.10101977 -0.09655016 -0.08083658
000160 5c 74 c1 3c d1 d6 1b 3d 95 0d 56 3a a2 20 1b bd
       0.023615055 0.03804666 0.0008165476 -0.037872918
000170 06 f2 cb 3d 41 af 72 bd 7f c7 4c 3d 83 ed fc bc
       0.09958272 -0.059249166 0.04999494 -0.030874973
000180 d0 ca 42 bd 43 57 db 3c 27 39 3f 3e a1 d4 e2 3d
       -0.0475567 0.026775008 0.18674146 0.11075712
000190 23 c4 b3 3d 4d 5a 57 bd 00 bd c4 3d 42 fc 7d bc
       0.087776445 -0.052576352 0.096063614 -0.0155020375
0001a0 fd 38 98 3c bb 86 c1 bd 82 2d 34 3c 19 7f 91 3d
       0.018581862 -0.09449526 0.010997178 0.0710432
0001b0 56 2f f8 3d e5 41 e4 bd 52 de 14 3e d4 69 af 3d
       0.121184036 -0.11145381 0.14537933 0.08565107
0001c0 d7 54 20 bd b2 ac 74 3d 6f 78 48 3d 34 5b b0 3d
       -0.03914341 0.059735008 0.04894298 0.086111456
0001d0 20 ec e1 bc 39 1b 0b 3d 74 63 42 3c 31 f2 3e 3d
       -0.027578413 0.03396151 0.011864532 0.04661769
0001e0 4f ce 6a 3c 4f a2 e1 3d 31 a4 6a 3d db 82 67 3d
       0.014331414 0.11017286 0.05728549 0.056521278
0001f0 f6 b5 d8 3d 53 a7 1d bd 2e 3b 46 3d f9 ef c0 3d
       0.10581581 -0.03848965 0.048396282 0.09420771
000200 a6 f3 17 3c 79 03 fb bc 47 dc dc 3d 7f 91 89 3d
       0.009274399 -0.030641304 0.10784202 0.06717204
000210 f7 fa 1e 3d 27 a6 16 bb f9 83 a9 bc 43 16 21 3d
       0.038813557 -0.0022987218 -0.020692812 0.03932787
000220 1e 06 94 3a 02 b2 16 3e ec e0 8e 3d f8 75 11 3c
       0.0011293327 0.14716342 0.06976494 0.008878224
000230 76 b8 38 3d b9 bb 61 3d 95 9f 9c bc 7b 63 a4 bb
       0.04509779 0.055110667 -0.019119063 -0.005016742
000240 c8 a8 df 3b bb d3 2a 3e 40 ca f3 ba 99 82 5f 3c
       0.00682554 0.16682331 -0.0018599704 0.013641977
000250 1c d8 b4 3d 74 27 9f 3c a9 96 20 3e d1 a3 a8 bc
       0.08830282 0.019427992 0.15682472 -0.020585926
000260 7c 3d 96 3c 1e e6 f5 bd 94 1b a0 bc ee da 70 bd
       0.018339865 -0.12006782 -0.0195444 -0.058802538
000270 dd d0 e2 3d 0c 59 0c 3e 53 34 30 bb 9d e4 51 3a
       0.11074994 0.13705844 -0.0026886656 0.00080067833
000280 38 45 8c 3c 3b d3 ca 3c 4b 9f 78 3d 2b 72 0f bd
       0.01712285 0.024758926 0.06069879 -0.03502099
000290 84 cd 34 3e 0a cd 21 3e 27 96 3b bd 9b 02 16 bd
       0.17656523 0.15800872 -0.045797493 -0.03662358
0002a0 07 75 84 3d e9 b2 40 3d ae 7c 32 3d 61 ed 72 3b
       0.06467634 0.047045622 0.043575935 0.0037067758
0002b0 7f 70 14 be ab 7a 44 3c 9f 2d fb 3d 7f dd a6 3d
       -0.14496039 0.011992137 0.12264561 0.08147716
0002c0 88 1a 0f ba c0 70 7c bc aa eb aa bb 78 e2 97 3d
       -0.00054589706 -0.015407741 -0.0052160816 0.07416242
0002d0 4e f2 cd 3d 9a 7c 56 3d 27 94 65 bd 1b 50 25 bd
       0.100559816 0.052364923 -0.056049492 -0.040359598
0002e0 b8 f8 82 bd b7 1c ac bc cb 6f 96 3d 8e 24 0f bd
       -0.063950956 -0.021009786 0.073455416 -0.03494697
0002f0 7e ac 79 3c 0c 8f 3b 3d cf e6 5c 3d b5 50 03 3d
       0.015238879 0.045790717 0.053931054 0.03205939
000300 9f 3e de 3a dc a9 1f bc af a2 f1 3d 2e b6 f4 39
       0.0016955918 -0.0097450875 0.117986076 0.0004667504
000310 0c c4 ae 3d 12 c7 3b bd b4 4e 9e bd b4 5d 3c 3d
       0.08533487 -0.045844145 -0.07729855 0.0459878
000320 a9 b2 4d 3c e6 fb 6c bd 5b c3 84 bd bb ca 93 3a
       0.012554803 -0.057857417 -0.064825736 0.0011275628
000330 8e 45 6b 3d 8b 70 a8 3c 50 84 06 be b0 8f 3c 3d
       0.05743938 0.020561477 -0.1313641 0.04603547
000340 4a e4 b1 3d 95 62 4a 3c c5 73 41 bc d4 fd fb 3c
       0.08686121 0.012352605 -0.011807387 0.030760683
000350 24 c9 a8 bb 76 a5 26 3d 48 41 29 3d 19 48 0d bc
       -0.005150931 0.04068514 0.041322023 -0.008623146
000360 65 53 de bd 87 18 59 bd d3 33 04 3e 71 33 cd bd
       -0.1085575 -0.053001907 0.12910394 -0.10019577
000370 9c 9b e1 3c e9 c3 d4 3d a0 e5 a9 3d a9 30 7d 3d
       0.02754002 0.103889294 0.082957506 0.061813984
000380 43 13 fa 3c d2 db 3a 3d c5 66 d6 3c f1 36 78 bd
       0.030526763 0.045619793 0.026172051 -0.06059927
000390 dd 25 8b 3d 6e 4a 1e bd f8 57 c9 3c d0 b4 02 3e
       0.06794331 -0.0386452 0.02457808 0.12764287
0003a0 05 28 59 3c 7a 78 fc bb dc 20 b1 3d aa 1c b3 3c
       0.01325417 -0.0077047916 0.086488456 0.021864254
0003b0 52 82 ad 3d 49 ee 82 3d 83 36 4d bd a7 47 71 3c
       0.08472122 0.063931055 -0.050100815 0.014726556
0003c0 52 74 e9 b9 c9 32 7b bd 43 07 e1 bb be e2 ff 3d
       -0.00044527889 -0.06132773 -0.0068673207 0.124944195
0003d0 6f 08 2a bd cb 94 1a 3c 33 1b b3 3d 03 30 b9 3c
       -0.04151195 0.009434889 0.08745422 0.022605902
0003e0 c6 55 1b 3e 5c 4b f2 3d 9f fa ae 3b 8e e0 18 3d
       0.15169439 0.1183078 0.005339935 0.037323527
0003f0 11 61 b4 3c cd d1 57 3c 50 c8 ea bb 98 b6 08 3d
       0.022018941 0.013172579 -0.0071649924 0.03337726
