webnn/model-tests/resources/test-data/models/squeezenet1.0_nhwc/weights/fire2_e1x1_kernel.npy (npy, 4176 bytes, 1 tensors)

array f4 [64, 1, 1, 16]
000000 8a 78 3a bd 59 74 96 3d 1e 59 42 3e 3b ed 0b be
       -0.04552511 0.0734641 0.18979308 -0.13664715
000010 d3 8b a6 3e 4d 25 9a 3d 6b 61 78 3d 43 b3 d2 3d
       0.32528552 0.07526646 0.06063978 0.10288098
000020 12 5b 0b bd 21 4b 38 3e 7e 07 b6 3d cd 82 6e 3d
       -0.0340224 0.1799741 0.08888148 0.05823021
000030 0b 65 b3 bf 22 1f 27 3e a7 14 52 3e 23 00 be bc
       -1.4015211 0.1632047 0.2051569 -0.023193425
000040 33 1e 54 bd 4a 37 bb 3d 9b 35 3a 3e 56 43 70 3c
       -0.051786613 0.09141405 0.18184511 0.014664492
000050 c2 cd 4b 3e f6 59 aa ba 7b 69 b8 3d 66 ea 8d be
       0.19902709 -0.0012996781 0.09004494 -0.27717894
000060 61 e4 19 bd fa f2 a1 3e 90 9d 8e 3d 38 1f bf 3d
       -0.037571315 0.3163069 0.069636464 0.093321264
000070 23 24 f4 bd d4 25 11 3d 36 89 b9 3d bd 4a 44 bf
       -0.11920955 0.035436466 0.09059374 -0.7667654
000080 6f 2f d7 bc a4 91 31 bd b4 84 67 3e 04 00 4e bd
       -0.026267735 -0.043351784 0.22609216 -0.050292984
000090 02 9c 1e bd bf 42 2c be 76 05 b6 3e e6 49 4e bd
       -0.038723 -0.16822337 0.3555104 -0.050363444
0000a0 4a 81 ae 3d fd c6 10 3e c0 7c c7 3e 40 a6 44 3e
       0.08520754 0.14138408 0.38962364 0.19204044
0000b0 14 e8 f9 3d f0 b9 41 3d ad 3b 93 be 22 f3 78 bd
       0.122024685 0.047296464 -0.28756467 -0.060778745
0000c0 64 3c 30 be f5 5b 96 bd d3 d0 b8 3e cd a3 8c 3d
       -0.17210537 -0.07341758 0.3609682 0.0686718
0000d0 03 f5 18 3f b6 4c 2a bd 70 1a c9 3d b7 03 c3 be
       0.5974886 -0.041577064 0.09819496 -0.38088772
0000e0 75 1f 81 be cb 5f 40 3e 8c e5 82 3e 5a 6b 21 3d
       -0.25219312 0.18786542 0.25565755 0.03940902
0000f0 60 9b 76 be 19 70 55 bf a7 73 7c be 08 46 23 b7
       -0.24082708 -0.8337417 -0.24653493 -9.7318625e-06
000100 ce 7d cb bd 7d e0 74 bd 19 52 d8 3e cb 44 49 bd
       -0.09936105 -0.0597844 0.42250136 -0.04913787
000110 93 51 99 3d 0f ab 81 3d 5e 14 c5 be 56 c5 bf 3b
       0.07486262 0.06331455 -0.384921 0.0058523817
000120 99 f7 a4 bd 78 96 18 3f 50 06 36 be be e2 e6 bd
       -0.08055038 0.596046 -0.17775846 -0.112737164
000130 5e 79 44 bd d0 8c 7c 3d 61 03 f0 be 90 f6 a8 3d
       -0.047967307 0.061657727 -0.46877578 0.08250153
000140 ac 7a 93 3e 43 a2 a2 3e 57 e1 16 3f 63 de 73 be
       0.2880453 0.3176442 0.5893759 -0.23815303
000150 1e 6e 12 bd 18 19 78 bd 09 41 40 3c 53 79 54 3d
       -0.035749547 -0.060570806 0.011734256 0.051873516
000160 79 fd 65 3e 5b f0 e8 be 94 bf da bd e2 53 53 bd
       0.22459973 -0.45495877 -0.10681072 -0.05159367
000170 69 80 25 3e c9 e7 1c 3e 52 7e 70 3c fc 38 23 bd
       0.16162266 0.15322794 0.014678555 -0.039849266
000180 6d a7 fa 3d da 55 39 3e 01 cf 02 be 7b 3b e4 3d
       0.12238965 0.18099156 -0.12774278 0.111441575
000190 26 b7 9e bd 11 6d 42 bd 09 9a ff bd cf 43 a9 bd
       -0.077497765 -0.047467295 -0.12480552 -0.082648866
0001a0 bc 61 ed be 11 7b aa bd ee ef 77 bd 46 b3 ab bc
       -0.46363628 -0.08324254 -0.06053155 -0.020959508
0001b0 ef a0 80 3e 53 dc f1 3b f5 a3 40 3e 8d 57 1d 3b
       0.25122783 0.007381001 0.18812545 0.0024008483
0001c0 36 65 ce bd 7f 08 39 bd 95 f4 24 3e 89 bb 50 3d
       -0.10077898 -0.045174118 0.16108926 0.050960097
0001d0 4d c1 94 3c 6f 99 03 3d 89 7d 95 3e 96 d9 bd bc
       0.01815858 0.032128748 0.29197338 -0.023175042
0001e0 e0 5f d0 3c 78 ee b6 3e 41 a8 9a 3e 63 4e a1 bf
       0.025436342 0.35728812 0.30206493 -1.2602047
0001f0 7f 16 82 3d 32 c8 f6 bb 00 bd 8d bd 52 71 e9 bd
       0.06351947 -0.0075311894 -0.069208145 -0.11398567
000200 2e 49 a4 be 10 f6 59 be 46 f7 5b 3f 5c fa 2c 3e
       -0.32087082 -0.21285272 0.85924184 0.1689238
000210 6d d1 97 3d 89 ef cb bc 75 c4 23 3e 83 03 cb bd
       0.07412992 -0.024894493 0.15992911 -0.09912779
000220 11 c2 5a be b1 d4 23 bf a8 78 fd 3d db 89 86 3b
       -0.21363093 -0.63996416 0.12376529 0.004105789
000230 74 f2 0e be bc 93 34 be 82 4b d0 3d ff 51 a4 bc
       -0.13959676 -0.17634481 0.10170652 -0.02005863
000240 fc c4 87 bd c0 8b 16 bd 92 e5 8e be f3 3e 09 bb
       -0.06629369 -0.03675437 -0.27909523 -0.0020942062
000250 c2 70 97 3d 64 c0 13 3e 07 b6 8b 3e 6d 22 a8 3c
       0.07394554 0.1442886 0.27287313 0.020524228
000260 18 11 ec be d7 1e 3f bf 00 78 20 3e ec e0 46 3e
       -0.46106791 -0.7465643 0.15670776 0.19421738
000270 91 b9 3d bd d7 6a d7 bd 6b 97 90 3e 16 10 66 bd
       -0.046319548 -0.10518425 0.28240523 -0.056167684
000280 1c 3a 35 bd fe 3a d3 be 0a d9 b9 bd 66 89 97 3d
       -0.04424487 -0.41255945 -0.090746 0.073992535
000290 e2 5d 78 3c c2 db cf 3c 88 85 3a 3d 6f a5 69 3d
       0.015159102 0.025373343 0.0455375 0.057042535
0002a0 4d 66 43 3f 19 8c e5 bc 1a 06 41 3c ae ab 76 bc
       0.76327974 -0.028020905 0.01178124 -0.01505558
0002b0 5a b6 a4 bd 8a 42 02 bd eb 31 c1 3e 62 33 bf bd
       -0.08042593 -0.031801738 0.37733397 -0.09335972
0002c0 cb 8c 58 3c f2 e7 87 3d 36 e6 4d 3e 6d 19 c1 3d
       0.013217161 0.06636037 0.2010735 0.09428678
0002d0 06 f7 18 bf ca a7 09 bf b5 c6 eb bc cc 3e fc 3e
       -0.5975193 -0.5377165 -0.028781274 0.4926666
0002e0 2f 5d 8a 3a a7 5e 59 3e c6 25 68 3b 17 0b 65 3d
       0.0010556335 0.21227513 0.0035422905 0.05591878
0002f0 84 d7 06 bf d4 48 4c 3e 18 aa a3 bb 02 48 86 be
       -0.526726 0.19949657 -0.004994642 -0.26226813
000300 67 0d dd bd 5e 05 90 bd 81 5e 62 3e 35 fc 10 3e
       -0.10793572 -0.07032274 0.22106363 0.1415871
000310 26 da a9 bd ed ad 44 3c e3 57 92 3d c2 0a 99 be
       -0.08293562 0.012004358 0.07145669 -0.2989102
000320 a4 74 d3 3d 2b d0 eb 3d 41 ef 2d 3d 28 1f a2 3d
       0.10324982 0.11514314 0.0424645 0.07916099
000330 5f 64 fe 3e 16 b0 7b 3d d4 81 69 be 73 72 66 bf
       0.49685952 0.061447226 -0.22803432 -0.90018386
000340 63 e9 d7 3d 73 93 ef 3d df 7d bb 3c 86 3a 19 be
       0.10542562 0.116980456 0.022887168 -0.14963731
000350 52 16 0e 3c 26 a2 68 bd 1e f0 59 bf 3c f5 71 3c
       0.008672314 -0.05679526 -0.85132015 0.014767941
000360 1a 95 18 bd dd 22 b0 bd cc 7a 3d 3f 1c 57 7f be
       -0.03725157 -0.086004 0.740155 -0.24935573
000370 9e d7 2f 3d 89 08 a1 3c 8c 4d 9c bd 3b 81 e9 3d
       0.042930238 0.01965739 -0.076319784 0.11401602
000380 0b 2d 88 bd f6 36 09 be 2a 1e ce 3e e2 01 79 3c
       -0.06649216 -0.13399872 0.40257388 0.015198203
000390 12 cb 81 3b ea 21 f0 bc 0a 61 53 bf 16 05 be bd
       0.0039609754 -0.029313046 -0.82569945 -0.09278314
0003a0 eb 41 ca 3c fb 45 87 be 7f ef f6 3e 38 94 44 bf
       0.024689635 -0.26420578 0.48229596 -0.76788664
0003b0 10 7b b0 bc ee 1e 59 bd 1e cf 1c 3b 5a f0 60 3d
       -0.021543056 -0.053008012 0.0023927162 0.054916717
0003c0 a0 04 53 3f a6 1b 5e bf 07 e8 c2 3e 14 68 9a 3e
       0.8242893 -0.8676094 0.38067648 0.3015753
0003d0 9f b3 81 be a4 6e 38 be 40 de bf 3c 92 33 55 3e
       -0.25332353 -0.18010956 0.023421407 0.20820454
0003e0 0d 84 fe be 55 00 fc 3e 9d 1c f9 3d bc 7b 1e 3e
       -0.49710122 0.49219003 0.12163661 0.15476888
0003f0 f8 54 0f bf 27 6f 2d bf 2e b7 a2 3d e9 05 0a bf
       -0.5598903 -0.6774773 0.07945095 -0.5391527
