webnn/model-tests/resources/test-data/models/resnet50v2_nhwc/weights/resnet_v2_50_block2_unit_1_bottleneck_v2_conv1_weights.npy (npy, 131168 bytes, 1 tensors)

array f4 [128, 1, 1, 256]
000000 e0 a4 9b 3a 16 e6 3b bc 79 11 ab bc ca 69 93 3b
       0.0011874698 -0.011468431 -0.020882355 0.004498695
000010 b4 c7 e9 bc 27 93 5b 3d 36 36 f2 bc 32 aa df bc
       -0.028537609 0.053607132 -0.029566865 -0.027302835
000020 9d 9d 12 3d 35 35 d5 bc 2e 02 2d bd 3d db 2f 3c
       0.035794843 -0.026026348 -0.042238407 0.010733423
000030 8b 30 32 3d 22 92 ba 3a a8 55 0d 3c a6 7a 05 3e
       0.043503325 0.0014234225 0.008626379 0.13035068
000040 5a c0 1d 3e 07 00 8f 3b c1 b8 8d bc f3 7f 32 bd
       0.15405408 0.004364017 -0.017300012 -0.043579053
000050 67 c1 a7 3a 33 e2 93 3d 8f d4 cb bc 0a c9 ac 3c
       0.0012798727 0.072208785 -0.02488163 0.021091957
000060 4a f3 33 3d db f6 10 bd dd 51 35 bc 59 f7 48 3c
       0.04393319 -0.03539167 -0.011066881 0.0122660035
000070 5f d2 8e bb e8 fd 9d 3c 9a eb bd bc 95 13 31 bc
       -0.0043585743 0.019286111 -0.023183633 -0.010807891
000080 cf 91 89 3c e8 34 86 bc e2 de 5a bd 8e cc 85 3c
       0.01679316 -0.01638265 -0.053435214 0.01633289
000090 e3 e9 36 3c cb 06 57 bc 99 97 73 bc 87 95 94 3d
       0.011164161 -0.013124178 -0.014867687 0.072550826
0000a0 b6 97 a6 bb cd ff 65 bb 6d f9 8d bd 57 cd f7 3b
       -0.0050840033 -0.0035095096 -0.0693234 0.00756232
0000b0 53 21 ca 3b c5 32 01 3d 9f 37 0f bc 7c 08 d3 bb
       0.0061685233 0.03154256 -0.008741288 -0.0064402204
0000c0 b1 e4 8a bc 05 23 99 bd 2c 34 a1 bc 64 b8 ce bd
       -0.016954752 -0.074773826 -0.019678198 -0.100937635
0000d0 8f c3 e9 bb 4d 45 22 3d bb cd 91 bc cd 25 d0 3c
       -0.007133908 0.03961687 -0.017798295 0.02540865
0000e0 a4 b3 d1 3b ca e8 d9 bc 69 05 97 bc 31 f9 c8 3c
       0.0063995887 -0.02660026 -0.018435197 0.024532886
0000f0 ec ac 39 bd ec b7 1d bd aa 7b 52 3c eb 90 4c 3d
       -0.045330927 -0.03850548 0.012846867 0.049942892
000100 ad ed 6a ba ef 5d ea bc ad 8b 4d 3c 96 72 04 bd
       -0.0008961808 -0.028609244 0.012545508 -0.03233584
000110 e0 70 21 bd da 0a c8 bb c3 7c 90 3d 02 b7 f4 bc
       -0.039414287 -0.006104809 0.070550464 -0.029872421
000120 c4 a7 80 bc 0a 71 19 be 43 b0 92 3d 4d b4 15 bd
       -0.015704997 -0.14984527 0.071625255 -0.0365489
000130 15 17 46 bb 84 c1 8a bc 1e ab d1 bd 17 90 a3 bd
       -0.003022616 -0.016937979 -0.10237716 -0.07986467
000140 cd dc 08 3c cc 24 72 bc 31 ac 87 bc 84 0d 6c bb
       0.008353424 -0.014779281 -0.0165616 -0.0036018798
000150 d2 f8 b0 bb 52 1f 15 3d 24 cd d3 39 1b e0 f1 3d
       -0.0054007554 0.036406823 0.00040397898 0.11810323
000160 3e 5e af bc 3d a8 0b bd a6 0e 56 3b 66 ba 13 bd
       -0.021407243 -0.03409599 0.003266254 -0.036066435
000170 e3 1d 11 bc ce 3d 94 bd e1 4a 86 3d 54 11 96 3d
       -0.008857223 -0.07238351 0.06557251 0.07327524
000180 04 66 c1 bc 33 a9 3a bd fc d7 96 bc 32 0c a6 bd
       -0.023608215 -0.045571517 -0.018413536 -0.08107795
000190 b7 b9 01 bd b1 d4 dd bc 5f da 7e 3b 48 af bb 3c
       -0.031671252 -0.027078958 0.0038887484 0.022910729
0001a0 c8 29 a5 3c 7e 98 5d bb a5 74 39 3c 85 5f 00 bd
       0.020161524 -0.0033812816 0.011319314 -0.031341095
0001b0 2c 7b cd bc 71 ab 66 3c 21 83 b4 3b e4 23 04 3d
       -0.025083147 0.014078961 0.005508796 0.03226079
0001c0 49 36 a0 bc ac 74 9e 3d 4c 16 e6 bc 49 5b 3f be
       -0.019557135 0.07737097 -0.028086804 -0.18687166
0001d0 c6 c9 cd 3d be b8 75 3a 6f 53 b0 bc aa 25 10 3d
       0.10048251 0.0009373537 -0.02152416 0.03519217
0001e0 4a 9b 92 3d 36 c4 5a bc c5 3d be bb 16 ac 8f bc
       0.07158525 -0.013352444 -0.0058057033 -0.017538112
0001f0 08 97 30 3d 6e 64 85 3c a0 b3 a3 3c 9e e2 a9 bc
       0.043112785 0.01628324 0.019983113 -0.020737942
000200 64 07 55 bb 52 f5 ca 3c 82 24 a6 3a 66 65 97 bc
       -0.0032505626 0.024775181 0.0012675675 -0.018480968
000210 44 ca 9f 3c 70 3e 7a bc 05 23 84 bc 1c 56 96 3b
       0.019505627 -0.015273675 -0.01612998 0.0045879018
000220 f6 db 3c 3c 55 62 d0 bb 26 76 77 bc dd 95 80 bb
       0.011527052 -0.0063593783 -0.015103852 -0.003924115
000230 e0 d6 e2 3c 4b a8 98 bc 39 0a a3 3c 8c b5 36 3d
       0.027690351 -0.018634936 0.019902335 0.04460673
000240 aa c4 a6 bc 2f aa 75 3b 84 70 27 3d 78 2f 2e 3c
       -0.020357449 0.003748547 0.040878788 0.010631435
000250 88 ee 2b 3b 1a 67 8d 3c 93 ed 58 3c 23 48 a8 bd
       0.0026234705 0.017261077 0.013240236 -0.08216884
000260 65 c2 66 3c 41 a7 f0 3b 48 d8 2c 3b 42 02 97 3c
       0.014084433 0.007344157 0.002637403 0.018433694
000270 6a 23 92 3c f0 fe 2e bd a8 4c ee bc c1 d5 d0 3c
       0.017839152 -0.042723596 -0.029089287 0.02549255
000280 85 01 04 3d c4 61 0b bd eb 48 6f 3c 57 81 dd bc
       0.03222801 -0.034028783 0.014604787 -0.027039213
000290 1c d5 be bb 98 47 8b bc 52 01 00 bd ed c5 b2 bb
       -0.0058237445 -0.017001912 -0.03125126 -0.0054557235
0002a0 52 d5 37 3d 8d 65 d9 bd 36 37 46 3d e3 b5 a8 bc
       0.044881172 -0.106150724 0.048392497 -0.020594543
0002b0 60 34 44 3d 50 c1 3d 3d a8 f1 13 3d 0a a6 37 bc
       0.04790151 0.046326935 0.036119133 -0.01120902
0002c0 ea e7 91 bb 30 80 6b bd 46 da 6a 3c ec 78 48 3c
       -0.004452695 -0.057495296 0.014334267 0.012235861
0002d0 f5 08 aa bc 40 41 d8 3b 7d 19 8b 3c eb 93 6f bd
       -0.020756224 0.0065995753 0.016979927 -0.058490675
0002e0 eb 38 1d bd a8 6a 98 3c 24 95 6e 3d 2f 23 4f bd
       -0.03838436 0.018605545 0.0582477 -0.050570663
0002f0 01 98 e9 ba 87 0c 7e bc f7 82 4e bd 7d d8 9c 3c
       -0.001782179 -0.015505916 -0.050417867 0.019146198
000300 84 11 2e bc 39 9d b5 bd 45 b6 54 3c 61 a2 bc bc
       -0.010624293 -0.088678785 0.01298291 -0.023026647
000310 9b 68 9f bc b8 d0 0f bd 48 ed 4b bc a0 13 8c 3d
       -0.01945906 -0.03511116 -0.012446709 0.06839681
000320 a3 34 e3 3c f0 70 c1 bc 5f 4f f9 bb 28 b6 e9 3c
       0.02773506 -0.023613423 -0.0076083387 0.028529242
000330 02 c2 f4 3d d4 5f 8a bd b2 bb 58 3b d5 e5 02 bd
       0.119510666 -0.06756559 0.003307086 -0.031957466
000340 ce 4a 9a 3c f5 0b c1 3c 4f 81 19 3d 49 3a 6a bd
       0.018834498 0.023565272 0.037476834 -0.05718449
000350 c5 a5 bc bb 0e 18 72 bd 62 16 d9 bc a0 f1 91 bc
       -0.005757066 -0.05910497 -0.02649993 -0.017815411
000360 1a c6 80 bc eb 46 2f bb 16 5e ea 3d 52 a1 62 bd
       -0.015719462 -0.0026745151 0.11443727 -0.05532963
000370 07 86 38 bd 98 19 02 3c c7 85 10 bc 93 f6 37 bd
       -0.045049693 0.007940672 -0.0088209575 -0.044912886
000380 f2 82 0d bd 15 b5 49 bc 61 e0 d9 3c f2 7e b0 bc
       -0.034548707 -0.01231124 0.02659625 -0.021544907
000390 ec d2 6b 3d 04 eb 46 bd 9b a7 bd bb 03 b8 8f 3c
       0.057574198 -0.048563972 -0.0057878024 0.017543798
0003a0 dd b1 2c 3d b3 8b 24 bd 39 10 76 bc 12 76 7d bc
       0.04216181 -0.04017229 -0.015018516 -0.015470045
0003b0 fe 9e 55 bc b3 bd 17 bd e6 24 fa bc 5c 44 c1 3a
       -0.013038395 -0.037046146 -0.030535173 0.0014745104
0003c0 b6 8d 0d bd d5 d6 c1 3b 0a 92 b1 3c 45 9f 81 3c
       -0.034558974 0.0059155026 0.021676082 0.015823016
0003d0 b0 ea 6a bd 0d 2e 1c 3d 4d 8d ae 3c d2 5a ee bc
       -0.05735272 0.038129855 0.021307612 -0.02909604
0003e0 2d 81 51 3c 0b 75 66 bb d2 7a 81 bc b9 0e d8 3c
       0.012787146 -0.0035164978 -0.015805636 0.026374208
0003f0 fc 51 b8 3b 65 05 93 bb 49 cf bd ba d5 5c e1 bc
       0.0056250077 -0.004486727 -0.0014481331 -0.027510086
