webnn/model-tests/resources/test-data/models/resnet50v2_nhwc/weights/resnet_v2_50_block3_unit_6_bottleneck_v2_conv3_Conv2D_bias.npy (npy, 4176 bytes, 1 tensors)

array f4 [1024]
000000 37 dc bb af 6b e0 1e b4 24 df e3 b2 30 dd 06 b5
       -3.4171574e-10 -1.479654e-07 -2.652775e-08 -5.024076e-07
000010 68 90 8a b3 ac 73 84 33 18 90 b4 b3 e8 73 72 33
       -6.452393e-08 6.1677696e-08 -8.408114e-08 5.6450432e-08
000020 47 1e 86 33 ec a8 e8 31 86 3a 99 b3 2a e2 b9 b3
       6.245369e-08 6.771293e-09 -7.135263e-08 -8.655873e-08
000030 cc 6d 5d b4 c5 4f 06 b3 4b 34 26 34 5b a8 be b2
       -2.0622173e-07 -3.1271856e-08 1.5478979e-07 -2.219547e-08
000040 79 a9 ba 33 25 2c 23 b5 9a 77 bb b4 0f df 66 34
       8.692127e-08 -6.078647e-07 -3.4918486e-07 2.1501567e-07
000050 2b 50 d5 b2 9c 6c 81 34 94 b0 64 34 81 ed 90 b4
       -2.483292e-08 2.4107146e-07 2.1298393e-07 -2.6994897e-07
000060 16 e7 13 b5 53 fa ca 33 86 04 09 b4 32 15 dc 33
       -5.509804e-07 9.451892e-08 -1.2760765e-07 1.0248404e-07
000070 2d fb 29 34 eb c0 03 31 9e ae fb b3 c1 25 97 31
       1.5830729e-07 1.917267e-09 -1.1719861e-07 4.3989705e-09
000080 8c 9d 8e 33 0a d6 3d 33 e9 ff 16 b4 72 38 ab b2
       6.641048e-08 4.419966e-08 -1.4062938e-07 -1.9932688e-08
000090 24 59 33 b5 78 ce ed b3 f8 09 2f b2 c8 17 8f b4
       -6.6812413e-07 -1.1073729e-07 -1.0188607e-08 -2.665313e-07
0000a0 06 d5 a7 b3 18 ac 47 b3 71 59 45 b4 7c 1c 01 35
       -7.815292e-08 -4.6489816e-08 -1.8379593e-07 4.8097695e-07
0000b0 be b2 99 33 ae c2 f3 32 20 df 8b b4 6e ff 32 33
       7.157131e-08 2.8377453e-08 -2.6053112e-07 4.1676167e-08
0000c0 a5 f5 16 b5 03 25 52 34 10 d8 c6 b3 3f 1d ce b4
       -5.6236814e-07 1.9571239e-07 -9.259395e-08 -3.839177e-07
0000d0 de cf 21 34 bd f7 cf b3 9f 36 55 b3 d1 10 d5 b4
       1.5069915e-07 -9.684252e-08 -4.9642605e-08 -3.9686577e-07
0000e0 13 42 04 b5 1d a8 fc b2 8a 9b 8a 34 d2 70 44 b4
       -4.926998e-07 -2.941311e-08 2.5817673e-07 -1.8294966e-07
0000f0 16 62 57 34 f8 c6 a8 34 d7 b1 8a 31 55 c0 12 32
       2.0059119e-07 3.1437207e-07 4.0365467e-09 8.54205e-09
000100 b7 42 cf b3 c9 9b a6 32 2d 5a e4 b4 e6 2c 0e b4
       -9.651324e-08 1.9395786e-08 -4.253392e-07 -1.3241115e-07
000110 76 7d 82 b2 33 f6 65 b3 e8 88 7c 34 ab 4d f8 b2
       -1.5191045e-08 -5.3542134e-08 2.3519135e-07 -2.890632e-08
000120 eb 3f 67 b2 df d9 a5 33 4f 5e 7d 34 fd 8b 89 32
       -1.3460503e-08 7.723042e-08 2.359677e-07 1.6012558e-08
000130 7d 0d 3e 34 1f 4e b6 b4 4f d0 7d 32 a9 e7 73 33
       1.7700036e-07 -3.3956982e-07 1.4773902e-08 5.678854e-08
000140 80 b9 22 b4 79 53 97 b4 b0 63 c5 b3 78 1a 91 31
       -1.515491e-07 -2.8186676e-07 -9.1916604e-08 4.2230646e-09
000150 47 40 21 b4 57 93 5c b4 90 4d 0c b5 9a da 5f 34
       -1.5017677e-07 -2.0542699e-07 -5.226693e-07 2.084802e-07
000160 9d 9f 14 b3 0a 28 c3 34 45 60 00 32 42 6d ea b3
       -3.4604103e-08 3.6350713e-07 7.47247e-09 -1.0916348e-07
000170 1f c3 eb b3 0f 1a f5 33 a6 5d 36 b3 7b af 25 b3
       -1.09785326e-07 1.14134416e-07 -4.246035e-08 -3.8576655e-08
000180 27 d9 90 b2 bc 1d 15 b4 41 65 e0 33 c5 9b 54 b4
       -1.6862556e-08 -1.3887524e-07 1.0449231e-07 -1.9800707e-07
000190 8b d3 51 b4 2c cb 9a b4 38 83 27 34 10 81 88 34
       -1.95416e-07 -2.8832562e-07 1.5600824e-07 2.542588e-07
0001a0 cc 6d a4 b3 9d ca 30 34 08 fb 03 b4 db f7 9b 34
       -7.656817e-08 1.6464988e-07 -1.229165e-07 2.9051338e-07
0001b0 ef 1f ad 32 54 3d 6b b4 01 6b 8b 33 89 8a 1c b3
       2.0154372e-08 -2.1908392e-07 6.492156e-08 -3.6447577e-08
0001c0 8e 11 c1 31 41 fe 1e 33 1c 53 31 33 61 cf 83 32
       5.619035e-09 3.7018484e-08 4.128661e-08 1.5344712e-08
0001d0 fa fd f8 b2 e4 70 98 b4 67 95 c1 33 52 19 0f 33
       -2.8986495e-08 -2.8394345e-07 9.014439e-08 3.331781e-08
0001e0 04 08 1a b4 44 da f6 34 69 f7 de b4 db a2 35 b4
       -1.4345284e-07 4.597988e-07 -4.1530737e-07 -1.6916185e-07
0001f0 27 8f a4 b2 13 8d 94 b1 68 68 83 b3 e9 64 83 33
       -1.9157211e-08 -4.323405e-09 -6.119154e-08 6.118518e-08
000200 31 42 2f 33 0e 93 a7 b3 03 20 a4 33 84 b8 27 32
       4.0805563e-08 -7.8032926e-08 7.642668e-08 9.762633e-09
000210 b6 7f 9e 33 19 6b 8c 34 87 e8 bd b4 f2 aa 13 b4
       7.380679e-08 2.6154956e-07 -3.537318e-07 -1.3752631e-07
000220 4b df 22 b3 8d e6 57 33 05 c5 33 b4 6e 1a 3d 33
       -3.7921648e-08 5.0268273e-08 -1.674235e-07 4.402903e-08
000230 2b 07 83 b3 91 c5 5a 32 8e e3 75 33 98 e3 73 b4
       -6.101467e-08 1.27341915e-08 5.7250467e-08 -2.2713937e-07
000240 15 00 3b b4 d6 c7 98 b3 49 4b b3 b4 5c 28 14 b2
       -1.7415762e-07 -7.1144015e-08 -3.3396125e-07 -8.6239105e-09
000250 1d e9 37 b2 57 1e 17 32 aa a3 19 b4 ed 69 37 b4
       -1.0705006e-08 8.796255e-09 -1.4308776e-07 -1.7081739e-07
000260 80 37 25 b4 59 ff 9d 32 91 6d d2 b3 f2 d0 a9 b3
       -1.5387013e-07 1.8393324e-08 -9.798817e-08 -7.907683e-08
000270 98 47 d6 34 88 1e f7 b4 93 d0 be 34 7d c3 1f b5
       3.9912698e-07 -4.602955e-07 3.5542016e-07 -5.951659e-07
000280 22 e8 03 b4 c2 51 ba b3 f8 c1 1d b1 17 83 2c 33
       -1.2284775e-07 -8.6761716e-08 -2.2956765e-09 4.0166096e-08
000290 f0 ed 91 b4 42 5e 3f 33 50 53 98 33 3a a9 79 b3
       -2.7181477e-07 4.455638e-08 7.093206e-08 -5.812874e-08
0002a0 5e 3b c6 33 5d 18 cc 33 ae aa c1 b4 16 76 fd b3
       9.230892e-08 9.503922e-08 -3.6073237e-07 -1.180271e-07
0002b0 e4 8d c0 32 61 46 04 b4 f1 76 ab 33 d8 fd 86 34
       2.2416266e-08 -1.2319062e-07 7.984443e-08 2.514414e-07
0002c0 3a fb 30 33 9b cb 64 b3 a5 6b 7f 34 2c 25 2b b3
       4.1206683e-08 -5.3270565e-08 2.3787887e-07 -3.9847848e-08
0002d0 19 9c d3 b2 f5 60 ac b4 83 9b 0d b4 4a 68 01 34
       -2.4634618e-08 -3.2108042e-07 -1.3188223e-07 1.2052001e-07
0002e0 77 93 00 b5 47 be b2 33 34 96 f3 33 22 b9 ba 33
       -4.7898305e-07 8.323382e-08 1.1342891e-07 8.6949754e-08
0002f0 8c 55 0e b3 a0 1d 82 34 20 4b 9b b2 97 60 76 b3
       -3.3139756e-08 2.4235942e-07 -1.8078538e-08 -5.7364186e-08
000300 58 fe 73 33 72 8c 77 34 42 3c 05 33 6b 9c c1 b2
       5.680917e-08 2.3054761e-07 3.102128e-08 -2.2539288e-08
000310 ee 45 15 34 1f f1 47 b2 99 0e 2c 33 70 6c 3c 34
       1.3902147e-07 -1.1638149e-08 4.0060147e-08 1.7548314e-07
000320 dc 21 b1 33 b3 89 39 b4 06 b8 76 b4 74 75 7d 34
       8.248364e-08 -1.7279562e-07 -2.2977483e-07 2.360519e-07
000330 46 a7 2a b4 7a 85 e9 b3 1c 20 dc 33 0e 8c 5f 34
       -1.5893337e-07 -1.0874187e-07 1.0250389e-07 2.0819445e-07
000340 c2 3e 8d b4 85 ba 0d b4 53 4a 40 31 98 0e a3 32
       -2.630896e-07 -1.3199504e-07 2.7981926e-09 1.8982334e-08
000350 0c 44 d4 b4 a5 f7 5c 34 24 49 f8 b3 8c 68 b7 32
       -3.9537588e-07 2.0579189e-07 -1.1561704e-07 2.1351546e-08
000360 7e 4e 97 b2 19 3f 4f 32 51 b9 d4 33 63 7e 66 b3
       -1.7614408e-08 1.20633326e-08 9.905728e-08 -5.3665996e-08
000370 04 e8 0e 34 2a c0 5b b3 75 2d d6 b2 fe ef 1e 31
       1.3309187e-07 -5.1164683e-08 -2.493355e-08 2.3128446e-09
000380 15 27 92 b3 75 41 67 30 35 53 11 b5 84 6b 63 33
       -6.805764e-08 8.413033e-10 -5.413779e-07 5.295034e-08
000390 4b 31 2d b4 51 a1 a3 b3 6f 34 39 b4 c8 1d c3 b4
       -1.6129813e-07 -7.619622e-08 -1.7248543e-07 -3.634325e-07
0003a0 e3 42 81 b4 d5 d5 f3 b3 ef ed a2 b4 3d fe ca 33
       -2.407679e-07 -1.1354465e-07 -3.034797e-07 9.452604e-08
0003b0 e7 b9 aa 34 65 ac cc 32 7c b0 b4 34 4b 51 a3 b3
       3.180023e-07 2.3827122e-08 3.3656022e-07 -7.605066e-08
0003c0 f0 47 48 b3 ca 0b ab b2 51 cb 73 b3 48 23 23 b3
       -4.6631556e-08 -1.9912381e-08 -5.676276e-08 -3.7983483e-08
0003d0 81 b0 42 b2 30 6a 88 b4 8a 2d 9c b3 88 18 3c b0
       -1.1332419e-08 -2.5409236e-07 -7.2725996e-08 -6.842886e-10
0003e0 f8 89 80 b4 93 22 04 b3 66 61 dc b3 af bc 93 33
       -2.3942243e-07 -3.076509e-08 -1.0262265e-07 6.879542e-08
0003f0 0b 41 a1 b4 80 f8 d9 b4 44 f7 17 34 dc 02 76 34
       -3.0035912e-07 -4.0600207e-07 1.4152926e-07 2.2911576e-07
