webnn/model-tests/resources/test-data/models/resnet50v2_nhwc/weights/resnet_v2_50_block3_unit_1_bottleneck_v2_shortcut_Conv2D_bias.npy (npy, 4176 bytes, 1 tensors)

array f4 [1024]
00000000: 547b 29b5 926a 9b34 a284 7a35 4e9a 9c34
00000010: 7cf4 5db5 d77f 74b4 be29 0ab4 0964 64b4
00000020: ed1a 7534 3874 ad34 2b85 a3b4 d79a f8b4
00000030: 7ee7 00b5 f723 db34 a24e 2634 f071 a734
00000040: 7d4e 0ab5 f656 41b5 b292 d1b2 5cd0 8d33
00000050: 3c17 25b3 b7e6 3ab5 7512 d534 b1f5 9cb3
00000060: 2ab4 e1b4 5f5d 8d34 18c4 3034 5bb7 5f34
00000070: 9298 17b5 e255 d3b5 c930 56b5 ff02 da33
00000080: b83d 1f34 36ed ea33 749e ab34 a51c 34b1
00000090: b7bc 3bb5 d48b 46b4 1853 0c35 0852 00b5
000000a0: 1c9c 12b5 4973 9534 d627 b634 f81e bb34
000000b0: 1ead 8e32 3490 d5b3 4364 4eb5 da8b b634
000000c0: 97e2 99b4 69a1 06b4 6ace e6b4 cc99 40b5
000000d0: 14b1 d5b4 495e dcb4 3021 54b4 caa1 c1b4
000000e0: 50cd 1bb5 1cb1 6f35 b281 9c33 70e0 91b3
000000f0: 7f3f 0db5 cd87 42b4 877b 2334 d190 fd34
00000100: aaef 6934 9842 a634 3495 8ab4 2361 1535
00000110: 31d7 5c35 1ff7 e3b4 f656 f333 a0d9 ee34
00000120: 1b19 26b5 629e e0b4 f6a4 9033 75a9 db33
00000130: b1aa cd33 6edd 1bb5 4942 adb3 a97f 2634
00000140: f3fa a6b4 4876 cfb3 1e4d 81b4 df77 8c33
00000150: 343c b1b4 1b03 a5b4 d624 9e34 eafa f6b4
00000160: bc8a f6b4 1e18 1632 9029 3534 8688 0cb5
00000170: 4ea4 8ab4 ea58 9734 6665 a6b2 8c02 ffb2
00000180: cff2 8e34 24c1 0f34 de46 2d35 6077 4e34
00000190: a268 2eb5 ff83 4cb5 0c2a 1235 7521 f732
000001a0: 0653 45b4 9e41 a634 5c80 ddb4 d9d8 6535
000001b0: e7d8 d034 962d b2b2 9567 4fb4 60d1 be34
000001c0: e144 d8b4 f9b1 b3b4 c880 81b1 ce68 0bb5
000001d0: fa7d fe33 22f5 3bb5 ce94 51b3 802a 28b5
000001e0: fb65 4934 6457 6333 0c42 dcb4 8dce 15b5
000001f0: 6a7d 3634 0a9e d2b4 05d7 36b5 8446 8234
00000200: dc09 98b2 bc0d c634 ef51 3235 1196 5134
00000210: 4921 b4b0 a677 9532 15f9 39b5 d712 f3b4
00000220: df15 e2b4 82ae ed33 a20e 2c34 939e 4835
00000230: 290c a9b4 5053 a034 82f8 fe33 4669 f9b2
00000240: d654 6734 6352 d9b4 22ea 11b5 b242 6b34
00000250: b0e8 0535 e8e1 34b4 376e e034 a8b8 95b4
00000260: 5287 0fb5 de7a d3b4 4b6e 97b4 b8c8 fe34
00000270: 4071 1035 ec8e 55b4 dcef 4134 c1fe 6cb5
00000280: e3fe 35b4 7cdb 64b5 81e3 d733 ce4f d1b4
00000290: 3107 d3b4 e13e 8034 5cb4 7eb5 342f 0bb5
000002a0: d463 0d34 8e6a b0b4 9903 bbb3 f88d 14b5
000002b0: cc59 9634 42da 85b3 b789 5e34 d6e2 f932
000002c0: 7586 bdb3 0b20 25b5 5a5c dab3 a3df 8e34
000002d0: cbe4 7633 e3f5 a3b4 d5c5 99b3 4553 4833
000002e0: cb59 b3b4 8d5c 80b5 7f85 8234 9029 bf34
000002f0: a59a 83b4 aff9 4534 7ddc 8234 609f 8eb5
00000300: 2bff 4134 3eaf 90b4 3cdd c533 d5b3 0135
00000310: ea01 86b4 4541 2ab5 8772 b634 c9e4 e733
00000320: 2f1b 5635 e1cd feb4 b8a6 5433 90ec 2534
00000330: 5bd2 73b2 73a7 2fb5 cc2e c734 a9bd 0934
00000340: 4c47 da34 926c 18b5 0e96 b833 7985 0035
00000350: 8765 f234 6230 0f35 8f97 2f33 3745 28b5
00000360: 90c5 7bb4 3ebd 6f35 54cd 4e35 50ec a0b3
00000370: 1938 4db3 0f44 57b5 47a3 bdb3 cadd 29b5
00000380: 01db a634 3d26 c5b4 3653 0cb5 cad4 2d35
00000390: 161b 79b5 21df d334 21a0 40b2 8384 51b4
000003a0: 7e15 d6b4 6ba7 6234 fdd3 13b3 3a4d 3334
000003b0: 2ff9 cab4 5c19 77b3 bce0 1335 f4e8 70b3
000003c0: b0ef a9b3 d04a 86b5 7948 1534 99f2 3435
000003d0: fd66 0035 ec2d 95b5 6e9f a4b3 c8f4 a034
000003e0: 3f03 82b4 0e2d 6db4 5c17 09b4 ef94 cd33
000003f0: 8777 df34 7e0a 07b5 ccfb 56b5 fdab 2eb4
-6.313687e-07 2.894854e-07 9.3325264e-07 2.9169536e-07 -8.268469e-07 -2.2770779e-07 -1.2867437e-07 -2.1270547e-07
2.2827199e-07 3.230832e-07 -3.0458008e-07 -4.630626e-07 -4.802058e-07 4.0818097e-07 1.5488561e-07 3.1189074e-07
-5.152322e-07 -7.202465e-07 -2.4397512e-08 6.6037245e-08 -3.8438188e-08 -6.9626134e-07 3.968777e-07 -7.309007e-08
-4.2040602e-07 2.6331233e-07 1.6462616e-07 2.0835198e-07 -5.64739e-07 -1.574572e-06 -7.9792204e-07 1.0151961e-07
1.4830482e-07 1.09396225e-07 3.1966522e-07 -2.620973e-09 -6.9937545e-07 -1.8491056e-07 5.227498e-07 -4.7803087e-07
-5.461641e-07 2.7837294e-07 3.3929126e-07 3.4853997e-07 1.66097e-08 -9.944816e-08 -7.688688e-07 3.4001897e-07
-2.8663337e-07 -1.2538443e-07 -4.2991024e-07 -7.174938e-07 -3.9803183e-07 -4.1046795e-07 -1.9756112e-07 -3.6066768e-07
-5.804077e-07 8.9292166e-07 7.2879075e-08 -6.7929136e-08 -5.261899e-07 -1.8117062e-07 1.5225497e-07 4.723029e-07
2.1787005e-07 3.0968363e-07 -2.5813063e-07 5.564818e-07 8.226953e-07 -4.246185e-07 1.13313874e-07 4.4489298e-07
-6.187635e-07 -4.183849e-07 6.735529e-08 1.0228806e-07 9.577105e-08 -5.806422e-07 -8.0679975e-08 1.5506397e-07
-3.11025e-07 -9.660704e-08 -2.4084233e-07 6.5410624e-08 -3.3012623e-07 -3.0735904e-07 2.9456595e-07 -4.6003635e-07
-4.5922013e-07 8.736633e-09 1.6872059e-07 -5.235273e-07 -2.582405e-07 2.8190635e-07 -1.9371054e-08 -2.9687065e-08
2.6626228e-07 1.3388177e-07 6.455065e-07 1.9228673e-07 -6.497231e-07 -7.6188e-07 5.4450425e-07 2.8769799e-08
-1.8377258e-07 3.0967652e-07 -4.1257852e-07 8.56247e-07 3.8900836e-07 -2.0742657e-08 -1.931606e-07 3.5542598e-07
-4.028325e-07 -3.347084e-07 -3.769035e-09 -5.1934046e-07 1.1850712e-07 -7.0019644e-07 -4.879694e-08 -6.264672e-07
1.8756684e-07 5.2932037e-08 -4.102625e-07 -5.5807396e-07 1.6995696e-07 -3.9230537e-07 -6.811318e-07 2.4265694e-07
-1.7699612e-08 3.6890367e-07 6.6429396e-07 1.9519236e-07 -1.3106184e-09 1.7400293e-08 -6.928033e-07 -4.5275985e-07
-4.2111694e-07 1.1067915e-07 1.6024072e-07 7.473656e-07 -3.148755e-07 2.986294e-07 1.1873e-07 -2.9035288e-08
2.1544415e-07 -4.0479344e-07 -5.435742e-07 2.1910344e-07 4.9884966e-07 -1.684599e-07 4.1803443e-07 -2.7887768e-07
-5.346857e-07 -3.939121e-07 -2.820619e-07 4.745723e-07 5.380898e-07 -1.9889166e-07 1.8061786e-07 -8.8287567e-07
-1.6949666e-07 -8.525601e-07 1.00531004e-07 -3.898735e-07 -3.9307045e-07 2.3887608e-07 -9.488483e-07 -5.1850225e-07
1.3167966e-07 -3.2860083e-07 -8.7085205e-08 -5.534089e-07 2.8005013e-07 -6.232996e-08 2.0725462e-07 2.9090568e-08
-8.825456e-08 -6.151392e-07 -1.0168215e-07 2.6612278e-07 5.7484424e-08 -3.0540022e-07 -7.160603e-08 4.6641862e-08
-3.340668e-07 -9.563679e-07 2.4311518e-07 3.5606763e-07 -2.451317e-07 1.8437889e-07 2.4374813e-07 -1.0626209e-06
1.8067355e-07 -2.6949596e-07 9.21377e-08 4.8317935e-07 -2.4960838e-07 -6.3424915e-07 3.398347e-07 1.07983915e-07
7.976077e-07 -4.7460983e-07 4.9511726e-08 1.5452883e-07 -1.4192291e-08 -6.543625e-07 3.7100688e-07 1.2828117e-07
4.065754e-07 -5.6782403e-07 8.5954625e-08 4.7877944e-07 4.5149883e-07 5.334206e-07 4.0883204e-08 -6.26856e-07
-2.344807e-07 8.930982e-07 7.703977e-07 -7.4935656e-08 -4.7781302e-08 -8.019278e-07 -8.830698e-08 -6.328015e-07
3.1079256e-07 -3.6721931e-07 -5.227515e-07 6.475717e-07 -9.2799144e-07 3.946416e-07 -1.121228e-08 -1.951285e-07
-3.9876244e-07 2.1108796e-07 -3.4418907e-08 1.6698769e-07 -3.7806737e-07 -5.7532233e-08 5.50888e-07 -5.6091224e-08
-7.913275e-08 -1.0005551e-06 1.3903072e-07 6.740825e-07 4.7833583e-07 -1.111473e-06 -7.665845e-08 2.9980424e-07
-2.421675e-07 -2.2088736e-07 -1.2767617e-07 9.573147e-08 4.1623954e-07 -5.030669e-07 -8.0087625e-07 -1.6267582e-07
