webnn/model-tests/resources/test-data/models/resnet50v2_nhwc/weights/resnet_v2_50_block3_unit_2_bottleneck_v2_preact_FusedBatchNorm_add_param.npy (npy, 4176 bytes, 1 tensors)

array f4 [1024]
1.5563321 -0.29213634 0.21871741 -1.8718541 -0.31883255 -0.12837327 -1.2670759 -0.47708398
-0.38061026 -0.5712919 -0.9969709 -0.6212122 -0.38915834 1.9261162 -0.8769212 -0.14554748
1.1226996 -0.53515565 -0.74592483 -0.3859944 -0.51010364 -0.8070966 -0.64601696 0.47717577
-0.14483175 -0.972248 -0.40050697 -1.0485039 -0.4926983 3.3442626 -0.7687259 -0.4673549
0.32226637 -0.27010465 -1.4054478 -0.4801148 -0.7551819 -1.9004982 -0.32779622 -0.13665912
-0.9304231 -1.7044436 -2.6791573 0.38428015 -0.24422944 -0.27053553 -0.771595 -0.60783166
-0.4516728 -0.9596771 -1.168375 -1.3328478 -0.71950364 0.27452612 1.3797977 -0.52877593
-1.2536329 0.13399887 -0.32302153 0.0832656 1.2230612 -0.85635775 1.3756194 1.4312571
-0.5588678 -0.44309586 -0.94769406 -2.522726 -0.21196744 -1.4868467 0.26748618 0.7254487
-0.71355414 -0.5974905 -0.01742071 -0.18446687 -0.4669767 -0.09788525 -1.466806 -0.52256143
-0.5918847 -0.25143248 -0.45691425 -0.31925705 -0.35440198 -0.30144814 -0.13481608 -0.5365433
-0.8966943 -1.8812928 -0.83164656 -0.46023127 0.2661475 -0.5190437 -1.043885 -0.39105162
-0.69129866 1.1626126 -0.8545861 -0.43964237 2.899669 0.19201851 -0.541776 -0.39433685
-0.7636626 -1.0198903 0.43110985 -0.6609948 -0.5436601 -0.076295555 -1.8435866 -0.8281707
0.009781241 0.8779223 -0.46495003 1.5335013 -0.74302644 -0.44208166 -2.053476 -0.088223636
-0.15695545 -0.5739213 0.40757906 -0.4427681 -0.7019414 -2.1473756 -1.688539 0.070287555
-0.7670704 -0.64068073 -0.55167997 -0.4285003 -0.60044634 -0.09511122 -0.33905303 -0.3774868
-0.020190358 0.60024554 -1.5771556 -0.22564343 0.2400232 -0.07589707 -0.15277053 -0.1050611
0.54653335 -0.05677405 0.101745486 -0.233218 -0.9764171 -0.27142996 -1.467994 0.36497593
0.29398614 -0.39806482 -1.7010671 0.25307918 -0.37570274 -0.7589898 -0.36121136 -0.98661363
-0.48508006 -0.014666859 -0.9494427 0.5580213 2.0310082 -1.7290984 -1.1857061 1.0175022
1.5660341 -0.51910007 0.13486308 -0.5209554 -0.68211883 -0.22336671 -0.7371078 -0.4683598
0.3608578 1.2617509 -0.5141991 -0.2887071 -0.7437807 -0.4902572 -1.0324082 0.06617683
-0.29894108 -0.40490192 0.84302187 0.56198204 -0.41478083 -0.3955751 -0.4453047 -1.2107004
-1.0806977 -0.8328331 0.6485543 1.0495839 1.5013634 -0.50185263 -0.61856997 -0.68841857
1.0166203 -0.3632437 1.2230291 -0.4811954 -0.41151744 2.569248 -0.41835433 -0.15462327
-0.5491705 0.06769258 0.7072346 -0.72980297 0.11312759 -0.14389914 0.13534641 -0.7217357
-0.25050086 -0.81049216 0.84594357 0.9742257 1.2398655 0.36032867 3.7299223 2.0405414
-0.5641649 -0.025786042 -0.9794437 -0.22984475 -0.5237495 0.56427133 -0.017550379 -0.32844248
-0.7800532 -1.1776056 -1.3665901 0.22092217 -0.38918594 -0.6905415 -0.5072142 -1.3494649
-0.7066773 2.4585915 -0.27830565 -0.06186548 0.21213719 -1.235652 -0.63827795 -1.3272429
-0.22089127 -0.45563552 0.27981102 -0.36898115 0.22338474 -1.3568623 -0.37366578 1.5715396
00000000: e435 c73f e592 95be 75f7 5f3e ea98 efbf
00000010: 053e a3be 4874 03be 8b2f a2bf 5a44 f4be
00000020: 59df c2be 3040 12bf 7c39 7fbf c307 1fbf
00000030: c33f c7be fa8a f63f e87d 60bf 660a 15be
00000040: 9fb4 8f3f f6ff 08bf eef4 3ebf 0fa1 c5be
00000050: 2796 02bf e29d 4ebf 5e61 25bf 6250 f43e
00000060: c64e 14be 3fe5 78bf 400f cdbe 6035 86bf
00000070: f442 fcbe 6608 5640 38cb 44bf 2449 efbe
00000080: 1900 a53e 284b 8abe b7e5 b3bf 9bd1 f5be
00000090: 9a53 41bf 8643 f3bf e8d4 a7be 5ef0 0bbe
000000a0: 3530 6ebf 352b dabf 5077 2bc0 5ec0 c43e
000000b0: 4817 7abe a283 8abe 4087 45bf db9a 1bbf
000000c0: a841 e7be 66ad 75bf 508d 95bf c29a aabf
000000d0: 6431 38bf b08e 8c3e 369d b03f dc5d 07bf
000000e0: 0b77 a0bf 0037 093e 1463 a5be 2887 aa3d
000000f0: 458d 9c3f 433a 5bbf 4c14 b03f 6f33 b73f
00000100: f611 0fbf 76dd e2be 149c 72bf 5874 21c0
00000110: fe0d 59be fe50 bebf f3f3 883e 02b7 393f
00000120: 7cab 36bf 23f5 18bf e0b5 8ebc e2e4 3cbe
00000130: 9217 efbe 1078 c8bd 4dc0 bbbf 96c6 05bf
00000140: c185 17bf c2bb 80be aaf0 e9be a975 a3be
00000150: 2d74 b5be 6957 9abe 3a0d 0abe e75a 09bf
00000160: c28d 65bf 34ce f0bf cae6 54bf 6fa3 ebbe
00000170: 7c44 883e 0ce0 04bf 069e 85bf eb37 c8be
00000180: f3f8 30bf 7dd0 943f 28c6 5abf ce18 e1be
00000190: 2d94 3940 80a0 443e d5b1 0abf 85e6 c9be
000001a0: 647f 43bf c48b 82bf 6eba dc3e f536 29bf
000001b0: 4f2d 0bbf d840 9cbd a5fa ebbf ff02 54bf
000001c0: 8041 203c 84bf 603f ee0d eebe c549 c43f
000001d0: fb36 3ebf 8758 e2be 276c 03c0 98ae b4bd
000001e0: eeb8 20be 82ec 12bf 34ae d03e 80b2 e2be
000001f0: 6eb2 33bf 9a6e 09c0 0c22 d8bf ecf2 8f3d
00000200: ba5e 44bf a703 24bf e63a 0dbf 6464 dbbe
00000210: dab6 19bf acc9 c2bd 5c98 adbe f345 c1be
00000220: 4066 a5bc b1a9 193f 3ce0 c9bf 120f 67be
00000230: a4c8 753e ec6f 9bbd e16f 1cbe 462a d7bd
00000240: 9ce9 0b3f e88b 68bd f05f d03d b3d0 6ebe
00000250: 79f6 79bf def8 8abe 3ae7 bbbf 20de ba3e
00000260: 5a85 963e 27cf cbbe 91bc d9bf 9893 813e
00000270: 1c5c c0be 284d 42bf b2f0 b8be b692 7cbf
00000280: 6a5c f8be 444d 70bc ad0e 73bf 7cda 0e3f
00000290: 0afc 0140 1953 ddbf 38c5 97bf 833d 823f
000002a0: ce73 c83f bee3 04bf 8c19 0a3e 555d 05bf
000002b0: 579f 2ebf 3eba 64be 19b3 3cbf dbcc efbe
000002c0: 5bc2 b83e 0e81 a13f 8da2 03bf 6bd1 93be
000002d0: 6968 3ebf fe02 fbbe f425 84bf b887 873d
000002e0: ce0e 99be 4e4f cfbe 48d0 573f 0ede 0f3f
000002f0: 275e d4be d288 cabe fafe e3be 3bf8 9abf
00000300: 4d54 8abf 8d34 55bf a807 263f c458 863f
00000310: ad2c c03f 6a79 00bf 9a5a 1ebf 333c 30bf
00000320: 9d20 823f 14fb b9be 388c 9c3f 3e5f f6be
00000330: 6ab2 d2be 8f6e 2440 8a32 d6be 9055 1ebe
00000340: 7096 0cbf 68a2 8a3d 540d 353f 5ed4 3abf
00000350: 70af e73d 4c5a 13be 4098 0a3e acc3 38bf
00000360: a641 80be 6a7c 4fbf c28f 583f db66 793f
00000370: eab3 9e3f 007d b83e 0cb7 6e40 3b98 0240
00000380: 1c6d 10bf 403d d3bc d3bc 7abf 6c5c 6bbe
00000390: 7214 06bf 1674 103f d0c5 8fbc 9d29 a8be
000003a0: 91b1 47bf c8bb 96bf 6dec aebf 6c39 623e
000003b0: 6143 c7be 54c7 30bf cad8 01bf 44bb acbf
000003c0: cee8 34bf 9059 1d40 147e 8ebe a866 7dbd
000003d0: 7e3a 593e d829 9ebf 2f66 23bf 18e3 a9bf
000003e0: 5231 62be 0f49 e9be 6443 8f3e 19eb bcbe
000003f0: f8be 643e aaad adbf 1f51 bfbe 3628 c93f
