webnn/model-tests/resources/test-data/models/resnet50v2_nhwc/weights/resnet_v2_50_block2_unit_4_bottleneck_v2_conv1_weights.npy (npy, 262240 bytes, 1 tensors)

array f4 [128, 1, 1, 512]
0	0x3cd95455	0.02652947
1	0xbca0a181	-0.019608261
2	0xbd04103c	-0.032242045
3	0xbcbcaf29	-0.023032742
4	0xbd18a501	-0.037266735
5	0xbe37b4ab	-0.17940013
6	0xbc9ec271	-0.019379826
7	0x3ac21559	0.0014807387
8	0x3cc15c4e	0.023603585
9	0x3cfaba5e	0.030606445
10	0xbdc89c4e	-0.09795438
11	0xbdd36337	-0.10321658
12	0x3ddb35a6	0.10703592
13	0xbd9474b4	-0.07248822
14	0xbc4188b1	-0.011812375
15	0xbd136d25	-0.03599276
16	0x3e29a636	0.1656731
17	0xbc223272	-0.009899722
18	0x3d463c38	0.048397273
19	0x3d25e02f	0.040497
20	0x3c69aee6	0.01426289
21	0x3d5007f7	0.050788846
22	0x3d37cefb	0.044875126
23	0x3caaad1e	0.020834502
24	0x3eafce14	0.34336913
25	0xbcaaab3d	-0.020833606
26	0xbe4a08e9	-0.19729961
27	0xbdd8916f	-0.10574614
28	0x3c83558d	0.016032005
29	0xbd92202f	-0.07135045
30	0x3d68fd90	0.05688244
31	0x3d2b7b7d	0.041865814
32	0x3bc939c5	0.00614092
33	0x3ceef5f2	0.02917001
34	0xbc1d5684	-0.009603146
35	0xbbad868b	-0.00529558
36	0x3d62932b	0.05531613
37	0xbc78a47f	-0.015175938
38	0x3c3d45a5	0.011552249
39	0xbcb29f0d	-0.021804357
40	0xbd14c941	-0.036324743
41	0xbd2044bc	-0.03912805
42	0x3e87a12d	0.26490155
43	0xbcb8460f	-0.022494344
44	0x3d8fe1e4	0.07025507
45	0x3c778b87	0.0151089495
46	0xbda48280	-0.080327034
47	0x3d76a866	0.06021919
48	0xbd2fa059	-0.04287753
49	0xbd725467	-0.059162524
50	0x3d42efcf	0.04759198
51	0xbaae8728	-0.0013315426
52	0xbe173e4b	-0.14769857
53	0x3de2bd98	0.110713184
54	0xbe1cdbc5	-0.1531821
55	0xba3eb7e4	-0.00072753266
56	0x3c91f089	0.017814891
57	0xbc2a3936	-0.010389617
58	0x3ba58825	0.00505163
59	0xbdfe6cc4	-0.12423089
60	0xbc7ddac6	-0.015494054
61	0xbc71e08c	-0.014763009
62	0xbdf5055e	-0.11963914
63	0x39ac036e	0.00032808952
64	0xbd1ea9ac	-0.03873603
65	0xbd88659f	-0.06660008
66	0xbdc63afc	-0.09679219
67	0xbc4ae28c	-0.012383115
68	0xbc712fda	-0.014720881
69	0xbc92b1fb	-0.017907133
70	0x3cba260f	0.022723226
71	0x3d14f038	0.036361903
72	0xbca8f4cc	-0.02062454
73	0xba708ad1	-0.00091759587
74	0xbce58307	-0.02801658
75	0x3bf7bb7b	0.007560191
76	0xbd7d26b3	-0.061804485
77	0x3ca24f5d	0.019813234
78	0xbd8b44a9	-0.06800205
79	0x3d0450a0	0.032303452
80	0x3cf168aa	0.029468853
81	0x3a89b068	0.0010504844
82	0xbcd8da83	-0.026471382
83	0x3e471329	0.19440903
84	0xbd8510c8	-0.064973414
85	0xbc56c618	-0.013108753
86	0x3c5a0095	0.013305803
87	0x3c7a32e2	0.0152709205
88	0x3b845c14	0.004039297
89	0xbd4ef5ed	-0.0505275
90	0xbd49fa5c	-0.049311027
91	0xbdbaed88	-0.09127337
92	0xbcf0ca72	-0.029393408
93	0xbd572e36	-0.052534305
94	0x3c585daa	0.013205925
95	0x3d607588	0.054799587
96	0xbd86ee60	-0.06588435
97	0x3de26bad	0.11055694
98	0x3cc5efff	0.02416229
99	0xbe22b7f6	-0.15890488
100	0xbd074899	-0.03302822
101	0xbc0081d3	-0.0078434525
102	0x3c183f3e	0.009292422
103	0x3c43a51e	0.0119412225
104	0x3cfe188d	0.031017566
105	0xbcf0628f	-0.029343871
106	0x3db062a3	0.086125635
107	0x3c8756d4	0.016520895
108	0xbef9eed7	-0.48815033
109	0x3d89ed70	0.06734741
110	0x3d6ca64c	0.05777578
111	0x3c2efc32	0.010680245
112	0x3d3c787f	0.04601335
113	0x3ee9272d	0.455377
114	0x3cc71e16	0.024306338
115	0x3d0bb986	0.034112476
116	0x3dbcb2f2	0.092138186
117	0x3caadc15	0.020856896
118	0xbd195f62	-0.03744448
119	0x3d9e7ed4	0.07739034
120	0xbb549a9a	-0.0032440783
121	0xbd587965	-0.052850146
122	0x3cd8ec26	0.026479792
123	0x3d0661f0	0.032808244
124	0xbcc6eb4d	-0.024282122
125	0x3b2e96d2	0.002664019
126	0xbd3a8e4f	-0.045545872
127	0x3d0b4a99	0.03400669
128	0xbc1132ae	-0.008862181
129	0xbda4951f	-0.08036255
130	0x3abcf0f5	0.0014415073
131	0x3b6e258b	0.0036338295
132	0xbd88bbdf	-0.066764586
133	0x3ce0ca81	0.027440311
134	0xbddd5e4d	-0.10809002
135	0xbc925b5d	-0.017865831
136	0xbd59a995	-0.05314024
137	0xbd2d2c92	-0.042278834
138	0xbe352aa6	-0.1769205
139	0x3cf944db	0.03042834
140	0x3c42549b	0.011860992
141	0xbe38b440	-0.1803751
142	0x3c1fb2fa	0.009747261
143	0xbd455cbb	-0.048184138
144	0xbb979ea6	-0.0046270667
145	0xbb12babe	-0.002238914
146	0xbc6e1fd0	-0.014533952
147	0x3d360a26	0.044443272
148	0x3c11c084	0.008895997
149	0x3c383cd5	0.011244972
150	0xbc47ae36	-0.012187531
151	0xbc813395	-0.015771667
152	0xbc8908d3	-0.01672784
153	0x3cb609b8	0.022221431
154	0xbda8921e	-0.08230995
155	0x351239c4	5.44733e-07
156	0xbd623e0b	-0.05523495
157	0x3d785966	0.060632132
158	0xbd47403d	-0.048645247
159	0x3dd6ba06	0.104847
160	0x3bd3d5b8	0.0064646862
161	0x3df021ad	0.11725173
162	0x3ac1c006	0.0014781959
163	0xbdd35d0e	-0.10320483
164	0xbde2d617	-0.11075991
165	0x3c12970e	0.008947147
166	0x36cb8605	6.0654734e-06
167	0xbbd12bf8	-0.0063834153
168	0xbdec3f88	-0.11535555
169	0x3d8afe5e	0.06786798
170	0xbb3cdf56	-0.0028819642
171	0x3c63b47d	0.013898012
172	0xbcca78ac	-0.024715744
173	0x3bd68a33	0.0065472363
174	0xbab13d37	-0.0013522272
175	0x3d055802	0.032554634
176	0xbd2598a6	-0.04042878
177	0xbccc2a77	-0.024922593
178	0xbdadc828	-0.084854424
179	0xbcac6c97	-0.021047873
180	0xbda92301	-0.082586296
181	0xbdda0d24	-0.106470376
182	0xbd3f5542	-0.046712168
183	0x3e124ced	0.14287157
184	0xbd06d330	-0.032916248
185	0xbd9dda98	-0.07707709
186	0xbdf3a7d7	-0.11897247
187	0xbc169f54	-0.00919326
188	0xbd0d9729	-0.034567986
189	0xbcb009ca	-0.021489043
190	0xbd1f7067	-0.038925555
191	0xbd267954	-0.04064305
192	0xbd92eb19	-0.071737476
193	0x3c6fe8ad	0.014642877
194	0x3b558e29	0.0032585955
195	0xbdc280ff	-0.0949726
196	0xbdd45ffe	-0.103698716
197	0xbc841bca	-0.016126532
198	0xbdaafe35	-0.083492674
199	0xbc5fc27c	-0.0136572085
200	0xbcd1818a	-0.025574464
201	0x3b801fe3	0.003910051
202	0xbdbd7eba	-0.09252687
203	0xbdf0ddf2	-0.11761083
204	0xbc9060de	-0.017624315
205	0x3d415fd2	0.047210522
206	0x3c49b4b8	0.012311153
207	0xbd832f3e	-0.06405495
208	0x3b6a2df5	0.003573296
209	0x3b63ed8e	0.0034779045
210	0xbb549e17	-0.0032442862
211	0xbc6dba3a	-0.014509732
212	0x3c234913	0.009966153
213	0xbb93c244	-0.0045092423
214	0xbbbbac41	-0.0057273214
215	0x3daec904	0.085344344
216	0x3d0c2f1e	0.034224622
217	0xbcac94e1	-0.021067085
218	0xbba6987a	-0.0050840946
219	0x3b201876	0.0024428642
220	0x3b0eabea	0.002176995
221	0xbca3f7f5	-0.020015696
222	0x3bb00cb5	0.0053726085
223	0xbb8d4cee	-0.0043121492
224	0xbd91f7b5	-0.071273245
225	0xbdd6c9c6	-0.10487704
226	0xbd7fc33d	-0.062442053
227	0xbd825f3f	-0.06365823
228	0x3dbca78e	0.09211646
229	0xbcad7ae0	-0.021176755
230	0x3c84fa41	0.016232612
231	0x3d40dd64	0.047086135
232	0xbc02caf7	-0.007982961
233	0xbca4a9f1	-0.020100566
234	0xbe740875	-0.23831351
235	0xbd86a65d	-0.065747
236	0xbd6e992e	-0.058251552
237	0xbd8f8073	-0.070069216
238	0xbd09d008	-0.03364566
239	0x3d164783	0.036689293
240	0x3dc19937	0.094530515
241	0xbd83100d	-0.06399546
242	0xbe00aa7f	-0.12565039
243	0xbcb3d377	-0.02195142
244	0x3d861f29	0.06548912
245	0xbdb5c64d	-0.088757135
246	0xbc6cae7f	-0.0144459
247	0xbacfa131	-0.0015840885
248	0x3c598a6e	0.013277633
249	0x3d9a2f6d	0.07528577
250	0x3ced513a	0.028969396
251	0xbe0cc9fc	-0.13748926
252	0x3e7dc24b	0.24781148
253	0x3d838eab	0.06423696
254	0xbc17cfe5	-0.0092658745
255	0x3db1ec5c	0.0868766
