webnn/model-tests/resources/test-data/models/resnet50v2_nhwc/weights/resnet_v2_50_block3_unit_3_bottleneck_v2_conv1_Conv2D_bias.npy (npy, 1104 bytes, 1 tensors)

array f4 [256]
0	0x3fc75e86	1.5575721
1	0x3f3c782e	0.7362088
2	0xbf36f836	-0.7147249
3	0xbd390be0	-0.04517734
4	0x3e0cab6c	0.13737267
5	0x3ecb392e	0.39692062
6	0x3dc812c4	0.09769204
7	0x3f9782ab	1.1836752
8	0x3e8c3c5e	0.27389807
9	0x3f7875ed	0.9705494
10	0xbe91a4b9	-0.28445986
11	0x3f36645a	0.71246874
12	0xbf59b9d6	-0.8504919
13	0xbf5de34c	-0.8667495
14	0x3fae4255	1.3613993
15	0x3e206df6	0.15666947
16	0x3ec8828b	0.39162096
17	0x3f876a82	1.0579379
18	0x3f3fa086	0.74854314
19	0x3f67386c	0.9032047
20	0xbe8fbc55	-0.28073373
21	0xbf0629eb	-0.5240771
22	0x3f670cab	0.90253705
23	0x3f127990	0.5721674
24	0x3eeac4a9	0.45853165
25	0x4029d616	2.6536918
26	0x3fb7fb84	1.4373631
27	0x3f1ffcce	0.62495124
28	0x3fa19e1c	1.2626376
29	0xbf3a163e	-0.7269019
30	0xbeb9dcdf	-0.36301324
31	0xbf03dc24	-0.5150778
32	0x3fb17d22	1.3866313
33	0xbfb2a808	-1.3957529
34	0x3f5720f6	0.8403467
35	0x3f11916a	0.5686251
36	0x3f9c9593	1.2233146
37	0x402d4de0	2.707878
38	0xbf75dc3a	-0.96039164
39	0xbf32e242	-0.6987649
40	0xbf12eca5	-0.5739234
41	0x3e9ab3b4	0.30215228
42	0x3f9b00b5	1.2109591
43	0x3f5d1e72	0.8637458
44	0x3eb14a90	0.346272
45	0x3f5e7617	0.8689894
46	0xbfda041c	-1.7032504
47	0xbd0ae0e0	-0.033905864
48	0x3fccba22	1.5994303
49	0x3f42dd04	0.76118493
50	0x3c97a120	0.018509448
51	0xc0192ecf	-2.393482
52	0x405ee46b	3.4826915
53	0x3f002a70	0.50064754
54	0xbe331b5c	-0.17490906
55	0xbf4adc12	-0.7924205
56	0x3e82b61e	0.2552957
57	0xbf19a51b	-0.60017556
58	0xc0251181	-2.5791934
59	0x3e9eb4f0	0.3099742
60	0x3d63b4b8	0.05559227
61	0x3f819bee	1.0125711
62	0xbf096587	-0.53670543
63	0x3f81c4da	1.0138199
64	0xbfa5da02	-1.2957156
65	0x400f2d18	2.2371273
66	0x3f435ea4	0.76316285
67	0xbfa3c45f	-1.2794303
68	0x3faa00ea	1.3281529
69	0x3f8636e4	1.0485501
70	0xbf18e72f	-0.5972776
71	0xbf9082ea	-1.1289952
72	0x3eddf0ec	0.4334787
73	0xbda31300	-0.07962608
74	0x3e30b178	0.17255199
75	0xbec95d7f	-0.39329144
76	0x3f82dd0b	1.0223707
77	0xc05ad529	-3.4192603
78	0xbedcda30	-0.43135214
79	0x3e901d60	0.2814741
80	0x3f1a75c6	0.6033596
81	0xbf93dcf3	-1.1551803
82	0xbef98072	-0.48730808
83	0x3f127e45	0.5722392
84	0x3fa85814	1.3151879
85	0xbf16b2c2	-0.5886651
86	0x3cdd06e0	0.026980817
87	0x3ec5cb42	0.38631636
88	0x3f968783	1.1760105
89	0x401f3aa9	2.4879553
90	0x3e4aa409	0.19789137
91	0x3efddb38	0.49581313
92	0x3e850864	0.25982964
93	0x3e812058	0.2521999
94	0x3fcd0580	1.6017303
95	0xbf1b1f18	-0.6059432
96	0x3fc819d0	1.5632877
97	0x4002dddc	2.0447912
98	0x3f268fb8	0.6506305
99	0xbfabf5e8	-1.343442
100	0xbe297028	-0.1654669
101	0x3ef9b758	0.48772693
102	0xbfb3595f	-1.4011649
103	0xbe1e41e0	-0.15454817
104	0x3f81a114	1.0127282
105	0xbe9417d0	-0.28924417
106	0x3f2394b3	0.6389877
107	0xbe1eb5b4	-0.15499002
108	0xc0212138	-2.5176525
109	0xbe31aaf0	-0.17350364
110	0xbefb0044	-0.4902364
111	0xbf5550e4	-0.83326554
112	0xbcc9b2e0	-0.024621427
113	0x3f39abfc	0.7252805
114	0x3fb3a354	1.4034219
115	0x3fafa95e	1.3723562
116	0x3fbab386	1.4586036
117	0x3fdce8f6	1.7258594
118	0xbf42f341	-0.76152426
119	0x3fb05c54	1.3778176
120	0x3e456e90	0.19280457
121	0x3eb3490f	0.35016677
122	0xbfc52ffc	-1.5405269
123	0x3f4b1100	0.79322815
124	0xbf8854a8	-1.0650835
125	0xbe75cf90	-0.2400496
126	0x3edffbb4	0.43746722
127	0xbe326762	-0.1742225
128	0x3f63caa2	0.8898107
129	0x3f1eba4e	0.6200303
130	0x3f483482	0.7820512
131	0x3f03fa1c	0.5155351
132	0x3fa70b15	1.3050257
133	0x3f39ea54	0.7262318
134	0x3e7d6592	0.24745777
135	0xbf31ff0a	-0.69529784
136	0x3f1efec7	0.6210751
137	0xbe9b342c	-0.3031324
138	0x40117474	2.2727327
139	0x3f3c2c0a	0.735047
140	0x3f769b3c	0.9633062
141	0x3fb79665	1.4342772
142	0x3dc19ff8	0.0945434
143	0xbf091990	-0.5355463
144	0x3f3fe647	0.7496075
145	0x4016f6b7	2.3588083
146	0x3f45f940	0.7733345
147	0x3e81a170	0.2531848
148	0xbed6089c	-0.41803443
149	0x3f65421f	0.8955402
150	0x3e4683c0	0.19386196
151	0xc0c2da6c	-6.089163
152	0xc021ab6c	-2.5260878
153	0xc066dd9a	-3.6072755
154	0x4039cf11	2.9032633
155	0xbf478e0f	-0.7795114
156	0x403cf2c0	2.9523163
157	0xbeec2844	-0.4612447
158	0x3f05839a	0.52153933
159	0x3f34569b	0.7044465
160	0x3e36dd78	0.17857921
161	0xbe92abf2	-0.2864681
162	0x3f923938	1.1423712
163	0x3fd81c12	1.6883566
164	0xc0388079	-2.8828413
165	0x3f7a96c0	0.97886276
166	0xbfab8402	-1.339966
167	0xc030eb65	-2.7643673
168	0x3f809410	1.0045185
169	0xbf8a9379	-1.0826255
170	0xc0023239	-2.0343153
171	0x3f4a831e	0.7910632
172	0x3e9146f0	0.28374434
173	0x3f886469	1.0655643
174	0xbebe8b54	-0.37215674
175	0x3f63b5df	0.8894939
176	0xbf988eef	-1.191862
177	0xbf4866a2	-0.78281605
178	0x3e5e8c98	0.2173332
179	0x3f22cbbe	0.63592136
180	0x3f018530	0.50593853
181	0xc00c9ea6	-2.1971831
182	0xbf677728	-0.90416193
183	0xbfe698c4	-1.801537
184	0xbfa857e7	-1.3151826
185	0x3ed15572	0.40885502
186	0x3f95021d	1.164127
187	0x3f7eb566	0.9949554
188	0x3ef2e28c	0.47438467
189	0x3f5dbf1f	0.8661975
190	0x3f7e5420	0.99347115
191	0xbe7a9f8e	-0.24474928
192	0x3f8fd7b4	1.1237702
193	0x3f2085a3	0.62703913
194	0x400eb962	2.2300649
195	0x3e0d8018	0.13818395
196	0x4034aad3	2.8229263
197	0x3f5ae320	0.85502815
198	0x3f0e9339	0.55693394
199	0xbecbba8b	-0.39790758
200	0x3f13f743	0.57799166
201	0xbf35c5db	-0.7100503
202	0x3f0570bc	0.52125144
203	0x3f769c9a	0.96332705
204	0x3fd9c9e0	1.7014732
205	0x3f14349b	0.5789277
206	0x3dd27c68	0.10277635
207	0x3f197e0a	0.59957945
208	0x4012b8c5	2.2925274
209	0xbffc9064	-1.9731565
210	0xbfcc39dc	-1.5955157
211	0x3ef8cfce	0.48596042
212	0x3f2a68c2	0.665661
213	0x40293f94	2.6445055
214	0xbfc0a192	-1.5049307
215	0x3efd3474	0.4945408
216	0xbb98f7f0	-0.0046682283
217	0xbe7b2c23	-0.24528556
218	0xbfd9d2f5	-1.7017504
219	0xbf54976a	-0.8304354
220	0xbf5f775b	-0.87291497
221	0x3d542610	0.05179411
222	0x3f67a5a4	0.9048712
223	0x3dbb800c	0.091552824
224	0x3e0a8880	0.13528633
225	0xbee58b35	-0.4483277
226	0xbe290e30	-0.16509318
227	0xbe582b88	-0.21110356
228	0xbfbb3881	-1.4626619
229	0xc0310826	-2.7661223
230	0x3fb55df2	1.4169295
231	0xbd1f8600	-0.03894615
232	0x3eb5f924	0.35541642
233	0xbf035167	-0.51296085
234	0x3f1a8026	0.6035179
235	0x3f351a44	0.70743203
236	0x3f77543a	0.96612895
237	0x3f9781a8	1.1836443
238	0x3ea3c59c	0.319867
239	0x3fd01651	1.625681
240	0xbedabac4	-0.42720616
241	0x3ed51428	0.4161694
242	0x3f38809e	0.72071254
243	0x3fd825f9	1.6886588
244	0xbf944106	-1.1582344
245	0xbf351205	-0.7073062
246	0xc02b17d6	-2.6733298
247	0x3fa7cae7	1.3108796
248	0x3f9548aa	1.16628
249	0xbeaca16a	-0.337169
250	0x3e3ea97a	0.18619338
251	0xbf7bee6a	-0.98410666
252	0x3f4ef3d4	0.808408
253	0x3e670e68	0.2256409
254	0x3ea3ae16	0.31968755
255	0xbf0ec6c3	-0.55772036
