webnn/model-tests/resources/test-data/models/resnet50v2_nhwc/weights/resnet_v2_50_block1_unit_1_bottleneck_v2_conv2_weights.npy (npy, 147536 bytes, 1 tensors)

array f4 [64, 3, 3, 64]
00000000: 068d 98bb 2505 1f3c a25e b8bc 034b 4b3d
00000010: e333 c0bc 9b15 52bc 8643 fdbc ea10 b73c
00000020: a5d2 c5bc a90d 05bc b479 dd38 a3fe 1bbb
00000030: 37e9 c2bc fa0b 6bbd 7919 81bc a2e4 073c
00000040: aa08 1cba a6d9 abbc bd90 683a c7bc 2c3c
00000050: d746 02bd 1ce8 8e3c a9e4 b43c b1f9 7b3d
00000060: a8b8 b73c f489 2abb 1e6a a5bc 5bb9 8a3d
00000070: 1c7a 76bd 88fc 0ebd a84d 0fbb afed 35bb
00000080: 65bc a73b 69b0 be3c 91a7 0dbd 787b d33d
00000090: 5d42 2b3d 1b7c 40bd eb62 923c 91ff 1ebd
000000a0: b9a4 1bbc ad13 81bd 67f3 6bbc c795 b7bb
000000b0: 3a3c 02bd 167a 123b 0ba3 de3b 6274 dabc
000000c0: 005f dabc 56a5 1d3c 8e8f e63c 5f32 febc
000000d0: 9d27 b93a e04d 383c a0e2 2f3b ceed 2b3d
000000e0: c490 d0bc 7737 73bc c6f7 8dbb b9b2 51bd
000000f0: 17b9 44bc 0004 413d e185 d8bc 66ec e63c
00000100: 4436 a83b 1591 1f3c 36d4 3fbc 2b36 443e
00000110: ff44 adbc 4cea 8bbc 5336 54bd 3888 213d
00000120: 0945 10bd 0db3 98bb bc42 d43a 2c2e 47bc
00000130: fd64 52bd e8b5 68bd bbe9 1d3c 5949 0dbb
00000140: 1dc1 983b bf47 4cbd 5a83 01bd e50a 84bc
00000150: d727 22bd 1afe 8cbc a318 503c 66ae 623d
00000160: c06a 8e3c 6431 0fbd a290 78bd be30 0bba
00000170: 2799 81bd c2ed 0bbd 1779 e2bb 2e99 1abd
00000180: cbdd 953a 9498 45bd 5f2f cabc 09be 903d
00000190: 01aa 3a3c cd4f 56bd 3f62 603c a00d 9f3c
000001a0: b383 47bc aeec 293d d303 20bc caae 0fbc
000001b0: 7cd1 2cbd 09f4 9b3c a0aa 95bc 4f46 febc
000001c0: a8b9 09bd 8bd2 c9bc 47fa 37bc dc78 e63c
000001d0: 8dde 753b 8f3e 6d3c 5a2c 64bb 5590 fcbc
000001e0: eba2 573b 4f83 06bd 59ca e3bb 37ab c73c
000001f0: 436c 06bc df60 bc3b 22a4 813c b790 603d
00000200: 106d a5bb f01f b13c 9d07 003c 01f6 77bd
00000210: 8fff 42bc a380 d7ba c4c6 5dbd 39aa dcbc
00000220: 05ed c6bc e35d 27bc c286 253b 8694 9dbd
00000230: 7119 a1bc d621 59bd e6f3 57bc 5e08 66bb
00000240: e44f 1a3b 767a 1ebc 0233 0c3d 0026 b73c
00000250: 5c65 0dbd 39ef 5d3b de5b e03c 36de a33c
00000260: f8d9 27bd 84bc aabc 831d debc 3108 7abc
00000270: 607b acbc 5762 11bd 4e57 caba 4cf7 a8bc
00000280: f26d 9c3c c446 74bc 926f b5bc 76de 733c
00000290: 7b82 5abc d1df 723b 3078 ab3c 156d c3bd
000002a0: e82b 05bb 139a e1bc ff82 1a3b dbea d43b
000002b0: ebe6 5abd 3cda 683d 442a e13a 9785 84bc
000002c0: 8d84 a0bc e1dc 883c 8db7 5c3a 83b8 fb3c
000002d0: d76e 013d fea1 a6bb 6ccf bcbb f18d 553d
000002e0: 6e91 bcba b9ab d6bc bb61 4e3a 23b9 54bd
000002f0: 7970 bcbb 41a8 d0bc 614d 063d 59bd 943c
00000300: 384f a83b 7315 4f3c 7a6c ccbb 8698 a9bc
00000310: 1784 9fbc 7e32 e4bb 486a 51bc 7751 353d
00000320: 2a11 f4bc cc00 18bb 1a13 733d 89d6 b1bd
00000330: f514 b4bc 932d 47bd e4f6 02bb 500c 58ba
00000340: bb42 203b e568 833c e095 e5bb d5d6 803c
00000350: 35f8 e7bc 34a3 2f3d 32ed 443d 5599 b93d
00000360: 76db 82bd 693e f1bb b408 a13b 6771 8b3d
00000370: 4295 42bd 72f3 26bd 282b 00bc e163 0d3b
00000380: 8de2 4d3c 456b 933d 29fb 99bc 89f8 213e
00000390: cf35 af3d ca8e 2dbd 5b64 b03c 8d44 57bd
000003a0: 0f03 eaba bfff 03be 06cd 49bc 5e5a 53bb
000003b0: eff1 adbc 0397 b1bd afad 83bd 6ba7 a8bc
000003c0: 7146 91bc d100 6b3c 8719 e9ba e8fe 4abc
000003d0: 57fa 633c cf5e ed3c 5b23 173b c4db 4c3d
000003e0: 4779 87bc 2199 15bd 2e7c 95bb 94f0 623b
000003f0: c4e5 31bc e6a7 f53c b810 b13c 3fbc c4bc
-0.004655483 0.009705816 -0.022506062 0.049632084 -0.023462242 -0.012822534 -0.030915987 0.022346932
-0.024148295 -0.008120933 0.0001056077 -0.0023802898 -0.023792846 -0.05738447 -0.015759217 0.008294256
-0.0005952219 -0.020977806 0.00088716653 0.010543055 -0.03180584 0.017444663 0.02208169 0.06151742
0.022426918 -0.0026022168 -0.020192202 0.06773635 -0.060175046 -0.0349088 -0.0021866355 -0.0027760079
0.005118894 0.023277478 -0.034583632 0.10326284 0.041811336 -0.046993356 0.017869433 -0.038817946
-0.009499722 -0.06302581 -0.014401293 -0.0056025716 -0.031795718 0.00223506 0.0067943386 -0.026666824
-0.026656628 0.009621939 0.028144624 -0.031029878 0.0014126186 0.011249036 0.002683796 0.041974835
-0.025459655 -0.014844767 -0.0043325154 -0.051195834 -0.0120070195 0.047122955 -0.026431026 0.028188895
0.005133422 0.00973918 -0.01170831 0.19161288 -0.021151064 -0.017079495 -0.05180962 0.03943655
-0.035222087 -0.0046600164 0.0016194205 -0.012157004 -0.05136584 -0.056814104 0.009638245 -0.0021558611
0.004661693 -0.04987311 -0.031619407 -0.016118476 -0.039588775 -0.017211009 0.012701186 0.0553421
0.017384887 -0.034959212 -0.060684808 -0.00053096924 -0.063280396 -0.03416229 -0.0069114077 -0.03774374
0.0011433897 -0.048241213 -0.024680791 0.07067496 0.011393071 -0.052322198 0.013695299 0.019415677
-0.012177396 0.04148548 -0.009766537 -0.0087697 -0.042191967 0.019037263 -0.018269837 -0.031039385
-0.03362432 -0.024636528 -0.011229104 0.028133802 0.0037516684 0.014480247 -0.0034816475 -0.030830542
0.0032903503 -0.03284007 -0.006951612 0.024373634 -0.008204523 0.0057488526 0.015825335 0.05482551
-0.0050484017 0.021621674 0.007814315 -0.060537342 -0.01190175 -0.0016441535 -0.054144636 -0.026936637
-0.024282942 -0.010215255 0.0025257324 -0.07694344 -0.019665452 -0.053010784 -0.0131807085 -0.0035100202
0.0023546154 -0.009672752 0.034228332 0.022356987 -0.034520492 0.0033864512 0.027387556 0.02000342
-0.040979356 -0.020841844 -0.027113682 -0.015260742 -0.021054924 -0.035494175 -0.0015437396 -0.020625733
0.019095395 -0.01490945 -0.022147927 0.014884582 -0.013336773 0.0037059675 0.020931333 -0.0954229
-0.002032036 -0.027539289 0.0023576615 0.0064977235 -0.053442877 0.05684875 0.0017178734 -0.016176982
-0.019594455 0.016706886 0.0008419685 0.03072763 0.031599846 -0.005085229 -0.0057620313 0.05213732
-0.0014386603 -0.02620493 0.00078728393 -0.051934373 -0.0057507125 -0.025470855 0.032788638 0.018156694
0.0051363967 0.012639391 -0.0062385174 -0.020702612 -0.019472165 -0.006964027 -0.012781687 0.044267144
-0.02979334 -0.0023193834 0.05934439 -0.086834975 -0.02198265 -0.048627447 -0.0019983584 -0.0008241581
0.0024453837 0.016041229 -0.007006392 0.01572744 -0.028316597 0.042880252 0.04807777 0.09062449
-0.06389515 -0.007362176 0.0049143676 0.06808739 -0.047505625 -0.04075951 -0.007822789 0.0021574425
0.012566221 0.071981944 -0.01879652 0.15817465 0.08555185 -0.042372502 0.021532228 -0.05255561
-0.0017853695 -0.12890528 -0.012316948 -0.0032249908 -0.021233527 -0.08671381 -0.06429612 -0.020587644
-0.017733784 0.014343456 -0.0017784097 -0.012389876 0.013914666 0.028975872 0.0023061845 0.050014272
-0.016537322 -0.03652299 -0.0045619225 0.003462826 -0.010858003 0.029987287 0.021614417 -0.024015544
