webnn/model-tests/resources/test-data/models/resnet50v2_nhwc/weights/resnet_v2_50_block2_unit_2_bottleneck_v2_conv1_Conv2D_bias.npy (npy, 592 bytes, 1 tensors)

array f4 [128]
0	0x3fcc09c8	1.5940485
1	0x3fd58052	1.6679785
2	0xbfa3e18b	-1.2803205
3	0x402086dd	2.5082314
4	0x40250a2c	2.5787458
5	0x3f65a403	0.8970339
6	0xbfa5f253	-1.2964576
7	0x40079e5a	2.11904
8	0x3fa036d5	1.2516733
9	0xc09ac204	-4.8361835
10	0x3fabcab3	1.3421234
11	0x3f09e60c	0.5386665
12	0xbf38b079	-0.72144276
13	0xbf467f18	-0.7753768
14	0x3ff118d6	1.8835704
15	0x3fb9f738	1.452857
16	0x4087723f	4.232696
17	0xc031c260	-2.7774887
18	0x404137f7	3.0190408
19	0xc0147d5b	-2.320151
20	0x3fac8b87	1.348008
21	0xbf5aaec2	-0.8542291
22	0x3ff16330	1.8858395
23	0xc077b498	-3.8703976
24	0x3fbf08a2	1.492451
25	0x3f9f1d2f	1.2430781
26	0xc0120e77	-2.2821329
27	0x3f093252	0.5359241
28	0x4006061a	2.0941224
29	0x3fa3161c	1.2741122
30	0xbfff8d62	-1.9965022
31	0x3f893007	1.0717782
32	0x3f859313	1.0435508
33	0x4047d75a	3.122519
34	0x4027c235	2.6212285
35	0x3f9baa2b	1.2161306
36	0xbca12e61	-0.019675435
37	0xc0416620	-3.0218582
38	0xbdce8059	-0.10083074
39	0xbfabbf78	-1.3417807
40	0x3e108416	0.14112887
41	0x40214938	2.520094
42	0xbee17064	-0.4403106
43	0x40341dee	2.8143268
44	0xbfdcb8a8	-1.7243853
45	0x4091b091	4.5528035
46	0x40285352	2.6300855
47	0x3f6489c2	0.892727
48	0xc01c5a3f	-2.4430082
49	0x400dde96	2.2167106
50	0x3e850a38	0.2598436
51	0x400324c4	2.049119
52	0x4007ed67	2.123865
53	0x4012520b	2.2862575
54	0x3fc86a9a	1.5657532
55	0x4001b6ec	2.0267897
56	0x3cc25d08	0.023726001
57	0xbf477a22	-0.77920735
58	0x403558a8	2.8335361
59	0xbe90bc7b	-0.282688
60	0x3f23b8dd	0.63953954
61	0x3e8771a1	0.2645388
62	0x3eb19b8e	0.3468899
63	0x3cf521a0	0.02992326
64	0x405f50c3	3.4893043
65	0xbeb9d854	-0.36297858
66	0x3fd6f813	1.6794456
67	0xc0588a0a	-3.3834252
68	0x4005a36c	2.0880995
69	0x3fc42cea	1.5326207
70	0x402f3cb2	2.7380795
71	0xbe94d85f	-0.29071328
72	0xc02d3940	-2.7066193
73	0x3fb68879	1.4260398
74	0xbf0d999f	-0.5531253
75	0x3d38c8c4	0.04511334
76	0x3fe7ac7c	1.8099513
77	0x3fa97e18	1.3241606
78	0x3ef0e65e	0.47050756
79	0x3f969483	1.1764072
80	0x3d745c10	0.05965811
81	0x403baad6	2.932302
82	0x3fc36ff4	1.526854
83	0xbffc63dc	-1.9717975
84	0x402d49df	2.7076337
85	0xbf489f4d	-0.78368074
86	0xc0707204	-3.756959
87	0x3f25dd66	0.6479095
88	0x3fc7cbd9	1.5609084
89	0x3e8ff32b	0.2811521
90	0x3ee867e6	0.45391768
91	0x40018af5	2.0241063
92	0x400aa590	2.1663551
93	0xbf845f95	-1.0341669
94	0x40466a4c	3.1002378
95	0x3fec886d	1.8479134
96	0x3ff2f11b	1.897983
97	0xbf95c3c6	-1.170037
98	0x3fafacb5	1.3724581
99	0x3ed0c3df	0.40774438
100	0x3fb7b31b	1.4351534
101	0xbf84bfaa	-1.0370991
102	0x3fe9c485	1.8263098
103	0xc0ec2490	-7.379463
104	0x40467acf	3.1012456
105	0xc01d6e7c	-2.4598684
106	0xbeb5a4fa	-0.3547743
107	0x40191a40	2.3922272
108	0xc06c584a	-3.6928887
109	0xbff14edb	-1.885219
110	0x3f8fd4e6	1.1236846
111	0xbf90aff5	-1.1303698
112	0xbfee29ba	-1.8606484
113	0xc04323ef	-3.0490682
114	0xbf02be1e	-0.51071346
115	0x3f6835d8	0.9070716
116	0x3f793e22	0.9736043
117	0xbfb7696e	-1.432905
118	0xbfa90f39	-1.320777
119	0xbe93e418	-0.2888496
120	0xc01dfaaa	-2.4684243
121	0x3f175ac4	0.5912287
122	0x3f617914	0.88075376
123	0xbd36715c	-0.0445417
124	0x3fe19f8f	1.7626818
125	0xbfa58e1d	-1.2933995
126	0x3f4ef316	0.8083967
127	0xbe5abb38	-0.21360481
