webnn/model-tests/resources/test-data/models/resnet50v2_nhwc/weights/resnet_v2_50_block2_unit_1_bottleneck_v2_shortcut_weights.npy (npy, 524384 bytes, 1 tensors)

array f4 [512, 1, 1, 256]
00000000: cf63 2c3c ced2 c3bc cbe4 093b 4707 013d
00000010: 05ae d7bb 5c2f ca3a 4e75 84bc 73b0 323c
00000020: f1fd d13c 27dc 243b c31d cfbc e36f b33c
00000030: 5c89 2d3c 9e40 d1bc 7722 8abb 1567 953b
00000040: 15e3 35ba 8190 cb3c ebe3 60bc 49c7 ffbb
00000050: 377a bf3b d8b8 873c c363 87bb c53c cfbb
00000060: 4f48 a1ba 5cf8 3e3c 28dc 783a 13d3 813c
00000070: dd19 b13c 8ff8 cf3b 3094 35bb a67e 243b
00000080: 978d 24bb 6457 babb 290e 3a3a 44ba 133d
00000090: 5d8d 9c3b 6e86 01bd dda1 8b3c 0c13 babd
000000a0: 866e 0bbc 8130 3bbc ca68 0c3d c0d6 31bb
000000b0: e374 913c 1cdc d13c 9dd1 adbc f2e1 d03c
000000c0: c5ea a83b c62b 583c cc70 e5ba af98 073c
000000d0: 01aa 0e3c 93f8 f5bc 2c99 81bc dd93 5e3c
000000e0: 769b 5c3b 1bc1 8cbc df29 2a3c c8cb 0cbc
000000f0: 1444 023d c5ba 49bc c23d 20bc ecf9 4cba
00000100: 4ba7 763b c1dd f83b e247 f3bc 56b3 20bb
00000110: 2cb1 b0bc cd28 21bc 2db5 07bc 6bf3 413b
00000120: 106d df3b ae65 f23c ddbe 383c d19f 623c
00000130: 8a82 933c fadc 723b 3712 943e c196 8cbc
00000140: d190 a5bc f001 e83a 7ca2 88bc 726e adbc
00000150: f644 f8bb 51ad 80bb fc01 e73b d479 4ebc
00000160: d6dc a6bb ba41 0ebd c183 64bc db97 f7bc
00000170: fe00 65ba 3a7a 85bc 5623 5f3c 107f 0c3c
00000180: a7b1 8abc 1591 56bc 4926 edbb 6ba2 aebc
00000190: 4621 8abb c561 13bd 0acc 41bc 7322 2abc
000001a0: 7e43 0dbd ac16 18bd da1e 80bc e4cb e3ba
000001b0: 5c35 afbc 5330 113d 421a d93c f195 e03c
000001c0: c1af 44bb f9d1 8e3a 0467 b6bc 31be c13c
000001d0: cdcd 6cbd 571b 11bc 15d3 e03b 1790 a03b
000001e0: 9f7d 453d cb8d c5bb b5ef abbb 5ef7 cebc
000001f0: 6b2f 263b 943c 193c a5b7 d83c a434 9abc
00000200: 5683 15bb 0d6b 76bc 5c04 a7bb f991 86ba
00000210: a1a1 1c3b 1cae 81bc c731 1b3c 351d 543d
00000220: f20f abbc 94dd fcbc 8e72 6d3c 3d01 35ba
00000230: b497 4e3a a0f1 1dbd 8d4a 95ba 1519 6fbc
00000240: 409b 193d e7f1 643b 5dcf 2f3c c7c6 2c3c
00000250: a6a6 733b 4f0a b8bb 73d2 5bbc 94c0 5cbb
00000260: 328a 323c 1f74 2cbc a0f9 2a3c 8436 42bb
00000270: 1e59 2c3c b418 393d e0d0 ecbb be1c fcba
00000280: a358 ec3b e4c4 9ebc e400 ab3b 3ed4 acbb
00000290: 879b 1c3c a695 cbbb 2199 f7ba 6584 43bc
000002a0: dd4a aa3b 87fb af3a 16e4 283d 0b33 6cbd
000002b0: 21ae ed3c 9dd0 cd3b 66f1 493b ab9f d4ba
000002c0: 1fb2 4a3c 5660 2abc e867 edbb e648 66bc
000002d0: 0af9 06bd 8bbc 9eba 42d2 413c 98a6 b8bc
000002e0: 1691 ecbb e9c2 11bb 0bd9 81bd 0fb4 4f3d
000002f0: 17a1 56bc 97b3 2cbc 20f9 dbbc 05bd 33bb
00000300: 8e85 9f3b 0c1a cbbb 31ae f8bb e4b8 28bc
00000310: fd51 37bc 6b13 eb3a 54d9 6bbc 8a69 823b
00000320: 197a bf3c 4799 31bc 4298 5538 71f3 a53c
00000330: 8249 4f3c 1edf abbc 8d78 8bba fa95 d3bc
00000340: 6f09 fbbc 8f19 e3bc a016 d2bd adb6 0bbb
00000350: 161c 96bb 5d70 99bc 1f7e 013b bc77 d2bc
00000360: c4dd 1e3c 4f57 e5bb 075a 103c 19d0 ebbb
00000370: 506a 36bd 02d7 6abc ba84 2ebb 6b0e b6bb
00000380: 3ed7 5dbc 2a9b 99bb c244 74bb 2ecb 50bc
00000390: 786e 393b 7d0c 3ebc 9d3d 0d3c e590 fe3c
000003a0: 72cd ca3c f3f0 013c d5b9 083d dfe2 a83c
000003b0: c572 42bd 9b74 343c 3dea 23bc b0b8 66bc
000003c0: d63c f03a 3671 3e3a 5f89 e83c 6bb0 c2bc
000003d0: b52a 423c 4721 6dbb 595c c3bb aed4 ffbb
000003e0: 4591 e1bc ff2d 4ebc caeb 10bc d95a 1dbb
000003f0: f2e0 d8bc e7c8 9fbc bf9c ea3a e624 9dbb
0.010521843 -0.02390423 0.0021040912 0.03150108 -0.006582024 0.0015425491 -0.016169216 0.010906327
0.025633784 0.0025155635 -0.025282746 0.021903938 0.010591831 -0.025543507 -0.0042155343 0.0045594075
-0.000693844 0.024849178 -0.013726215 -0.007805739 0.0058434266 0.016567633 -0.0041317656 -0.006324383
-0.0012304875 0.011655893 0.0009493255 0.015847718 0.021618778 0.006346769 -0.0027706735 0.0025099902
-0.0025108808 -0.0056866873 0.0007097447 0.03606631 0.004777594 -0.031622343 0.017044956 -0.09085664
-0.008510238 -0.011425138 0.034279622 -0.0027136058 0.017755931 0.025617652 -0.021218115 0.025498364
0.00515494 0.01319403 -0.001750493 0.008276149 0.008707524 -0.030025756 -0.015820108 0.013585058
0.0033661998 -0.017181924 0.010385959 -0.008593507 0.031803206 -0.012312596 -0.009780349 -0.00078192237
0.0037636335 0.0075947945 -0.029697362 -0.0024520955 -0.021568857 -0.009836388 -0.008282942 0.0029594551
0.006818421 0.0295895 0.011275974 0.0138320485 0.018006582 0.0037057982 0.28920147 -0.017161729
-0.020210655 0.0017700773 -0.016679041 -0.021170828 -0.00757658 -0.003926911 0.007049797 -0.012602288
-0.0050922437 -0.03473065 -0.013947428 -0.030223778 -0.00087358046 -0.016293634 0.013619265 0.008575216
-0.016930414 -0.013096114 -0.00723723 -0.021317681 -0.0042153923 -0.035981912 -0.011828432 -0.01038419
-0.034488194 -0.037130997 -0.015639711 -0.001737949 -0.021387748 0.035446476 0.026501779 0.027415248
-0.0030011984 0.0010896317 -0.022265919 0.02365026 -0.057813454 -0.008856616 0.0068611004 0.0048999893
0.048215505 -0.006028866 -0.005247081 -0.025264438 0.0025357853 0.009352822 0.026454756 -0.01882393
-0.0022813878 -0.015040171 -0.005096955 -0.0010266892 0.002390005 -0.015830092 0.009472317 0.051785666
-0.020881627 -0.030867375 0.014492644 -0.00069047866 0.0007880882 -0.03856051 -0.0011390016 -0.014593382
0.037501574 0.0034934224 0.010730592 0.010545439 0.0037178188 -0.0056164633 -0.013416874 -0.0033684121
0.010897206 -0.010525732 0.010435492 -0.0029634545 0.010519294 0.045189574 -0.0072270483 -0.001923464
0.0072127148 -0.019380994 0.005218612 -0.0052743247 0.009558565 -0.006212908 -0.001889024 -0.011933421
0.0051969127 0.0013426401 0.041233145 -0.057665866 0.029013695 0.006280972 0.003081405 -0.0016221901
0.012371569 -0.010398945 -0.0072450526 -0.014055466 -0.032952346 -0.0012110634 0.0118299145 -0.022540376
-0.007219444 -0.002224142 -0.06340226 0.050708827 -0.01309993 -0.010540864 -0.02685219 -0.0027425897
0.004868216 -0.0061981734 -0.0075891246 -0.010297988 -0.011188981 0.0017934864 -0.014395077 0.0039798664
0.02337365 -0.010839767 5.092496e-05 0.020257683 0.012651803 -0.020980414 -0.0010640785 -0.02582835
-0.030644147 -0.027722148 -0.102582216 -0.00213186 -0.004580985 -0.018730337 0.0019759012 -0.02569186
0.009696428 -0.0069989334 0.008810527 -0.007196438 -0.04453498 -0.014333488 -0.0026629404 -0.005555918
-0.013540087 -0.0046876865 -0.0037272428 -0.012743754 0.0028294604 -0.011599657 0.008620647 0.03107495
0.024756167 0.007930982 0.03338035 0.020615993 -0.047472734 0.011014129 -0.010004577 -0.014082119
0.0018328677 0.00072647945 0.028385816 -0.023765763 0.011851002 -0.0036183165 -0.0059619364 -0.007807336
-0.02753509 -0.0125842085 -0.008845279 -0.0024010448 -0.02647445 -0.019504977 0.0017899497 -0.0047956584
