webnn/model-tests/resources/test-data/models/resnet50v2_nhwc/weights/resnet_v2_50_postnorm_FusedBatchNorm_add_param.npy (npy, 8272 bytes, 1 tensors)

array f4 [2048]
0	0xc0ae6323	-5.4496017
1	0xbe1498a0	-0.14511347
2	0xc022e128	-2.5449924
3	0xbf9a66e8	-1.2062654
4	0xc07edd81	-3.9822695
5	0xbf93de28	-1.1552172
6	0xc0379766	-2.8686156
7	0xbf2775b0	-0.6541395
8	0xc09e03c7	-4.937961
9	0x40025ed4	2.0370378
10	0xbf730665	-0.9493163
11	0xbf264358	-0.6494651
12	0x3fea9e0c	1.8329482
13	0xc00a5ebe	-2.1620326
14	0xbfed4d5c	-1.8539233
15	0xc00f7ede	-2.2421184
16	0xc01dc58f	-2.465183
17	0xc0131efd	-2.2987664
18	0xc003078a	-2.0473351
19	0xc0623de5	-3.5350277
20	0xbeebdf16	-0.4606864
21	0xbf992be4	-1.1966519
22	0xc087e5fc	-4.2468243
23	0xc0b5b571	-5.6783986
24	0xc02df484	-2.718049
25	0xbe887820	-0.26654148
26	0xc06a02e0	-3.6564255
27	0xbfc47aa6	-1.5349929
28	0xc00fb410	-2.2453651
29	0xbf2b8a40	-0.6700783
30	0xc013cc37	-2.3093393
31	0xc063b47b	-3.5578907
32	0x3ec533c0	0.38516045
33	0x3ec70850	0.3887353
34	0xbf508f88	-0.8146901
35	0x3f884830	1.064703
36	0xbfa02b2c	-1.2513175
37	0xc0653922	-3.581612
38	0xc09f874b	-4.9852653
39	0xbf920434	-1.1407533
40	0xbf8dd5ad	-1.1080834
41	0x3f0f9f28	0.5610223
42	0x3f09fea8	0.539042
43	0xc017bcac	-2.3708906
44	0xbfbb194c	-1.4617095
45	0xbfaf410c	-1.3691726
46	0x3f3e7060	0.7439022
47	0xc02b911c	-2.6807318
48	0xbf234401	-0.6377564
49	0xbfea1520	-1.8287697
50	0xc0991af8	-4.784542
51	0xc04e1a26	-3.220346
52	0xbf926109	-1.1435863
53	0xc0632c1a	-3.5495667
54	0xc02461ea	-2.5684762
55	0x3fe70f48	1.8051538
56	0xc00649a7	-2.0982454
57	0xbf0e7a30	-0.55655193
58	0xc013e43e	-2.3108058
59	0xc0170aaa	-2.360026
60	0xc036c44c	-2.855731
61	0xbf871ab8	-1.0555029
62	0xbf1e5320	-0.6184559
63	0xbfc939c8	-1.5720758
64	0x3fc020e0	1.5010033
65	0xbf206b56	-0.6266378
66	0x3f1ce718	0.6129012
67	0x3b91c800	0.0044488907
68	0x3f3b0478	0.73053694
69	0xbfaf29e8	-1.3684664
70	0xbffb455e	-1.9630544
71	0xbe9091b2	-0.28236157
72	0xc0a8456a	-5.2584734
73	0xc01d1741	-2.4545443
74	0xc07a429a	-3.910315
75	0xc06dec74	-3.717557
76	0xc01884ca	-2.3831048
77	0xbea22800	-0.31671143
78	0x3f35a280	0.7095108
79	0x3d395080	0.045242786
80	0xbfa152f0	-1.2603436
81	0xbffd3d58	-1.9784346
82	0x3f30a5c0	0.69002914
83	0x3f3a6040	0.72803116
84	0xbeb7b610	-0.3588109
85	0xbfd2d584	-1.647141
86	0xbf928202	-1.1445925
87	0xbea7c8f0	-0.3277049
88	0xc0283e14	-2.628789
89	0xc0720382	-3.781464
90	0xbf791106	-0.972916
91	0xc098e274	-4.777643
92	0xc03eeaf7	-2.983091
93	0xbf012665	-0.5044921
94	0xc03af78c	-2.921359
95	0xc0030626	-2.0472503
96	0xbfa6ecc0	-1.3041
97	0xc08aa58f	-4.33271
98	0x3f6c0200	0.9219055
99	0xbf34e248	-0.7065778
100	0xc0ba2554	-5.8170567
101	0xc075d10e	-3.8408847
102	0xc06807d6	-3.6254783
103	0xc0062630	-2.0960808
104	0xc0a05046	-5.009799
105	0x400830b8	2.1279736
106	0xc00de6f3	-2.217221
107	0xbf8e47f4	-1.1115708
108	0xbf75bedc	-0.95994353
109	0xbc058c00	-0.008151054
110	0xc006f8f9	-2.108946
111	0x3faef5ec	1.3668799
112	0x3d890340	0.06690073
113	0xbfb45a80	-1.4090118
114	0xc034ff0d	-2.828067
115	0xbf27a489	-0.65485436
116	0xbf136570	-0.57576656
117	0xc0231128	-2.5479221
118	0xbfc2acbd	-1.5208966
119	0xbdb11a80	-0.086476326
120	0xbf3e0cc4	-0.7423823
121	0xbf7b4380	-0.9814987
122	0xc04c8188	-3.195406
123	0xbfb6f504	-1.4293523
124	0x3f91b360	1.1382866
125	0x3d99ea40	0.07515383
126	0xbf885ca4	-1.0653272
127	0xc04cf698	-3.202551
128	0xbf2bffa0	-0.6718693
129	0xbf44639c	-0.7671449
130	0xbfab85f4	-1.3400254
131	0xbf8aa653	-1.0832008
132	0xbf593ff8	-0.84863234
133	0x406d4b60	3.7077255
134	0xbfd80dd0	-1.6879215
135	0xc0615501	-3.5208132
136	0x3f7981e8	0.97463846
137	0xc09cd84c	-4.9014034
138	0xbfde83a4	-1.7383924
139	0xc05fdbf0	-3.497799
140	0x3ed10400	0.40823364
141	0x3f18b900	0.5965729
142	0xc034a9f9	-2.8228743
143	0xc01e9598	-2.4778805
144	0xbf4a8470	-0.79108334
145	0xbfc7183f	-1.5554274
146	0xbf2c2f68	-0.67259836
147	0xbfd20846	-1.6408775
148	0xc044bf86	-3.0741897
149	0xbf335cc8	-0.7006345
150	0xbf88a3a7	-1.0674943
151	0xc07a87ed	-3.9145463
152	0xbfa9225f	-1.3213614
153	0xbf616d20	-0.88057137
154	0x3fdf45f0	1.7443218
155	0xc00b34b0	-2.1750908
156	0xbe403240	-0.18769169
157	0xc091820e	-4.547126
158	0xc013d544	-2.3098917
159	0x3eec2ee0	0.46129513
160	0xbe210c80	-0.15727425
161	0xc00cbeca	-2.1991448
162	0xbfc81ef0	-1.5634441
163	0xc04ffabf	-3.2496793
164	0xc03f5cc6	-2.9900374
165	0xc064de1a	-3.576056
166	0x3f13fc70	0.57807064
167	0xbf95e934	-1.1711793
168	0xc059ce72	-3.4032254
169	0xbfb16c74	-1.3861222
170	0xc002baa4	-2.0426416
171	0x3f07e7f0	0.53088284
172	0xbdadf240	-0.08493471
173	0xbf1d2b08	-0.61393785
174	0x3f6f9ee0	0.936018
175	0x3c641200	0.013920307
176	0x3f57cec0	0.8429985
177	0xc0600793	-3.5004623
178	0xbf9cc358	-1.2247114
179	0x3f181308	0.5940404
180	0xbe5d625c	-0.21619552
181	0xbf555b4e	-0.83342445
182	0xbfa89444	-1.3170247
183	0xbfbcc788	-1.4748392
184	0xbfeacad8	-1.8343153
185	0xbfb073f2	-1.3785384
186	0x3db57200	0.088596344
187	0x40158be0	2.3366623
188	0xbf29e5e8	-0.66366434
189	0x3f18f3a0	0.5974674
190	0xbfdf8809	-1.746339
191	0xbf90b4a9	-1.1305133
192	0xbf945234	-1.1587586
193	0xbda41b00	-0.08012962
194	0x3f75a268	0.9595094
195	0x3e695fe0	0.2279048
196	0x3e58a180	0.21155357
197	0x3ebf3530	0.37345266
198	0xbe6176e0	-0.22018003
199	0x3f1a5590	0.6028681
200	0xc001253e	-2.017898
201	0x3f6e1c10	0.9301157
202	0xc0ae8a5f	-5.454391
203	0xbf5202c9	-0.820355
204	0xc01fd138	-2.4971447
205	0xbd91e680	-0.071240425
206	0xbe3b0c6c	-0.18266457
207	0xbf87af24	-1.0600324
208	0xbfabedd5	-1.3431956
209	0x3f1cc3d0	0.61236286
210	0x3f282480	0.65680695
211	0x3fbc2360	1.4698296
212	0xc0a7e237	-5.246364
213	0xbfcf79fc	-1.6209102
214	0x3fa5ab44	1.2942891
215	0xbeb256b0	-0.34831762
216	0xc0189098	-2.3838253
217	0xbf359388	-0.7092824
218	0xbf81cd87	-1.0140847
219	0xc027b7ae	-2.620586
220	0xbf5db150	-0.8659868
221	0x3f13ae70	0.57688046
222	0xc08415c6	-4.127658
223	0xbeab4140	-0.3344822
224	0xbf0f6790	-0.560174
225	0xc00070dc	-2.0068884
226	0xbf6f26f2	-0.934188
227	0x3e895da0	0.26829243
228	0xbfeb95d8	-1.8405104
229	0xbe8f5bb0	-0.2799964
230	0xc05ccdda	-3.4500642
231	0x3e64f2e0	0.22358274
232	0xc08b0af6	-4.345088
233	0xbf0e91dc	-0.55691314
234	0xbfacba28	-1.349431
235	0xbfe5d064	-1.7954221
236	0xbfd74084	-1.6816564
237	0xbf025068	-0.5090394
238	0xc010bfc8	-2.2617054
239	0x3f6ea498	0.932199
240	0x3f9e7e9c	1.2382388
241	0xbf38b700	-0.72154236
242	0xc0107e18	-2.2576962
243	0xbd98f780	-0.07469082
244	0xc039ca40	-2.9029694
245	0xc0365518	-2.8489437
246	0xc00d4823	-2.2075279
247	0x3ea8ce60	0.32969952
248	0xbf10899c	-0.56459975
249	0xc07b9d85	-3.9314892
250	0xbfc055e2	-1.5026209
251	0xbfcb79c6	-1.5896537
252	0xc01caede	-2.448173
253	0xc0083638	-2.1283092
254	0xc08581a7	-4.1720767
255	0x3dc65340	0.096838474
