webnn/model-tests/resources/test-data/models/resnet50v2_nhwc/weights/resnet_v2_50_block4_unit_3_bottleneck_v2_conv3_Conv2D_bias.npy (npy, 8272 bytes, 1 tensors)

array f4 [2048]
00000000: 8f21 88b2 7d33 16b5 1e70 c433 bd16 1834
00000010: a8da 83b2 fcd8 dbb2 0296 44b4 8b5b 7b32
00000020: 5781 53b4 7a84 4933 8772 2432 b4a4 14b1
00000030: 8ebc 68b4 5ed4 0eb5 2c0f 9db3 cfda 7ab4
00000040: f707 0eb1 20c6 c6b4 fc8f 04b4 5715 0934
00000050: c9a6 dab2 baa8 1ab4 0e90 84b4 e437 9733
00000060: 0081 2935 28b8 2234 735b 21b5 da07 5fb4
00000070: 86e5 d4b4 340c 81b1 8611 25b4 cbbf 0bb5
00000080: c66f 69b5 040e 6a34 4c2b cfb3 dd05 27b5
00000090: b893 d4b3 9571 6133 5166 7734 65f3 c4b4
000000a0: fa97 fbb1 24ba 2f34 8e5f 51b5 2d26 b8b4
000000b0: 8af3 8ab4 3ffe 6c34 a4ba 40b3 8d69 1cb5
000000c0: b512 65b2 a5dd b2b3 4571 95b4 05a8 65b4
000000d0: 9ac3 c9b2 b608 0f34 bf46 b134 acf0 fcb4
000000e0: 31c9 1733 6a3c 8134 21cf f0b4 ad35 9ab4
000000f0: abcb b1b4 99b7 7ab2 f58b d8b4 21fe 8732
00000100: 9423 5034 6486 afb3 db2a 0b34 2133 b533
00000110: f2d3 cbb4 f4bc 21b4 2df0 c2b4 a722 c9b2
00000120: 54cf 85b4 017e deb4 8f2b a7b4 73f8 2db4
00000130: f3bb 02b4 535f 1ab4 c4fe 2b32 2726 30b5
00000140: a80c 14b5 e4ec 28b5 0e1f dcb3 9eb2 a534
00000150: ed83 9334 1f66 73b4 6e49 9ab3 951a 74b3
00000160: 5228 0834 c7ea 60b4 4abe 74b3 2f0a f5b4
00000170: a639 62b4 a0b4 b3b2 7c74 29b4 3107 6734
00000180: 48fb 04b5 7874 fb32 02f7 12b3 ca73 00b5
00000190: 869e 05b4 c930 cab2 81c6 a2b4 6d33 c532
000001a0: 1304 fbb4 b68b 9834 03b0 30b4 d129 86b3
000001b0: 1c12 73b4 0563 9033 5671 bcb3 7edc 5a32
000001c0: 6df5 10b4 e448 a0b2 1d5b 80b3 d4bc 99b1
000001d0: dc51 26b2 f5bf d734 011c 2eb3 49fa 9034
000001e0: f602 8ab3 3c74 d9b3 8c0e 4cb4 8f94 1c34
000001f0: c18f 9033 4110 e534 534f 2e35 b732 9932
00000200: 0958 9134 cae8 c5b2 19c8 15b3 c682 8eb1
00000210: 2f93 1132 f822 af34 f0e0 dab2 c3b2 7ab4
00000220: 8661 1135 1356 a4b4 8825 47b3 2ca1 82b4
00000230: b59e 83b3 004a 2db3 93ce b133 1742 0d34
00000240: ab51 4133 f845 b9b3 eeb3 16b2 a2c9 aab2
00000250: 04ac 16b2 01bd feb2 0f3a 1bb3 1fb9 e0b4
00000260: b922 f5b2 bb66 20b4 8fc5 0135 80c5 84b4
00000270: 53d1 f234 0134 fd33 a411 4c34 36b2 a4b3
00000280: ea2e 4434 1c65 4bb2 3639 0eb5 bef1 0eb3
00000290: 4faf a3b3 8137 2534 7b99 ce34 6ec4 84b4
000002a0: 5676 0134 7afd 54b5 877b e932 a23a b534
000002b0: 1b09 b233 84a9 c3b4 86b2 5a34 ced0 59b3
000002c0: f841 15b4 fcca 8633 2183 3fb4 8af1 55b4
000002d0: 5984 0132 30ab b0b3 2f02 c6b2 88bf ebb3
000002e0: 2243 9cb4 59d9 b432 2955 72b5 ee04 74b4
000002f0: 2365 8c33 c40b f3b4 3355 d0b1 4c26 63b3
00000300: 0c9d a4b3 6917 ccb2 822c d5b3 8e1b 6334
00000310: b3e3 02b5 4b91 f3b4 e457 89b4 9c79 afb4
00000320: f6e0 11b2 3c69 8f34 e9ea 5933 11fb 3d32
00000330: de4a 7835 12d8 5131 a7b1 43b2 b901 b4b4
00000340: 4b89 b8b3 bcee 81b4 b999 6f33 f3be 32b4
00000350: 7d5f a8b4 b0a2 16b5 39b3 cab4 3c23 7432
00000360: a7a5 5ab3 5396 87b4 28ed 72b1 2cba d034
00000370: c1da fab4 2298 3034 8807 15b5 985f 6f34
00000380: 30a1 3cb4 675e bfb3 4b08 d6b2 15d2 99b4
00000390: 2d36 cfb2 5f9b 8333 6a0e 95b4 635b 86b4
000003a0: 49c2 cc32 ae22 81b2 b66a bb31 4d05 8cb4
000003b0: 5fb2 4cb4 ed4e 0fb4 78c7 eab4 df5d 1fb5
000003c0: 3f73 ec33 ed20 1fb2 2809 1db4 2431 ac34
000003d0: 8afb 1935 2edc f532 0322 53b4 7da0 0532
000003e0: 4c00 56b2 6d7b cab3 7f31 9eb2 90cd c7b1
000003f0: 7889 40b4 2635 63b4 f5fb 81b4 0455 8ab4
-1.5847744e-08 -5.595428e-07 9.147355e-08 1.4164375e-07 -1.534984e-08 -2.5593629e-08 -1.8308495e-07 1.4630937e-08
-1.969796e-07 4.6919446e-08 9.572097e-09 -2.1630457e-09 -2.167528e-07 -5.320816e-07 -7.313642e-08 -2.3362666e-07
-2.0668247e-09 -3.702453e-07 -1.2345839e-07 1.2766883e-07 -2.5454385e-08 -1.440375e-07 -2.469173e-07 7.041652e-08
6.3145126e-07 1.5154421e-07 -6.011025e-07 -2.077135e-07 -3.9655077e-07 -3.7557815e-09 -1.5373197e-07 -5.206063e-07
-8.6961916e-07 2.1798047e-07 -9.647064e-08 -6.222088e-07 -9.898889e-08 5.2490197e-08 2.304089e-07 -3.6684938e-07
-7.322339e-09 1.6365863e-07 -7.799762e-07 -3.4300447e-07 -2.58817e-07 2.2071707e-07 -4.4873232e-08 -5.8268125e-07
-1.3333808e-08 -8.329088e-08 -2.7835827e-07 -2.1388412e-07 -2.3488429e-08 1.3321082e-07 3.3020294e-07 -4.711377e-07
3.534041e-08 2.407208e-07 -4.485419e-07 -2.872379e-07 -3.3117007e-07 -1.45936605e-08 -4.0334967e-07 1.5831633e-08
1.9384453e-07 -8.173518e-08 1.2960975e-07 8.4377696e-08 -3.7965907e-07 -1.5063034e-07 -3.6310067e-07 -2.3415238e-08
-2.4924032e-07 -4.1442402e-07 -3.1137867e-07 -1.6202266e-07 -1.2175569e-07 -1.4377046e-07 1.0011437e-08 -6.562063e-07
-5.5152714e-07 -6.29296e-07 -1.0250197e-07 3.0863606e-07 2.7476872e-07 -2.266829e-07 -7.1845406e-08 -5.6834853e-08
1.2680655e-07 -2.0947037e-07 -5.6983744e-08 -4.5642216e-07 -2.1068863e-07 -2.0920481e-08 -1.5781728e-07 2.1516168e-07
-4.9539494e-07 2.927321e-08 -3.4217926e-08 -4.785221e-07 -1.2444261e-07 -2.353808e-08 -3.0319282e-07 2.2957204e-08
-4.6755358e-07 2.841386e-07 -1.645531e-07 -6.2474676e-08 -2.2637727e-07 6.723534e-08 -8.775048e-08 1.2739404e-08
-1.350033e-07 -1.8659598e-08 -5.977038e-08 -4.4743533e-09 -9.681084e-09 4.0186538e-07 -4.0538e-08 2.7004197e-07
-6.4266644e-08 -1.0125993e-07 -1.9004273e-07 1.4582677e-07 6.731671e-08 4.26664e-07 6.4935483e-07 1.7834607e-08
2.707241e-07 -2.3039679e-08 -3.4873754e-08 -4.147611e-09 8.4735765e-09 3.2621733e-07 -2.548083e-08 -2.3348097e-07
5.4158625e-07 -3.0610008e-07 -4.6367433e-08 -2.4331655e-07 -6.1290315e-08 -4.0347004e-08 8.2797804e-08 1.3155692e-07
4.501059e-08 -8.627461e-08 -8.77206e-09 -1.9882297e-08 -8.770261e-09 -2.965544e-08 -3.6141554e-08 -4.1857945e-07
-2.8537544e-08 -1.4938534e-07 4.834373e-07 -2.4730616e-07 4.5228316e-07 1.179069e-07 1.9005398e-07 -7.6692615e-08
1.827099e-07 -1.1839145e-08 -5.2982375e-07 -3.3281815e-08 -7.6221674e-08 1.5387015e-07 3.8482162e-07 -2.4729837e-07
1.2057112e-07 -7.934501e-07 2.7180944e-08 3.3756538e-07 8.290427e-08 -3.644492e-07 2.0367779e-07 -5.0714156e-08
-1.3900706e-07 6.276784e-08 -1.7835966e-07 -1.9925042e-07 7.538881e-09 -8.2267775e-08 -2.3051227e-08 -1.09778796e-07
-2.910611e-07 2.1053596e-08 -9.027595e-07 -2.2726064e-07 6.537655e-08 -4.5270838e-07 -6.0632828e-09 -5.2887387e-08
-7.665412e-08 -2.3759371e-08 -9.926681e-08 2.1151047e-07 -4.876012e-07 -4.5367992e-07 -2.5582187e-07 -3.2684773e-07
-8.491261e-09 2.6712394e-07 5.07379e-08 1.1058334e-08 9.2496145e-07 3.0536325e-09 -1.1390887e-08 -3.3528866e-07
-8.593141e-08 -2.4201825e-07 5.5786334e-08 -1.6647009e-07 -3.1361915e-07 -5.6116096e-07 -3.7755834e-07 1.4210681e-08
-5.090774e-08 -2.5255085e-07 -3.5350443e-09 3.8878477e-07 -4.6725293e-07 1.6446623e-07 -5.5517785e-07 2.2293386e-07
-1.7567504e-07 -8.911302e-08 -2.491665e-08 -2.8651326e-07 -2.4122608e-08 6.128425e-08 -2.77639e-07 -2.5025938e-07
2.3837076e-08 -1.5033347e-08 5.454548e-09 -2.608089e-07 -1.9063872e-07 -1.3346626e-07 -4.373103e-07 -5.9368716e-07
1.10105695e-07 -9.2625045e-09 -1.4625095e-07 3.207325e-07 5.736298e-07 2.862188e-08 -1.966328e-07 7.77811e-09
-1.2456507e-08 -9.428809e-08 -1.8416129e-08 -5.815032e-09 -1.7931404e-07 -2.1160358e-07 -2.4211445e-07 -2.576636e-07
