webnn/model-tests/resources/test-data/models/resnet50v2_nhwc/weights/resnet_v2_50_block2_unit_1_bottleneck_v2_conv2_weights.npy (npy, 589920 bytes, 1 tensors)

array f4 [128, 3, 3, 128]
00000000: f2bb 493c 7ed9 73bc 3366 1cbb 9ff0 563a
00000010: 71be 473b e376 38bc 323c b73b 26c9 a83c
00000020: bc6d 143c ba34 37bc a2f3 67bc 18a3 d938
00000030: e518 a53b eed5 a73b 7f4c f1b9 0931 9fbc
00000040: b05c 00bd 76f2 8fbc 8c33 143c 8626 193a
00000050: 2504 c3bc 239f 4d3c 4e2f a43b 7f0a c4bb
00000060: 011d babb 1756 8d3b 3fa7 f93b 9ff5 ecb9
00000070: 07e8 40bc d3ad efbb 4df1 73bb 5a7a 893c
00000080: ea6c 943c 1cc3 a1bc 1a40 b7bb 9bfb e4ba
00000090: aba0 26bc 8ed9 0a3c 1b88 b33c 3f5a 6bbc
000000a0: 602c 87bc f059 423c 9e82 703b 9173 04bb
000000b0: aefe 40bb 8ca8 1bbc 05e8 87bb 8dde 02bc
000000c0: 9059 ee3c aea5 193c 3234 a1bc d580 073b
000000d0: bb37 2b3c e989 41bb e392 babb e00b 3b3c
000000e0: 6b69 1b3c 82d3 c7bb 16ec 143d 5201 d4bb
000000f0: 2726 393b 6bbc 50ba 55fa 803b b0cf 8a3c
00000100: e8bf 073c 50e8 7abc 703b 9b3b 6c57 28bd
00000110: 4784 00bc 3685 dc3a d485 223c 8b7e 443c
00000120: ad16 5ebb 8a0f f63b fbfe 013c c32c 4ebc
00000130: 4425 47bb e70d c4bc ad92 a73c 0cc6 01bc
00000140: aee4 ae3b 61cf 9dbc 592d 8bbc bfa0 8dbb
00000150: 7d51 e0bc 5e82 cbbc 88d5 d73c 0eb5 53bb
00000160: 6d36 953c ad2c 223c c7d2 293c 7eb1 0b3b
00000170: c710 813c 229a 55bc 44a2 d1ba c11d 4bbc
00000180: c116 3abc 64a3 a93c 40a3 25bc 1e96 9fbc
00000190: cd9f 593b e87d 68bc 8ceb b2bc 7197 cdbc
000001a0: 90dc 1cbb b676 3cbb 331b 29bc ef7c 273c
000001b0: fc7c 5d3c 0982 853b c6dd 033a 3bec 173d
000001c0: 545c aa3b ad85 a23b 839c 8d3c 5933 f23b
000001d0: 4760 e33c 4b8d 3bbb 7aec 52bb 199d 9b3d
000001e0: 11c2 f23c 4323 413b ccdf 8c3b a929 1fbb
000001f0: a2b3 a6bb b176 51bc f465 883a 1e26 953d
00000200: c3ea f63b 9547 1abd 7f02 b2bc 5129 103b
00000210: aeaf 3a3b 5962 ad39 1eb9 98bc 9182 17bc
00000220: dfda 583a cc3a 8eba fa99 6cbc 5f0f cc3c
00000230: 303a 51bc 72a4 cbbb 5c3a b3ba fbd5 31bc
00000240: 9005 43bc 9e4f 04bc 69d0 153d 5113 883b
00000250: 3879 cabb dd2b 023c fbaf 08bc 147c adbc
00000260: b62b d73b 7f5b 3bbb f14c abb9 d3f7 edba
00000270: 1fe4 3339 50d5 febb db30 da3b b4e5 953c
00000280: 1da3 403b 2383 a8bc 2fc5 67bb d569 0dbd
00000290: 763f 3bbc 714b 53bc a68e 9c38 0479 e73c
000002a0: 2400 bbbc a219 223c 1d04 a33b 05ba f5bb
000002b0: 7112 c3bc 39ab 2d3c 9216 49bc 267d 08bd
000002c0: b564 f0b9 0c54 12bc dc93 5fbd c42e 25bc
000002d0: cbe3 b6bb f561 463b c7c1 f2bb cfe4 c3bc
000002e0: 29c5 3dbc 9b98 473b e266 0b3d 5cf7 133d
000002f0: 8da7 523b e921 49bc 9c70 8f3b 1e80 0d3c
00000300: 5b51 05bb d9a9 24bd 70e9 ddba 0743 e3bc
00000310: 1258 aa3b 9fd9 f8bb f262 e23b 6cb5 cabc
00000320: cb58 6fba f5e5 d63b f788 82bb 7e3f 37bb
00000330: 3856 23bc 8f62 09bd c09e 02bc c245 69bc
00000340: 6b37 32bc 3667 22bd 0608 b9bc 40e5 8abc
00000350: 2712 39bd c9a6 3dbb 1419 84bc f0f5 89bc
00000360: 093e f13c e79d b03c 0935 0b3c 9248 003b
00000370: 1dcc 243b 743b 80bc c9bf d8ba d8b0 8f3b
00000380: ae9c b5bc eb74 7c3c b14c 353a f146 3cbc
00000390: 7848 e6bc b798 f1bb 5fdf 7b3b 2596 c2bb
000003a0: 74ba ba3b 079e b7bc 2b21 53bb 75d7 75bc
000003b0: dc48 c33a bf8a 3abb 3842 76bc 1eff a0bc
000003c0: 89a9 ed3a f78e 4bbb 975a ba3c 97c1 053b
000003d0: 4b0e 313d a2e0 843b a23c 20bb b7de 693d
000003e0: de6c 163c 871f 82bb 1d6c 8bb9 8774 0d3c
000003f0: b742 533c d1c4 f9bb 738c 28bb 4f95 8e3d
0.012312876 -0.014883397 -0.0023864626 0.00081993075 0.0030478502 -0.011258814 0.0055918926 0.020603728
0.009059366 -0.011182005 -0.014157208 0.00010377745 0.005038368 0.005121938 -0.00046024096 -0.019432561
-0.031338394 -0.01757167 0.009045493 0.0005842227 -0.023805687 0.012550148 0.005010522 -0.0059826965
-0.005679727 0.004313241 0.0076188142 -0.0004519643 -0.01177407 -0.0073144226 -0.0037222684 0.016781975
0.01811834 -0.019746356 -0.0055923583 -0.0017470004 -0.010170142 0.008474721 0.021915486 -0.014364778
-0.016500652 0.011862263 0.0036698948 -0.0020210485 -0.0029448676 -0.009500634 -0.004147532 -0.007987631
0.029095441 0.00937788 -0.019678209 0.0020676155 0.010450299 -0.0029531664 -0.00569378 0.011416405
0.009485583 -0.0060982117 0.03635796 -0.006469884 0.00282515 -0.0007962647 0.003936092 0.016944736
0.0082855 -0.015314177 0.00473731 -0.041098997 -0.007844037 0.0016824368 0.009919602 0.011993061
-0.0033888028 0.0075091766 0.007934327 -0.012583914 -0.0030387202 -0.02393241 0.020455683 -0.007920753
0.0053373193 -0.019263925 -0.016989397 -0.004322141 -0.027382607 -0.024842437 0.026346937 -0.0032303962
0.018214429 0.009898347 0.010365195 0.002131551 0.01575507 -0.013037236 -0.0015993793 -0.012397231
-0.011357964 0.020707794 -0.010109723 -0.019480761 0.003320682 -0.014190175 -0.021840833 -0.025096627
-0.0023935176 -0.002875728 -0.010321426 0.010222658 0.013518568 0.0040743393 0.00050303 0.03709052
0.0051989947 0.004959783 0.017286545 0.007391375 0.02775587 -0.0028618153 -0.0032184408 0.075983234
0.029633554 0.002947048 0.0042991396 -0.0024286306 -0.005087332 -0.012784646 0.0010406361 0.07282661
0.00753531 -0.037665922 -0.021729706 0.0021997283 0.002848606 0.00033070406 -0.018642958 -0.009247438
0.00082723604 -0.0010851263 -0.014441008 0.024909673 -0.012770221 -0.006214672 -0.0013674009 -0.01085424
-0.011903182 -0.008075623 0.03657571 0.0041526933 -0.006179001 0.007945028 -0.008342738 -0.02117733
0.00656649 -0.0028588471 -0.00032672987 -0.0018155522 0.00017155752 -0.0077768937 0.006658656 0.018298008
0.0029394098 -0.020570343 -0.0035365333 -0.034524757 -0.0114287045 -0.012896405 7.46523e-05 0.028255947
-0.022827215 0.009893807 0.0049748556 -0.007498982 -0.023812504 0.010599905 -0.012273448 -0.033322476
-0.000458514 -0.008931171 -0.05458437 -0.010081951 -0.0055813543 0.003027079 -0.007408354 -0.023912815
-0.011582651 0.003045595 0.034033664 0.036124572 0.0032143325 -0.012276151 0.0043774378 0.008636503
-0.002034268 -0.04020104 -0.0016930532 -0.027741922 0.005198487 -0.007594302 0.006908768 -0.024744712
-0.00091303576 0.0065581747 -0.0039836126 -0.0027961428 -0.009969287 -0.03354126 -0.007972419 -0.014237823
-0.0108774705 -0.03964921 -0.022586834 -0.016955018 -0.045183327 -0.0028938523 -0.01612524 -0.016840905
0.029448526 0.021559669 0.008496531 0.0019574505 0.0025146075 -0.01565335 -0.0016536649 0.004385095
-0.022169437 0.015408735 0.000691603 -0.011491523 -0.028110728 -0.0073729414 0.00384327 -0.005938309
0.0056984965 -0.02241422 -0.0032215815 -0.015004982 0.0014899033 -0.0028464047 -0.015030436 -0.0196529
0.001813219 -0.0031060555 0.022748275 0.0020409578 0.04322652 0.0040550986 -0.0024450202 0.057097163
0.009181229 -0.0039710435 -0.00026592697 0.008633739 0.012894324 -0.0076223393 -0.002571848 0.06962072
