webnn/model-tests/resources/test-data/models/mobilenetv2_nhwc/weights/Const_142.npy (npy, 13904 bytes, 1 tensors)

array f4 [1, 3, 3, 384]
-0.24394284 -0.426166 0.050962247 -0.49636096 0.20353168 0.21614656 -0.0800815 0.07141535
0.25580922 0.10777487 -0.59013486 0.09424692 -0.09551704 -0.45648542 0.29634774 0.14882445
-0.6330266 0.22856806 -0.50995576 0.099687986 -0.09637634 0.49974203 0.3115751 0.4537776
0.1487875 0.14719039 0.2912736 -0.56808645 0.5861418 -0.10040942 -0.438948 0.21872976
0.29460073 -0.024118 -0.65665954 0.31871444 0.9030295 -0.39679584 -0.24673633 0.48700246
0.041216984 0.2755999 -0.19790259 0.022713685 -0.090700075 -0.62043047 -0.4221197 0.08369067
0.14573976 -0.24905907 0.1640464 0.1845898 -0.13772197 0.16066983 0.31923962 0.12020991
0.14355534 0.62289363 -0.53916174 0.14264075 -0.58466536 -0.12773572 0.53413224 0.14286508
-0.10415038 -0.10582516 -0.20583935 -0.35160333 0.13284071 -2.1140683 1.3834583 0.0045105023
0.27402437 0.107028045 -0.041491643 -0.01769543 -0.8382363 0.1019519 -0.7755639 0.61538345
0.6239469 -0.016748797 0.18169047 0.23827316 0.2040451 -0.29334193 0.38356957 0.26441103
0.38837403 0.4631425 0.15796809 -0.45223707 0.86021936 1.0032064 0.28759456 -0.253212
0.6052233 0.26891562 0.3520082 0.098005235 0.09767152 0.13263339 -0.3400768 -0.26120555
0.48837718 -0.077584 1.6947403 -0.052524894 -0.20998053 -0.15690805 0.0942908 -0.077134475
-0.20119037 0.17854074 -0.21320435 4.3579993 0.62896997 -0.6097703 -0.20134152 -0.0137389125
0.39417404 1.2608268 0.13590045 0.7595835 0.036360957 -0.5360392 0.002343698 0.11187559
0.6830068 -0.2848904 -0.33215392 -0.54319364 0.1522747 -0.40168196 0.40339077 -0.012121716
-1.1178821 0.0826068 -0.23235178 0.26598108 -0.1926684 -0.331582 -0.4617603 -0.0068529276
0.5128482 0.1659017 0.17110516 0.40228546 -0.2062955 0.65728676 0.33124083 -0.03721169
-0.5915987 0.3244631 -0.051165827 0.06828927 0.28205708 -0.42319018 -0.1293103 -0.45395437
0.10383568 0.6920023 0.09340821 0.024678314 0.12437987 0.013573879 -0.35427558 0.106164746
0.6085162 0.08826644 0.4790141 -0.19136302 0.56952417 0.2856783 -0.49422368 0.033874396
0.63907737 0.7104253 0.56233 -0.60776925 0.03811573 -0.049317364 -0.25754145 -0.20987506
0.16398652 0.5653926 0.33838734 0.57683164 -0.0032795363 0.24934255 -0.11649672 -0.38238263
0.74774176 0.072524965 -0.032638554 -0.57134056 0.8516213 0.33118552 -0.26835346 0.25073987
0.26999572 0.32068512 -0.43353382 0.2238268 0.87352824 0.09601316 -0.09757336 1.7118156
0.2602075 -0.6919696 0.28210258 0.08071003 -0.0278663 0.28916937 0.61891466 0.24262376
0.67600465 0.69424963 -0.37680346 0.05641919 -0.68712825 -0.8844434 -0.16712281 0.12809242
-0.39210588 0.58494526 0.90293115 0.76759493 -0.33933604 0.17654777 -0.44681248 -0.5478537
-0.03391591 -0.5072407 -0.29578677 0.8944969 0.101607926 0.10166287 -0.18333815 0.70245546
-0.033534218 -0.119284526 0.027446104 0.66157377 0.14929084 0.047169283 0.23549142 0.055948056
-0.4013274 -0.3918384 -0.334688 0.07787592 0.5789552 -0.25475058 0.11908773 0.095887534
00000000: 27cc 79be 6e32 dabe cabd 503d 0623 febe
00000010: 9c6a 503e 8655 5d3e c501 a4bd 3642 923d
00000020: 6df9 823e 12b9 dc3d 1413 17bf 8704 c13d
00000030: 709e c3bd 75b8 e9be e4ba 973e 7065 183e
00000040: 080e 22bf bf0d 6a3e 768c 02bf 3729 cc3d
00000050: f560 c5bd 30de ff3e c686 9f3e 8a55 e83e
00000060: c05b 183e 14b9 163e d021 953e 1d6e 11bf
00000070: 640d 163f 74a3 cdbd cbbd e0be b2fa 5f3e
00000080: e8d5 963e 1d93 c5bc d71a 28bf 8a2e a33e
00000090: f12c 673f d328 cbbe 73a8 7cbe 6358 f93e
000000a0: 24d3 283d 6e1b 8d3e faa6 4abe 0d12 ba3c
000000b0: f6c0 b9bd 88d4 1ebf 1320 d8be 0466 ab3d
000000c0: ce3c 153e 5709 7fbe c8fb 273e 1c05 3d3e
000000d0: fd06 0dbe a286 243e 6073 a33e 9d30 f63d
000000e0: 2c00 133e f575 1f3f 8106 0abf 6b10 123e
000000f0: a1ac 15bf 27cd 02be e4bc 083f 394b 123e
00000100: cb4c d5bd ddba d8bd 8dc7 52be 5a05 b4be
00000110: 6507 083e e54c 07c0 2915 b13f d6cc 933b
00000120: ec4c 8c3e 8531 db3d 24f3 29bd 02f6 90bc
00000130: a796 56bf 28cc d03d 5b8b 46bf c589 1d3f
00000140: fcba 1f3f c634 89bc 110d 3a3e e1fd 733e
00000150: 33f1 503e ea30 96be 3b63 c43e e260 873e
00000160: f6d8 c63e 0421 ed3e 63c2 213e 9e8b e7be
00000170: 5637 5c3f 1169 803f 983f 933e 01a5 81be
00000180: eaef 1a3f 4faf 893e 6b3a b43e f8b6 c83d
00000190: 0208 c83d 0cd1 073e 8c1e aebe bcbc 85be
000001a0: 930c fa3e 5ce4 9ebd 40ed d83f 5824 57bd
000001b0: 2305 57be 81ac 20be 891b c13d aef8 9dbd
000001c0: d904 4ebe 62d3 363e 3e52 5abe bb74 8b40
000001d0: 2d04 213f e819 1cbf 792c 4ebe 2d19 61bc
000001e0: 2ed1 c93e c662 a13f 7d29 0b3e 1074 423f
000001f0: 3aef 143d dd39 09bf ba98 193b 081f e53d
00000200: 89d9 2e3f 28dd 91be 1410 aabe bd0e 0bbf
00000210: e6ed 1b3e 42a9 cdbe 3c89 ce3e 299a 46bc
00000220: c316 8fbf c12d a93d a0ed 6dbe ac2e 883e
00000230: dd4a 45be 1ec5 a9be d96b ecbe 868e e0bb
00000240: 054a 033f 23e2 293e 3136 2f3e 5cf8 cd3e
00000250: 213f 53be f243 283f 6698 a93e 496b 18bd
00000260: 0373 17bf 0720 a63e 4293 51bd 3fdb 8b3d
00000270: c969 903e 62ac d8be eb69 04be b56c e8be
00000280: cda7 d43d 1027 313f ce4c bf3d 2d2a ca3c
00000290: e0ba fe3d fa64 5e3c 9c63 b5be e76c d93d
000002a0: b8c7 1b3f 09c5 b43d 5641 f53e abf4 43be
000002b0: 56cc 113f 6d44 923e e30a fdbe e1bf 0a3d
000002c0: 939a 233f 6fde 353f dcf4 0f3f c496 1bbf
000002d0: 3d1f 1c3d 0101 4abd 79dc 83be 7de9 56be
000002e0: 15ec 273e 92bd 103f 1b41 ad3e 3dab 133f
000002f0: 7ded 56bb a753 7f3e d595 eebd a8c7 c3be
00000300: 016c 3f3f f887 943d 01b0 05bd 6043 12bf
00000310: db03 5a3f 2691 a93e a065 89be fa60 803e
00000320: e13c 8a3e d730 a43e 25f8 ddbe da32 653e
00000330: 8c9f 5f3f 8ca2 c43d 8bd4 c7bd c61c db3f
00000340: eb39 853e eb24 31bf c06f 903e 4d4b a53d
00000350: de47 e4bc 020e 943e 3171 1e3f 5d72 783e
00000360: a40e 2d3f 58ba 313f 62ec c0be cf17 673d
00000370: a3e7 2fbf e26a 62bf 3e22 2bbe a92a 033e
00000380: 1ac2 c8be f9be 153f 7f26 673f 1a81 443f
00000390: 74bd adbe f0c8 343e 9bc4 e4be 2440 0cbf
000003a0: 69eb 0abd 87da 01bf 5d71 97be c0fd 643f
000003b0: d117 d03d 9f34 d03d ffbc 3bbe 1fd4 333f
000003c0: 2d5b 09bd 724b f4bd a7d6 e03c e65c 293f
000003d0: b3df 183e 9434 413d aa24 713e ca29 653d
000003e0: c97a cdbe 0b9f c8be 3a5c abbe 697d 9f3d
000003f0: 6836 143f ab6e 82be 45e4 f33d af60 c43d
