webnn/model-tests/resources/test-data/models/mobilenetv2_nhwc/weights/Const_52.npy (npy, 221264 bytes, 1 tensors)

array f4 [576, 1, 1, 96]
00000000: a3c1 e5bb b1e6 2f3d 3f97 c43c b9b2 47bc
00000010: 3fb0 b73c e9d6 ff3b 840b 293c 1296 d9bc
00000020: ada7 d23b 1030 713c 18b4 113d ed9e 88bc
00000030: 4edc 0cbd 9b4f 8a3a 2880 b93a a79e 93bc
00000040: d37c 233c 4539 db3b d651 18bd 1d9e 89bb
00000050: 9c45 12bd 3cf5 413c 7aa4 403c 0896 833c
00000060: 604a 9f3c f9e3 eebb 5a01 653b db34 dc3c
00000070: 5379 c5ba 40e4 78bc 1bc2 f3bc 2655 ca3b
00000080: 2f2e 18bd 5623 a33c 561b 233c 748a 1ebd
00000090: 18fe c1bb f16f 143d 2d4e f2bc 4bef c5bc
000000a0: c903 95bc eb26 acbc d7f4 1ebc eb8b 8bbb
000000b0: 2c50 793c 7eb0 ea3c 8905 e13c 6ffb e4bc
000000c0: 27d2 a0bc 9d6e e23b d259 473b bedb d1bc
000000d0: dfeb 2c3c f521 8cbb 20c4 233c 2fff c43c
000000e0: 8914 a2bc d644 c53b 240b cf38 0d60 38bc
000000f0: 3ada 22bc c721 373c 7731 e33b 6e9f 91bc
00000100: b797 d53c f65d ca3c 3525 a1bc 3017 f23c
00000110: aa11 b63c 6eab d53c b47b 02bc 4cbd b3bc
00000120: 7c69 00bd 2a21 853c a5de da3b 26c3 243b
00000130: bb0d 94bc a0c9 2b3d 5058 03bd da62 84bc
00000140: d01f cb3b 93f3 46bc acc8 40bc 5970 6cbc
00000150: 5fc2 fa3c b5bc e63c 4397 24bd 32c8 87ba
00000160: 80c5 c93c 2d8e 4c3c ba8b 72bc a5d8 c2bc
00000170: 58dd e9b9 cac0 d93c 536d d3bc a83d eeba
00000180: b75b c83b 74ee 943c 435d 0bbb f74b db3c
00000190: 1d32 11bc ae89 493d bf05 da3c 46d2 45bc
000001a0: ed8c 2d3c d0d4 3fbc cb5e c7bc 329f 90bc
000001b0: ef99 633b a3c4 473c 1333 f53c 9969 893d
000001c0: 378e 90bc a997 7abc cfaf e43b 803f f3bc
000001d0: 30f3 db3c b9b1 343d e169 863c 122f e13c
000001e0: 07f2 44bd fbc7 8fbd 6057 eeba 9ad6 923b
000001f0: 8b0f e9bb ed9f d2bc cf7c 913c d5a8 e6bb
00000200: ff24 3c3d 9dde 363b a85d d5bb 79e7 0cbc
00000210: 5d4b fabc 7474 973c 0e98 de3b e2de 3b3c
00000220: abb4 183d 5615 1b3d a0b7 cebb 4f69 0d3c
00000230: bce5 843d e6bb c9bc 9889 973a 3149 b73c
00000240: a3d9 ebbb e7dd d3bc da0f 2c3c 8aec 42bd
00000250: 0d57 1cbd e6c8 e7bc b16a ef3c f679 fe3b
00000260: f8bb 633d 0b4c cebb 4d82 04bd 735c dd3b
00000270: 894c 8bbc 5a89 a93c 3611 0e3d 1466 31bb
00000280: 3430 473c efad 913c 87fd 13bd 2338 6a3b
00000290: 7ee1 96bc 1144 37bd 7c59 36bc 9bf4 e8bc
000002a0: b935 c0bc 72eb 4a3d ea43 123c e2db 083d
000002b0: 36fe 6dbb c4d4 643d 8d79 a23b 315f 473d
000002c0: 81d4 11bd 5037 3bbb 1ab8 2c3d 7ff7 42bc
000002d0: a6b9 153c d4e3 843c 383b c3bc 7bca f6bb
000002e0: fd3f 3d3c 3d9d 15bc fec1 893c d666 47bd
000002f0: 575d a5bc a0bd a4bc 2a06 ddbc f732 483d
00000300: 8197 123d 702b 2ebd b5e3 92bc 1caa ad3c
00000310: f890 60bd c651 bd3c b67b 0a3c d186 e4ba
00000320: ffd6 0d3d a30c 9dbb 2b80 9e3c f899 cbbb
00000330: 319a 1ebd d32f 96ba 1bac 853c 2c4d aa3c
00000340: 4abd 8c3d ccbf 99bd cf9a 68bd 3705 933c
00000350: 6513 133c f6bd 40bc df5b 82bb 2924 673d
00000360: 7ae4 dd3b d212 473a d0fa 093d d620 00bd
00000370: 698e 85bc a332 74bc d123 9e3b 5b32 773d
00000380: 339c 013d d616 08bc 9264 21bc a6b0 573d
00000390: 470f b93b 2f7e 77bd fc69 693c fcc9 dc3c
000003a0: 75c3 a93c ddfb 41bb f574 4f3c 3450 333d
000003b0: 5ef0 d5bc 9e86 eabc 4c32 08bd e845 f63b
000003c0: 44dd 1c3c 41b1 0cbc 5276 e6bc 7154 f73c
000003d0: d9ce 6fbd fc06 f43c 2797 c1bd 1a51 cdbb
000003e0: 4f92 073c 8244 383d 6a3e a7bc 5657 9ebc
000003f0: 7b75 8fbc 1de0 16bd 6519 233d cf51 b7bc
-0.0070116087 0.042944614 0.023997901 -0.012188607 0.022422908 0.0078076017 0.010317687 -0.026560817
0.00642868 0.014720932 0.03557214 -0.016677344 -0.034389786 0.0010552289 0.0014152573 -0.018019987
0.009978491 0.0066901767 -0.03718742 -0.004199757 -0.035710916 0.011838254 0.011757964 0.016062751
0.019444644 -0.00729036 0.0034943433 0.026880672 -0.0015066065 -0.015191138 -0.029755643 0.0061747013
-0.03715342 0.01991431 0.009955248 -0.038706258 -0.005920183 0.03623957 -0.029578293 -0.024161955
-0.018190281 -0.021014651 -0.009701929 -0.004258623 0.015216868 0.028648611 0.02746846 -0.027951924
-0.019631458 0.006910159 0.0030418527 -0.025617477 0.010554283 -0.004276509 0.00999549 0.024047462
-0.019785183 0.006020169 9.872604e-05 -0.011253369 -0.009939725 0.011177487 0.006933387 -0.017776217
0.02607332 0.024703007 -0.019671062 0.029552072 0.02222522 0.02608272 -0.007964063 -0.02194085
-0.031350598 0.016251165 0.0066793733 0.0025140732 -0.018072953 0.04194033 -0.032066643 -0.016160417
0.0061988607 -0.012143034 -0.011766594 -0.014431083 0.030610261 0.028166154 -0.040183317 -0.0010359345
0.024630308 0.012485069 -0.014803821 -0.023784945 -0.00044606137 0.026581187 -0.025808966 -0.0018176334
0.006114449 0.01818011 -0.0021265305 0.026769621 -0.008862046 0.049203567 0.026614068 -0.012074059
0.010592681 -0.011708453 -0.024337193 -0.017654035 0.0034729203 0.012192878 0.02993158 0.06709594
-0.017645938 -0.015294948 0.006978966 -0.029693365 0.02684936 0.044114802 0.016407909 0.027488265
-0.048082378 -0.07020565 -0.0018183999 0.004481149 -0.0071124486 -0.025711024 0.017759709 -0.0070391693
0.04593372 0.0027903684 -0.006511409 -0.008600109 -0.030553514 0.018488146 0.0067930287 0.011466714
0.037281673 0.037862144 -0.006308511 0.008631065 0.06489131 -0.02462573 0.0011561392 0.022373768
-0.007197575 -0.025862647 0.010501826 -0.047588862 -0.038168956 -0.028294038 0.02922568 0.0077660037
0.055599183 -0.006295686 -0.032350827 0.0067554056 -0.017004268 0.020695377 0.034684382 -0.00270689
0.012157489 0.017783133 -0.036130454 0.0035739026 -0.01841807 -0.044742648 -0.011129733 -0.02843695
-0.023463117 0.049540944 0.008927325 0.03341282 -0.0036314852 0.05586697 0.0049583376 0.048674766
-0.03560305 -0.0028566904 0.04216776 -0.011899828 0.0091385 0.016221918 -0.023831949 -0.007531462
0.0115509005 -0.009131727 0.016816135 -0.048682056 -0.02018611 -0.020109951 -0.026980478 0.04887673
0.035789017 -0.042521894 -0.017930845 0.021199279 -0.054825753 0.023110282 0.008452347 -0.0017435198
0.034628864 -0.004792766 0.019348225 -0.006213423 -0.038721267 -0.0011458345 0.016317418 0.020788752
0.068720415 -0.075072855 -0.056788262 0.017946823 0.008976792 -0.01176404 -0.003978237 0.05643097
0.0067716213 0.0007594052 0.03368646 -0.031281315 -0.016303258 -0.014904651 0.004826047 0.060350757
0.031643104 -0.008306226 -0.009850638 0.0526587 0.005647573 -0.060423072 0.01424646 0.026951782
0.020723084 -0.0029599585 0.012662162 0.04377766 -0.026115593 -0.028628644 -0.03325109 0.0075156577
0.009574238 -0.0085871825 -0.028132591 0.030191632 -0.058546875 0.029788487 -0.09452658 -0.0062657716
0.008274629 0.04498721 -0.020415504 -0.019328754 -0.017512074 -0.036834825 0.03981914 -0.022377877
