webnn/model-tests/resources/test-data/models/mobilenetv2_nhwc/weights/Const_169.npy (npy, 98384 bytes, 1 tensors)

array f4 [384, 1, 1, 64]
00000000: 8b8d caba 2642 16bb e67c 9ebc 1f74 b23b
00000010: c7ac 143c 0810 0ebc 4cb1 80bc 31ca 30bb
00000020: c79b 293c 2048 a2bb 2a85 ac3b 0f5a 54bc
00000030: 6674 7b3c ee7f 43bb 0b01 d43c c0dc 5d3c
00000040: 043b ad3c 96a9 f7bb 1d44 843c e08f 3cbc
00000050: 5ac8 5a3a 10ec b43b 98f2 133c ea6a 49bc
00000060: 3500 22bc 7660 44bc a569 4abb 3bc3 0ebb
00000070: a268 0cbd 1f02 3e3c c5a0 3ebe cb19 033d
00000080: b205 61bc fb3a 12bc c02c 923c f7c9 47bc
00000090: dbe0 0abc 16f2 00bb 77d3 cd3b adb8 3cbc
000000a0: 3244 70bc 2e63 1d3e 4894 6a3b beae 983a
000000b0: 4e45 5ebc fabb 723b 48d1 0fbc 5e67 4bbc
000000c0: 1c31 20bb 231c fc3c d7fa 88bc 245f a1bb
000000d0: a1fb 803b 5091 5cbb 3113 c43c 5475 25bc
000000e0: 895b 0ebc d361 4d3c 6ace a63c c5c2 203d
000000f0: 3219 f93b fe87 b9bb a714 873c f7cc 9fbc
00000100: adfd 56bc 5a52 1ebc dba3 7e3a f41a b4bc
00000110: 5947 183d b112 fe3b 4851 22bb 3e7e af3c
00000120: a1fb b23b cd21 7b3a d8e7 233c 82de 8c3c
00000130: bed1 eaba ea7f 543d 581c 2e3c 8e7c a93b
00000140: a441 113d 6ef2 05bd 778c c3ba 5e0a 5b3c
00000150: 9798 c43c f4e8 013d 53dd 7f3b 3b60 5cbd
00000160: 1a1e cdbb 4e3f cdbb 6b9b 5c3b 1314 77bc
00000170: a660 52bc d2aa 27bc 6640 153c 1736 ef3b
00000180: 6f7c 19bc 57ef b33b 92e6 573b c5d1 03bc
00000190: 58d7 bfba da54 cfbb 001a 90bc 5a22 25bc
000001a0: 98a1 afbb defe 1b3b cf3e 8ebd 7952 be3c
000001b0: 4780 cfbc 9f87 e9bb 6004 103c 4367 3f3d
000001c0: 99a0 86bc e4d2 0d3c 8837 d23c 47aa b13c
000001d0: 2d36 c33c 6673 41bc 2491 c43a 21a3 e9bc
000001e0: 086f 15bc a93c 173d 5c5d cc3c 70d8 1bbc
000001f0: 5cf3 f63c 04d3 32bc e530 523b 7826 58bc
00000200: 09e8 6f3c 59c7 313d 8b02 043c 2c2a 263c
00000210: a5b1 7d39 a242 b1bc 3947 90bb 7420 c0ba
00000220: 4a70 a5bc fce6 57bb 1824 863d c5e3 5abc
00000230: b404 89bb 7372 d6bc 570c fdbc 608d 893b
00000240: 886c b8bc 27b4 f23c a97b 013e cfa5 f43b
00000250: aaa2 023d b81c 27bc 4a15 2d3d d934 8ab9
00000260: f29b 86bb f5cd c8bb 87fe 363d 5a04 99bc
00000270: a681 05bc e4ee 093d d044 3eba f06c e93c
00000280: d537 c4bb 1da8 49bb 8ffb 8bbd 9126 e13c
00000290: 3169 14bb fd6b cf3c e844 b3bc 1af7 5b3d
000002a0: 0c80 303c 7b07 3a3c 99e5 cfbc e9ce 3dbb
000002b0: 35bb b83c 6cff 39bc 7fcf 003c 1a4e 3fbc
000002c0: 689d 913c 5ae1 6ebb f2a7 0ebd 43b3 123c
000002d0: cd59 03bc a208 a13c ebd7 e739 5c22 7fbc
000002e0: 1789 01be 6669 c13c bac6 b73c c5c6 29bc
000002f0: b632 cd3c 931a 06bd 6a3b 0cbb 26a1 9b3a
00000300: 64fc 093c b8b8 b6bb 2cec 433b 0022 a33c
00000310: 66da 22bc ba14 18bc c3ca f2ba 4bc3 19bc
00000320: f21b 3bbb 1c06 4d3c b681 11bb b38d 483b
00000330: 5624 b33b 5116 483c ccfb 293c 2509 ba3b
00000340: c5fd 793b 2256 b5bb b252 02bb a5ea e0bb
00000350: 499a b7bc 2576 87bb 7197 eb3c af58 7f3c
00000360: f33f be3b 2775 863a a905 9e3b 7fc3 dbbb
00000370: 95a4 bbbb 6a6a 4bbc 8e59 fdbb 2880 68ba
00000380: 9211 0ebb 178f db3b 97ca 353b f435 d739
00000390: 6422 71bc 09d5 6f3c 3ed8 113c 90fe e03a
000003a0: 179d 093c 6e78 2dbc 19b5 d23c 3cc1 53bc
000003b0: 247a ee3b 1e3b abbb 99c8 d5bb 0480 c7bb
000003c0: cb0c 22bb c2e8 3db8 89d6 f53b f5a3 2eba
000003d0: 13a9 3d3c 86aa 07bc 1e2c d4ba 939b 8bbc
000003e0: b378 c7ba a444 153d 0c68 8f3c 05a9 6e3c
000003f0: 2c30 bebc 1a60 b33b 9b29 e33c 7841 94bb
-0.001545356 -0.002292761 -0.019346666 0.0054459716 0.009074396 -0.008670814 -0.015709542 -0.0026975984
0.010352082 -0.0049524456 0.005264898 -0.012960925 0.015347576 -0.002983089 0.025879404 0.0135414
0.021146305 -0.007558058 0.01614576 -0.011508912 0.0008345895 0.005521305 0.009030007 -0.012293557
-0.009887745 -0.011985889 -0.0030885723 -0.0021783847 -0.034279473 0.011597185 -0.18616016 0.03200702
-0.013734268 -0.008925195 0.017843604 -0.012194148 -0.008476461 -0.0019675544 0.006281312 -0.0115186395
-0.0146646965 0.15369865 0.003579395 0.0011648757 -0.013566328 0.0037038312 -0.008777924 -0.012414781
-0.0024443334 0.030775135 -0.016721172 -0.0049246717 0.0039362465 -0.003365595 0.023934932 -0.010098774
-0.008688816 0.01253553 0.020362098 0.039248247 0.0076018805 -0.0056619635 0.01648934 -0.019506915
-0.013122004 -0.009663189 0.00097137474 -0.021985509 0.037177417 0.007753693 -0.0024767686 0.021422502
0.0054621254 0.0009579927 0.010004006 0.017195944 -0.0017915291 0.0518798 0.010626875 0.005172319
0.03546299 -0.032701902 -0.0014919181 0.013369171 0.023998542 0.031716302 0.0039041832 -0.05380271
-0.006259692 -0.00626365 0.0033661972 -0.01508047 -0.012840426 -0.010233598 0.009109592 0.007300149
-0.009368046 0.005491178 0.0032943827 -0.008045618 -0.0014636321 -0.0063272538 -0.017590523 -0.010078991
-0.0053598396 0.0023803036 -0.069455735 0.023232685 -0.025329722 -0.007126763 0.008790106 0.046729337
-0.016434 0.008656237 0.025661245 0.02168764 0.023829544 -0.011807298 0.0014996869 -0.028520169
-0.00912071 0.036923084 0.024946861 -0.009512052 0.03014534 -0.010914568 0.00320726 -0.013192765
0.014642724 0.043403003 0.008057247 0.0101418905 0.00024194138 -0.021638218 -0.0044030217 -0.0014658109
-0.020195145 -0.0032944074 0.06549853 -0.013359969 -0.004181469 -0.02617762 -0.030889673 0.0041977614
-0.02251269 0.029626919 0.12644829 0.007466055 0.03189341 -0.010199718 0.04225663 -0.00026360786
-0.0041079456 -0.0061280676 0.04467633 -0.018678833 -0.008148586 0.03367509 -0.00072581787 0.028494328
-0.005988101 -0.003077037 -0.0683509 0.02748421 -0.0022645707 0.025320048 -0.021883443 0.05370245
0.010772716 0.011354323 -0.025378035 -0.002896244 0.022550205 -0.011352401 0.007861971 -0.011676336
0.017775252 -0.0036450238 -0.034828134 0.008953872 -0.008017016 0.019657437 0.00044220625 -0.015572157
-0.12649952 0.023609828 0.022433627 -0.010362332 0.025048595 -0.032740187 -0.0021397718 0.0011873588
0.008421991 -0.0055762194 0.0029895408 0.019913673 -0.009939766 -0.009282285 -0.0018523562 -0.00938494
-0.0028550592 0.012513664 -0.0022202558 0.0030602037 0.005466978 0.012212352 0.010374974 0.0056773596
0.0038145643 -0.0055339495 -0.0019885716 -0.0068639093 -0.022412436 -0.004133957 0.028758736 0.015585109
0.005805963 0.0010258303 0.004822452 -0.0067066546 -0.005726407 -0.012415508 -0.007731623 -0.00088691944
-0.0021677953 0.0067004072 0.002773916 0.00041048194 -0.014717672 0.014638194 0.008901654 0.0017165709
0.00839927 -0.010587795 0.02572112 -0.012924489 0.007277744 -0.005225553 -0.0065241572 -0.0060882587
-0.0024726863 -4.5277884e-05 0.007502381 -0.0006662005 0.011575955 -0.008280402 -0.0016187464 -0.017041957
-0.0015218466 0.036442414 0.017505668 0.014566665 -0.02321633 0.0054741027 0.0277298 -0.004524406
