webnn/model-tests/resources/test-data/models/mobilenetv2_nhwc/weights/Const_225.npy (npy, 98384 bytes, 1 tensors)

array f4 [384, 1, 1, 64]
00000000: 78d2 9bbc 77ed 24bc e1ca 823b f2b9 2b3c
00000010: 8746 32bc a712 bc3c c0a6 e13a b344 89bc
00000020: 9ebe 23ba 84db bfba a502 cab9 d9fa a43b
00000030: 9a54 5c3c 288c 043c 2252 0a3d 0253 a53c
00000040: 00d5 c4bc 74c4 8fbb 6b29 3fbc b2bb 1dbc
00000050: 3e40 e43c 346f c83b ba79 003c 7039 c93b
00000060: 3238 cbbb 819b 363c fb4f 373c 7b8f eebb
00000070: a3aa c73b af7a 56bc b631 e83c f4b8 abbc
00000080: c7d6 6abb bc56 3d3c 3338 a6bb 85df b53b
00000090: 1573 763b 664c d4ba 1415 fc3b 5964 f63b
000000a0: 8eb0 6bbc 41ec e23c 86a0 92bc ce4f 81b9
000000b0: c82f 7dbb 6bd0 03bb 72d4 3bbb 4425 8dbc
000000c0: 505c 4bbb 584c 1dbc 2955 e5ba 1eea 303b
000000d0: afb0 44bc 1cf4 e8bc ba06 833d aae9 f33b
000000e0: 5540 65bc 382c 893c 8b51 383c 62df 093c
000000f0: aa3c 84b9 1fa6 6d3b fa97 b33a 7c13 c63b
00000100: 38cb 88bc 506f f43b 6000 a63b 1e44 99bc
00000110: 0763 713b bd69 82bc ed5f 8fba c8e9 99bc
00000120: 37dd eabb 2e58 1e3c 969e 7a3c 560c 90bb
00000130: 1b04 9cbc bfd2 e53c 82dd 0e3d 9884 493c
00000140: 42cc a8bb 651c 27bb 5840 f9bc 319a e23c
00000150: 2ba9 65bc 2e7b 2e3b 5421 04bc b557 35bb
00000160: e97c 383c 599e b73c 2ccf 82ba 4db3 30bb
00000170: 8526 02b9 b955 63bc ee8a 8d3d faac 043c
00000180: 1f31 1ebc c56d 23bc f5bb 24bc 6c3e 2d3e
00000190: 2123 d0ba 914d c1bb d963 663c b1a3 7d3c
000001a0: 7750 1a3b 8392 c63c 2369 2abc 988a 51bb
000001b0: 441e 313c 31e8 a63c ec18 fbbb 1529 a9ba
000001c0: 37ff b83c dcf9 f2bb 78a2 7a3c 8c08 673c
000001d0: 05b1 4abc 1e86 353d 2ee0 fd3b 6c54 55bc
000001e0: 1ad0 003d 0d21 473b e74d 253c d7d6 b1bc
000001f0: 65ca 213c 2b38 64bd 2e89 ab39 ed35 693c
00000200: 6562 0ebd 7717 873d 379c 3bbc 600e 14bd
00000210: 1722 2fbd e6aa 04bd 6380 363d 7cec 27bc
00000220: 5f35 8abc c08e 2ebd c76a d53b a349 3f3c
00000230: aadb 9fbc df75 53bb 00b6 c6bc 759d afbc
00000240: 9e0d 833d e315 123d f560 4cbc 17de b93c
00000250: 5576 5abc 5af2 4c3c 816a f2ba 28d0 9cbb
00000260: a5e3 c43a 9fb9 28bd dcd3 3bbc a738 a43c
00000270: 3364 593c 81c8 80bb 2a35 a8bb 608f 0cbd
00000280: b52f 54bc 3aa8 15bc 22f1 dcbb c196 80bd
00000290: 45c4 9b3b 87a4 20bd 2d6e 143c 3bc0 8f3c
000002a0: 74b1 723d f30e bdbc 37ef 40bc 2a8b 1cbd
000002b0: 9091 06bc 666e dfbc ec2a fab9 5332 4cbc
000002c0: 4dd9 0f3d ddcc 93bc 2d39 b1bc 53ed ebbc
000002d0: 0dd4 2bbd b156 b73b 917a 1b3d 1aca 853c
000002e0: 13da 33bd aa16 19bd d3cc 323d 04f4 1cbd
000002f0: 91e4 bd3b 375a 94bc ae8f 83bc e34f 54bd
00000300: 1aaf 11bc 47a5 b53c 8987 54bc 9b13 8fbc
00000310: 7af4 873a 025e 96bc 3493 6d3c 357e 7cbc
00000320: c8ac 4ebc dfcf ad3b 3dcb bcbb 2a2e afbc
00000330: bd54 043c 6c09 5fbc 57b7 743b 15bd 09bc
00000340: a5b2 3f3d a093 9f3b 4c47 8dbb 8c0f 5a3b
00000350: 8ca9 34bb 056f afbb f744 af3b ac62 eabc
00000360: 5c5f ee3a d42a 96bc f4bf 6d3b 84e9 1e3c
00000370: 8d42 ac3c 5401 233c d928 12bb 2b19 36bc
00000380: 6b6d 8abc 1d90 74bb 17ad a9bc f2cc a736
00000390: c8b6 873b 6ec8 393c 0578 2c3c 8a2c b1b9
000003a0: 88a4 af3c 5da7 03bc 4d1c 133c 37b2 06bd
000003b0: 3061 703c 01d0 22bc 4f51 883a 3430 803c
000003c0: 19b2 95bb 5064 84bb 9ab1 e2bb 5a42 3cbc
000003d0: a295 7abc 0ba9 ec3b eba7 343c 0e05 233c
000003e0: 34a9 b3bb c44b bdbb adce ef3c 6dd7 16bb
000003f0: c61a e8bb 313f dc3b c24c 913c 5772 b93a
-0.019021258 -0.010066382 0.00399147 0.010481345 -0.010881073 0.022958113 0.0017215833 -0.016756391
-0.0006246361 -0.0014637564 -0.00038530413 0.005034786 0.013447905 0.0080900565 0.033769734 0.020181183
-0.024027348 -0.0043874327 -0.01166759 -0.00962727 0.027862664 0.006116772 0.007841522 0.0061408803
-0.0062017674 0.011145473 0.011188502 -0.007280288 0.0060933395 -0.0130907735 0.028344017 -0.020962216
-0.0035833584 0.011556324 -0.0050726174 0.0055503272 0.0037605215 -0.0016197085 0.0076929424 0.0075192866
-0.014385356 0.027700545 -0.01789881 -0.00024664256 -0.0038633216 -0.002011324 -0.0028660563 -0.017229684
-0.0031030364 -0.009600721 -0.0017496693 0.0026995013 -0.012005015 -0.028436713 0.06397767 0.0074436264
-0.013992389 0.016744718 0.01124991 0.008415075 -0.000252222 0.0036262346 0.0013701909 0.006044803
-0.016698465 0.0074595585 0.0050659627 -0.018709239 0.0036832707 -0.01591956 -0.0010938622 -0.018788233
-0.007167484 0.009664578 0.015296599 -0.004396002 -0.019044926 0.028054593 0.034879215 0.012299679
-0.0051513026 -0.0025499102 -0.03042619 0.027661415 -0.014017384 0.0026623714 -0.008064587 -0.0027670686
0.01126025 0.022414373 -0.0009979955 -0.002696234 -0.00012412116 -0.013875418 0.06911264 0.008097881
-0.009655266 -0.009974902 -0.010054578 0.16918343 -0.001587961 -0.005899139 0.0140618915 0.015480922
0.0023546496 0.024239784 -0.010401043 -0.0031973477 0.010810439 0.02037439 -0.007662883 -0.001290592
0.022582633 -0.0074150395 0.015297525 0.014101159 -0.012371306 0.044317357 0.0077476716 -0.013020616
0.03144846 0.003038469 0.010089374 -0.021708889 0.009874915 -0.05571763 0.00032717868 0.014234048
-0.034761805 0.065962724 -0.011450819 -0.03614652 -0.04275712 -0.032389544 0.044556033 -0.010249253
-0.016871152 -0.042616606 0.006512973 0.011675271 -0.019513924 -0.0032266302 -0.024256706 -0.021437386
0.06399082 0.035665404 -0.012474288 0.022688909 -0.013333877 0.012508953 -0.0018494875 -0.0047855563
0.0015021457 -0.041192647 -0.011464085 0.020046545 0.013268518 -0.003930152 -0.005133291 -0.03431642
-0.012950827 -0.009134347 -0.0067426125 -0.06278754 0.0047536218 -0.039219406 0.009059471 0.017547717
0.059251264 -0.023078417 -0.011775783 -0.038218655 -0.008213416 -0.027274322 -0.00047715695 -0.01246317
0.035119344 -0.018042022 -0.021633709 -0.028799688 -0.041950274 0.005595051 0.037958685 0.016331721
-0.043909144 -0.03737513 0.043652367 -0.03831865 0.0057950695 -0.018109424 -0.016059723 -0.051834
-0.008891845 0.022173537 -0.012971767 -0.017465403 0.0010372542 -0.018355373 0.014500428 -0.0154109495
-0.012614436 0.005304321 -0.0057615326 -0.021384317 0.008076844 -0.013613086 0.0037340724 -0.008406897
0.046801228 0.004869893 -0.0043114778 0.0033273427 -0.0027566878 -0.0053538107 0.0053487974 -0.028611504
0.0018186378 -0.018330969 0.0036277743 0.009699229 0.021027828 0.009949047 -0.002230218 -0.011114399
-0.016897878 -0.0037317344 -0.020712418 5.0008466e-06 0.0041416623 0.01133929 0.010526662 -0.00033793255
0.02144076 -0.008035508 0.008978915 -0.032884803 0.014671609 -0.009937287 0.0010400208 0.015647985
-0.00456835 -0.0040402785 -0.0069181444 -0.011490429 -0.015294464 0.0072223 0.011026363 0.009949936
-0.005482817 -0.005776854 0.029273355 -0.0023016587 -0.00708327 0.0067214 0.017736796 0.0014148456
