webnn/model-tests/resources/test-data/models/mobilenetv2_nhwc/weights/Const_243.npy (npy, 24656 bytes, 1 tensors)

array f4 [192, 1, 1, 32]
000000 0f 9e 1b 3d 79 fd 09 bc dc 56 87 3d 08 1b da 3d
       0.037992533 -0.008422249 0.06608364 0.10649687
000010 c2 f1 cc 3c 30 75 9d bc 29 62 6c 3b 26 9e 3f 3c
       0.025017623 -0.019220918 0.003606925 0.01169542
000020 9a 95 c2 bb 0b 7d 21 3d b3 ea 9b bb 33 6c 42 3b
       -0.005938244 0.03942589 -0.004758203 0.0029666543
000030 66 73 2e 3a 8d 48 5e bc 8c b9 82 bc ce 1c fe bc
       0.0006654769 -0.013567102 -0.015957616 -0.031019595
000040 ec 9a 2c bd ae 83 0b bc 7c fd 10 bd c3 68 40 3d
       -0.042139933 -0.008515282 -0.03539799 0.04697491
000050 ac a4 19 bd 99 54 e0 bc b9 5a 5b bd f4 fa 1a 3a
       -0.03751056 -0.02738409 -0.053553317 0.0005912029
000060 c6 9e 8a bc 3d cb 9b bb da 27 91 3d b7 aa ac bc
       -0.016921412 -0.0047544525 0.07087679 -0.021077497
000070 2e 72 f6 bd ab 55 a5 bd 54 4e 1f 3c d9 89 d9 3b
       -0.12033497 -0.080729805 0.009723265 0.006638747
000080 3e 77 cc 3c 0d 73 8f 3c c0 65 72 3b 4d 3f 6f bb
       0.024959203 0.017510915 0.0036986917 -0.0036506236
000090 06 9b 47 bc 56 8b 72 3c 87 c5 1f bc 1e 0f c5 3c
       -0.012182957 0.014803728 -0.009751684 0.02405506
0000a0 e6 c1 be 3c 0d 31 89 3b 3c f8 95 3c 89 39 88 bc
       0.023285817 0.0041867555 0.018306844 -0.016628997
0000b0 51 55 18 3d ae 03 f0 3c 28 04 c1 bc 25 48 af 3b
       0.03719074 0.02929863 -0.023561552 0.0053491765
0000c0 2b 67 93 3b cd a0 54 bd 2d f0 00 3d 20 25 a0 bb
       0.0044983826 -0.051911164 0.03147905 -0.004887238
0000d0 4e d1 ac bc a7 02 21 3d 49 35 89 ba d8 3e 2e bd
       -0.021095898 0.03930917 -0.0010468151 -0.0425404
0000e0 d0 72 e7 3b 7e 26 b6 3b 56 68 90 3c 83 48 05 bc
       0.0070632473 0.005558788 0.017627876 -0.008134964
0000f0 6a 3e da 3b 53 e9 0f bc d7 89 0e bd 67 4a 8e bc
       0.0066602724 -0.008783656 -0.034799423 -0.017369462
000100 1e fc 32 3c 2b 7a 1d 3d 1c 48 d1 bc 4b 78 6b 3c
       0.010924367 0.038446587 -0.02554708 0.014371942
000110 e8 8f bd 3c 4c 80 b4 bb 31 24 f1 3c ec bc 14 3d
       0.023139909 -0.0055084582 0.029436203 0.036312982
000120 eb 23 38 ba 9c c0 35 bd e2 2f 9e 3c 3a 58 1d bd
       -0.0007024395 -0.04437314 0.019309942 -0.038414218
000130 d6 59 60 bc 1a e9 4f 3d 07 e9 8e 3d 7c a1 ac bb
       -0.013693294 0.050759412 0.0697804 -0.005268274
000140 3f 28 13 3c 54 4a 8a 3c d0 af 3a 3d 37 e9 6f 3d
       0.008981763 0.016881146 0.045577824 0.05857202
000150 63 da 01 bd f4 ae 71 bd 7a ec e0 3b 7e 6f c3 bc
       -0.03170241 -0.05900474 0.0068641277 -0.023856875
000160 12 a9 53 3b f1 6a fc bc 8a 5d d3 bb d8 00 f1 3c
       0.0032296819 -0.030812712 -0.0064503597 0.029419348
000170 72 5b d0 bc 27 87 9a 3c a5 1a 63 bd fd c2 5d 3a
       -0.02543423 0.018863274 -0.055445332 0.00084595365
000180 16 5b 27 3c 30 bf 53 3d bf 95 8d bc bb d6 1e 3d
       0.010214588 0.051696002 -0.017283319 0.038779
000190 61 3b 1a bb 8a de 07 bc 22 ae 98 bd 83 c1 ed bb
       -0.0023533928 -0.008292804 -0.07455088 -0.0072557344
0001a0 54 fd 1d 3b 6f d7 08 bd c5 03 80 3c 34 7c aa 3c
       0.0024107294 -0.03340858 0.015626797 0.020811178
0001b0 5a b6 f4 bc 0a 95 86 3b 4c 59 a7 bc 1c 6f b6 bc
       -0.029872108 0.0041071223 -0.020428322 -0.022269778
0001c0 f0 af 2d bc 26 c2 91 3a 7b 91 68 bb 79 88 d9 3b
       -0.010601029 0.0011120483 -0.0035487104 0.0066385833
0001d0 d8 fc 31 bd 87 68 8d 3b 29 9b 09 bd e6 37 64 bd
       -0.04345402 0.004315439 -0.033595238 -0.05571737
0001e0 2a 8c f0 bc 44 83 bd 3c 18 80 b9 ba 4a c1 1b bd
       -0.02936371 0.023133881 -0.0014152555 -0.03802613
0001f0 51 c0 84 3c 41 59 47 3c 29 ec 9a 3b 86 f1 c6 bc
       0.016204985 0.012167276 0.0047278595 -0.02428509
000200 3a d1 ce 3a f6 4f d0 bb 41 27 79 bc 51 2b 83 3b
       0.0015778907 -0.0063571883 -0.015207113 0.0040029665
000210 8b 9b bc 3c b2 b0 98 bc b8 86 9b 3c 86 f8 55 bc
       0.023023387 -0.018638942 0.018985137 -0.013059741
000220 7f 08 f2 3a 9c a2 0f bb 39 84 10 bb e3 a4 56 bc
       0.0018465667 -0.002191699 -0.0022051467 -0.0131008355
000230 27 86 1c 3c f3 1f bf 3a 49 ef f2 ba 44 42 51 bb
       0.009553469 0.0014581665 -0.0018534447 -0.0031930367
000240 55 08 9f 3c b2 d3 f3 bb c2 e1 b1 bc 23 87 ff bb
       0.019413153 -0.0074410075 -0.021714095 -0.007798092
000250 14 52 95 3c d9 f7 54 3c 5a ab c3 ba 26 fa 8a bc
       0.018227614 0.012998545 -0.0014928386 -0.016964983
000260 a1 50 7d bb 53 78 24 b9 b7 a5 37 bc 9b 66 86 bc
       -0.0038652795 -0.00015685083 -0.011208943 -0.016406348
000270 8a b9 b7 bb 75 e2 0b 3c 1a 76 c2 3b 73 bf 48 3c
       -0.005606835 0.008537878 0.005934489 0.012252676
000280 02 06 23 bc e0 2f be bc a5 d8 55 3c 92 84 b1 3b
       -0.009950163 -0.023216188 0.01305214 0.005417415
000290 7b 5c c8 bc 81 d4 db bc 8f 70 65 3d 0f 1c 0d bc
       -0.02445816 -0.026834728 0.056015547 -0.008612647
0002a0 a6 61 92 bc b6 0d ab bc 35 b1 c5 3b c8 78 44 bc
       -0.017868828 -0.020880561 0.0060330876 -0.011991687
0002b0 e1 52 06 3d da ef c4 3d c7 18 69 bd ce 86 05 3d
       0.032793883 0.096160606 -0.056908395 0.032599263
0002c0 43 d2 1e bd 13 f4 db 3c ee 40 11 3c de 79 e3 bc
       -0.03877474 0.026849782 0.008865578 -0.027768072
0002d0 8e 92 48 3d 11 8a ea bc dc f2 c5 bc 1f eb ea 3b
       0.04896789 -0.028630288 -0.024163656 0.007169142
0002e0 98 42 d9 3c 23 9d b5 bc f7 01 f2 bd e6 8e de 3c
       0.026521012 -0.022169655 -0.11816781 0.027167749
0002f0 66 d2 0d bd 82 bf 0a 3d 77 10 26 3d 63 82 7c 3d
       -0.03462448 0.033874042 0.040543046 0.061647784
000300 f6 d7 d2 3a d3 83 4d bb 0d aa 1e bb 40 bb ce b9
       0.001608609 -0.003135909 -0.0024210245 -0.00039430894
000310 39 30 2c 3b 92 ca eb 3b bf cb 98 bc 0a 2c 05 3b
       0.002627386 0.007195779 -0.018651841 0.0020320439
000320 f4 95 7f b9 08 2d 18 bc 30 65 1e b9 ac 7a f5 bb
       -0.00024374557 -0.00928808 -0.0001510575 -0.0074914303
000330 19 f5 fe bb 99 15 23 bc 39 29 15 3d 0a 6c a8 bb
       -0.0077806828 -0.00995388 0.036416266 -0.0051398324
000340 33 ad 26 3c ff 5a 7b 3c 69 c6 bb 3b ca 52 0b bc
       0.01017313 0.015341519 0.0057304394 -0.008503625
000350 db 76 68 ba 49 4a e1 bb 65 81 22 3c 91 11 0c 3b
       -0.00088678085 -0.0068753106 0.009918545 0.0021372775
000360 8e f8 b7 ba 17 de 17 3b da c3 64 3c f2 85 8a 3b
       -0.0014035867 0.0023173147 0.01396271 0.0042273933
000370 f7 54 f4 bb 55 45 e2 bb 19 bf 35 bb 4c cb e0 3a
       -0.0074564177 -0.0069052377 -0.0027732311 0.0017150431
000380 36 ca 1d bc f3 37 d0 bc b5 12 64 bc 39 ab 43 bc
       -0.00963073 -0.025417304 -0.013920476 -0.011942678
000390 91 08 46 bc 33 e8 fd 3c d5 73 13 3d 9c ee d3 3c
       -0.012087003 0.03099451 0.035999138 0.025870614
0003a0 c1 e7 87 3c e5 d0 85 3b a2 b0 3f bc b6 aa 9c 3c
       0.016590001 0.00408374 -0.011699827 0.01912437
0003b0 e7 64 5f 3d 82 40 3a bc 9b 22 4c 3c ce 24 d6 3c
       0.054539587 -0.011367919 0.012459422 0.026140597
0003c0 c3 63 7c 3c 44 1b e2 bb dd 97 40 3c cb fe 14 bb
       0.015404644 -0.006900223 0.011754957 -0.0022734876
0003d0 0b 00 9a 3b 0d a5 27 3d 6a 28 5b 3c 54 ce fe bb
       0.004699712 0.04092889 0.013376335 -0.007776061
0003e0 ee ce 80 3c 3d 71 bc bc c2 1a 93 3c 67 eb e0 3c
       0.015723672 -0.023003215 0.017957095 0.027455999
0003f0 4d 49 ac 3c 60 31 5f bc fa f6 d3 bc 69 5e f3 3c
       0.021031046 -0.013622612 -0.025874604 0.029708104
