webnn/model-tests/resources/test-data/models/mobilenetv2_nhwc/weights/Const_202.npy (npy, 98384 bytes, 1 tensors)

array f4 [64, 1, 1, 384]
0	0xbe362939	-0.17789163
1	0xbdd48cbd	-0.10378406
2	0xbd1d76b6	-0.03844329
3	0x3e1abc89	0.15110983
4	0x3cf9d080	0.030494928
5	0x3d918059	0.071045585
6	0xbde24f01	-0.11050225
7	0x3d623f42	0.05523611
8	0x3d8bd921	0.068285234
9	0xbc9b7a6b	-0.018979272
10	0xbe10bc52	-0.14134338
11	0xbcbcf07f	-0.023063896
12	0xbdd8cefa	-0.10586353
13	0x3e597497	0.21235882
14	0xbdc27fa4	-0.09497002
15	0xbe0dd737	-0.13851629
16	0x3db30028	0.08740264
17	0xbd3e5270	-0.046465337
18	0xbd935314	-0.0719358
19	0xbe4767c8	-0.19473183
20	0x3dad7b62	0.08470799
21	0xbdb5b91f	-0.088732
22	0xbdc5f4bf	-0.09665822
23	0x3e56a59a	0.2096161
24	0x3cc10138	0.023560151
25	0x3d192a33	0.03739376
26	0xbbc4eb83	-0.0060095205
27	0xbd8eecbe	-0.06978749
28	0x3d3d4024	0.046203747
29	0xbdcbdc3d	-0.099541165
30	0xbe200add	-0.15629144
31	0x3d0ac8ae	0.03388279
32	0xbd77083a	-0.06031058
33	0xbd85c11f	-0.065309756
34	0x3d165d58	0.036710113
35	0xbd562763	-0.052283656
36	0x3d12d5da	0.035848476
37	0xbd97edc1	-0.07418395
38	0x3b325fc8	0.0027217735
39	0xbd27cf39	-0.040969107
40	0x3dcc7876	0.099839136
41	0x3e3eaef3	0.18621425
42	0xbe2279d0	-0.1586678
43	0xbb090d77	-0.0020912567
44	0x3d4cfacd	0.05004387
45	0xbdaf2b8b	-0.08553227
46	0xbd77254a	-0.060338296
47	0xbe3f2306	-0.18665704
48	0xbdadc556	-0.084849045
49	0x3c1ab9bb	0.009443696
50	0xbdaeb639	-0.0853085
51	0x3e4dbf0e	0.20092413
52	0x3d97b292	0.074071065
53	0xbd424829	-0.0474321
54	0x3e01584e	0.12631342
55	0x3d81b612	0.06333555
56	0xbd17d27d	-0.03706597
57	0x3aaaade8	0.0013021799
58	0xbd877c87	-0.066155486
59	0x3b748837	0.0037312636
60	0x3ccec4b4	0.02524028
61	0xbd925140	-0.071444035
62	0x3d9789a2	0.07399298
63	0xbd44f3ed	-0.04808419
64	0x3dddd10d	0.10830889
65	0x3c348804	0.011018757
66	0xbd9647b7	-0.07337897
67	0x3bc946af	0.0061424593
68	0xbe54aac8	-0.20768273
69	0xbb8cec8c	-0.0043006595
70	0xbd5175b5	-0.051137645
71	0x3e6182ce	0.22022554
72	0x3db500fc	0.088380784
73	0x3dc43bb1	0.09581698
74	0xbcf59bb4	-0.029981472
75	0xbdcbc932	-0.09950484
76	0xbe0db016	-0.13836703
77	0xbd7ff7cc	-0.062492177
78	0xbd4adcc3	-0.04952694
79	0x3de22c8e	0.110436544
80	0xbc5b55fb	-0.013387199
81	0x3da9af6a	0.08285411
82	0x3d99f518	0.07517451
83	0x3d7d2ed3	0.061812233
84	0x3cf13aea	0.029447038
85	0x3c96c4e1	0.018404426
86	0x3e07cc6a	0.13261572
87	0x3d78ee5c	0.060774192
88	0xbc997dd0	-0.01873675
89	0xbd28cda2	-0.04121173
90	0xbe6278cf	-0.22116397
91	0xbd95cbb8	-0.07314247
92	0x3d90b762	0.070662275
93	0xbcd7ffa7	-0.026367022
94	0x3c72a021	0.0148086855
95	0xbdee4161	-0.11633564
96	0xbe179352	-0.14802292
97	0xbe19a4a7	-0.15004216
98	0x3d370a5a	0.044687606
99	0x3e0d1782	0.13778499
100	0x3d0a0944	0.033700243
101	0x3dc7c450	0.097542405
102	0xbd49a470	-0.049229085
103	0xbc30aa92	-0.010782855
104	0xbda30429	-0.07959778
105	0xbabc41c7	-0.0014362865
106	0x3c098bb3	0.008395123
107	0xbd1495ca	-0.036275662
108	0xbd1a380e	-0.037651114
109	0xbd6b7109	-0.057480846
110	0xbde012f7	-0.10941117
111	0x3c4b6f08	0.012416609
112	0xbd96245e	-0.07331155
113	0x3dd3adf4	0.10335913
114	0xbd6d27fa	-0.057899453
115	0x3d71383a	0.058891512
116	0x3d666b3c	0.05625461
117	0x3ac9a28a	0.0015383523
118	0x3e12b21f	0.1432576
119	0xbdfe6f63	-0.12423589
120	0xbddf2f54	-0.10897699
121	0xbe674812	-0.22586086
122	0x3ded391a	0.11583157
123	0x3db9ca72	0.090718165
124	0xbd6c2035	-0.057647903
125	0xbd0d3d84	-0.034482494
126	0x3d685642	0.056722887
127	0x3c9e5c5d	0.019331152
128	0x3dab38a1	0.083604105
129	0x3d4b8cae	0.04969471
130	0x3d4c5585	0.049886245
131	0x3d8b9791	0.068160184
132	0x3dbddcbf	0.092706196
133	0x3cd2054e	0.025637295
134	0xbdedda8b	-0.116139494
135	0x3d13942b	0.036029976
136	0x3db828c9	0.08992154
137	0x3e01aa6e	0.1266267
138	0x3c594864	0.013261888
139	0x3e47bc4e	0.19505426
140	0xbd5b6eb2	-0.053572364
141	0xbd88a435	-0.06671945
142	0xbd726861	-0.059181575
143	0xbcc2d9cd	-0.023785496
144	0xbd6f1283	-0.058367264
145	0xbe0c6ac0	-0.13712597
146	0xbbdec94c	-0.006798899
147	0xbe12e281	-0.14344217
148	0xbd822be4	-0.06356028
149	0x3d7f7257	0.062364902
150	0xbce7df72	-0.02830479
151	0x3cf1f694	0.029536523
152	0xbe23a9b9	-0.15982713
153	0x3e4a1e8a	0.19738212
154	0x3e5441c4	0.20728213
155	0xbd2c3b2a	-0.04204861
156	0x3dcdb706	0.100446746
157	0xbda591cb	-0.080844484
158	0x3ca17e4e	0.019713547
159	0xbd02d6cf	-0.03194314
160	0x3dad5644	0.084637195
161	0xbe4f1b3f	-0.20225237
162	0xbd364912	-0.04450328
163	0x3c9cf7b7	0.019161088
164	0x3dde738f	0.10861885
165	0x3c15bcf7	0.009139291
166	0xbd8a5346	-0.067541644
167	0x3e1c2cee	0.15251514
168	0xbca21011	-0.019783052
169	0x3d83de46	0.0643888
170	0xbd063753	-0.032767605
171	0xbd86ceed	-0.06582437
172	0xbdc9022a	-0.09814866
173	0xbc833fcb	-0.01602163
174	0x3e22776a	0.15865865
175	0x3df3595a	0.11882277
176	0xbdbc59b9	-0.09196801
177	0x3d86375a	0.06553526
178	0x3d06f928	0.032952458
179	0xbdd0e508	-0.10199934
180	0xbd80088b	-0.062516294
181	0xbcfadc89	-0.030622737
182	0x3d0c5c5b	0.034267765
183	0x3d8c4e80	0.0685091
184	0xbe1ce967	-0.15323411
185	0xbe153eb2	-0.14574698
186	0x3e0c98f5	0.13730223
187	0xbd929cf5	-0.071588434
188	0xbd870b84	-0.06593993
189	0xbde37a0a	-0.111072615
190	0xbce0ca7e	-0.027440306
191	0xbdb98e5e	-0.090603575
192	0xbd6b3e5b	-0.057432514
193	0xbd9d69ee	-0.0768622
194	0xba29e412	-0.00064808235
195	0xbe30c099	-0.1726097
196	0x3cbb5971	0.022869797
197	0x3dae0c89	0.08498485
198	0xbda83577	-0.082133226
199	0xbe003db8	-0.12523544
200	0x3d95b561	0.07309986
201	0xbdc6e2f1	-0.097112544
202	0x3b01a002	0.001977921
203	0xbe03bb65	-0.12864454
204	0xbd3096c1	-0.04311252
205	0x39d12a56	0.0003989513
206	0x3e0e4f14	0.13897353
207	0x3dadc063	0.084839605
208	0xbe30517b	-0.17218582
209	0xbc5039d2	-0.012709098
210	0x3de99b55	0.1140658
211	0xbdd01fd0	-0.10162318
212	0xbc8863f3	-0.016649222
213	0xbd57b511	-0.052662913
214	0x3dcfd4b1	0.101479895
215	0xbd8e4255	-0.069462456
216	0xbdfb850d	-0.12281237
217	0x3dcb8906	0.099382445
218	0x3da93747	0.082624964
219	0xbd085ccc	-0.033291623
220	0x3d22ada7	0.03971639
221	0x3dd912da	0.10599299
222	0x3c6c0c9c	0.014407303
223	0xbdee8217	-0.116459064
224	0xbe3a283e	-0.18179414
225	0x3df0243e	0.11725663
226	0x3e07da64	0.13266903
227	0xbd8a1159	-0.0674159
228	0xbe31211f	-0.17297791
229	0xbd23b617	-0.039968576
230	0xbc3ad9d5	-0.011404474
231	0x3df418b5	0.11918775
232	0xbc23f805	-0.010007863
233	0x3dac1a7f	0.08403491
234	0x3db0aa2e	0.08626209
235	0xbc9eac77	-0.019369347
236	0x3d2ddf7c	0.04244946
237	0x3d03ea31	0.032205764
238	0x3e3c21cd	0.18372269
239	0x3d8dc233	0.06921806
240	0xbe29b2a5	-0.16572054
241	0xbea2ea19	-0.31819227
242	0x3d08e03b	0.033416968
243	0xbd8f924f	-0.07010328
244	0x3c1bcaab	0.009508769
245	0xbbf35b24	-0.0074266363
246	0x3d676369	0.05649129
247	0xbde0b01b	-0.109710895
248	0x3dd95884	0.10612586
249	0x3d1ea670	0.038732946
250	0x3b67a29f	0.0035344732
251	0xbe56d4c6	-0.20979604
252	0x3e08cbea	0.13359037
253	0x3b4030bb	0.002932592
254	0xbe3a4824	-0.18191582
255	0xbdb80c5c	-0.08986732
