webnn/model-tests/resources/test-data/models/mobilenetv2_nhwc/weights/Const_193.npy (npy, 24656 bytes, 1 tensors)

array f4 [32, 1, 1, 192]
0	0x3e2ccc83	0.1687489
1	0xbea27c72	-0.3173557
2	0x3e6638b1	0.22482564
3	0xbe8a6d3f	-0.27036473
4	0x3d54cc06	0.051952384
5	0xbb63e33d	-0.0034772896
6	0xbd17a7fc	-0.037025437
7	0xbdd80783	-0.10548308
8	0x3cf93ebb	0.03042542
9	0x3dbf8cb1	0.09353007
10	0x3e2ce0dd	0.16882654
11	0x3d7168ec	0.058937952
12	0xbf697861	-0.9119931
13	0x3dc8053c	0.097666234
14	0xbcfa3960	-0.030544937
15	0x3e3f1942	0.18661979
16	0xbe5b344f	-0.21406673
17	0xbf2f4851	-0.6846972
18	0xbe37be7d	-0.1794376
19	0xbd3a8f51	-0.045546833
20	0x3fa427b7	1.282462
21	0x3eb9acc6	0.36264628
22	0xbe156f87	-0.14593326
23	0x3f3216f7	0.6956629
24	0x3e853565	0.260173
25	0xbe88ed2d	-0.2674345
26	0xbec3b61a	-0.3822487
27	0x3f35d130	0.7102232
28	0xbe854ced	-0.26035252
29	0x3ca55a27	0.02018459
30	0xbeda49e4	-0.426345
31	0x3dbf4b2d	0.093405105
32	0x3e3b8eed	0.1831624
33	0x3dabfd63	0.08397939
34	0xbe73952a	-0.2378737
35	0x3e2b7828	0.16745055
36	0x3ec122cc	0.3772186
37	0xbe5057ea	-0.20346037
38	0xbe12c05a	-0.14331189
39	0xbf0b4f97	-0.5441832
40	0x3e2d2496	0.16908488
41	0xbe25901c	-0.16168255
42	0x3e25108d	0.16119595
43	0x3ea2a784	0.3176843
44	0x3b66959a	0.0035184384
45	0xbe001874	-0.12509328
46	0xbe21673c	-0.15762037
47	0x3caa0d87	0.020758403
48	0xbe448016	-0.19189486
49	0x3eb7da65	0.3590881
50	0x3cc63561	0.024195375
51	0xbdddc0d3	-0.10827794
52	0x3f1b3c75	0.60639125
53	0xbeef4d26	-0.46738547
54	0x3c1505d5	0.009095629
55	0xbc95719f	-0.018242655
56	0x3c7b1f49	0.015327283
57	0x3e879076	0.26477402
58	0xbe8e2534	-0.2776276
59	0xbcaa628e	-0.020798948
60	0x3e6ff608	0.23433697
61	0x3e784297	0.24244152
62	0x3d92714d	0.07150517
63	0x3e5122fb	0.204235
64	0xbf1b7c1d	-0.60736257
65	0xbdaa0fc9	-0.08303792
66	0x3dab2c63	0.083580755
67	0x3d95b692	0.07310213
68	0x3ea1de29	0.31614807
69	0x3e0022e8	0.12513316
70	0xbe31b9ee	-0.17356083
71	0x3e57ab22	0.21061376
72	0x3e205bec	0.15660065
73	0xbe871046	-0.26379603
74	0x3da9989e	0.082810625
75	0x3dc960db	0.09832927
76	0x3e34e65f	0.17666005
77	0x3dfaddd8	0.122493446
78	0x3e395f0a	0.18102661
79	0x3b784e9e	0.0037888656
80	0xbd43d8ad	-0.04781406
81	0x3ecf4f14	0.4049002
82	0xbdff411c	-0.124635905
83	0xbe88ba5f	-0.2670469
84	0xbd95154c	-0.07279453
85	0xbe93d991	-0.28876927
86	0x3f4582b9	0.7715259
87	0xbe514c98	-0.20439374
88	0x3ea684c6	0.32523173
89	0x3c49e96d	0.012323719
90	0x3f1330d0	0.57496357
91	0x3dc46ce0	0.09591079
92	0x3f0d6661	0.5523434
93	0xbbc15fa1	-0.0059012924
94	0xbf096c9a	-0.5368134
95	0xbd2d4ed4	-0.042311504
96	0xbedb8250	-0.42872858
97	0xbe003b96	-0.1252273
98	0x3e64adb2	0.22331885
99	0xbe6daf35	-0.23211367
100	0xbe5cc008	-0.21557629
101	0x3e71f378	0.23628032
102	0xbe2962d8	-0.16541612
103	0xbf74216f	-0.95363516
104	0x3cc056e2	0.023478929
105	0xbeacfffd	-0.33789054
106	0xbe60c283	-0.219492
107	0x3da050b8	0.07827896
108	0xbd31e844	-0.043434396
109	0x3e242957	0.16031395
110	0xbe20d96f	-0.15707944
111	0x3e53cabf	0.2068281
112	0xbea9a213	-0.33131465
113	0xbdf8c4be	-0.121469006
114	0x3d82def2	0.0639018
115	0x3e3dc49c	0.18532032
116	0x3f06c6a9	0.5264688
117	0x3f2b3902	0.6688386
118	0x3dd6661b	0.10468694
119	0x3eb19e1e	0.34690946
120	0x3dffea3e	0.1249585
121	0x3cc71381	0.024301292
122	0xbd4ba329	-0.04971615
123	0xbd933fbc	-0.07189891
124	0xbe19649b	-0.14979784
125	0xbe1c63f0	-0.15272498
126	0xbf081d1f	-0.53169435
127	0xbe38ea26	-0.1805807
128	0x3e80f560	0.25187206
129	0xbe6b8c02	-0.23002627
130	0x3e1fd320	0.15607882
131	0xbd8bead9	-0.06831903
132	0xbdfa36b3	-0.12217464
133	0xbd19e412	-0.03757102
134	0xbeb3022e	-0.349626
135	0xbc3b56c0	-0.011434257
136	0x3e1302b3	0.14356498
137	0x3ca70227	0.020386769
138	0x3ea4ab22	0.32161814
139	0xbe76006b	-0.24023597
140	0x3e648a99	0.22318496
141	0xbd41154d	-0.047139455
142	0xbf852bff	-1.0404052
143	0xbe993fb8	-0.29931426
144	0x3f102aa5	0.5631507
145	0x3e011063	0.12603907
146	0x3e9c4dc6	0.30528086
147	0xbdc5b95b	-0.096544944
148	0x3b815115	0.0039464333
149	0xbc5c208c	-0.013435494
150	0xbe13afe4	-0.14422566
151	0xbdf058d2	-0.11735691
152	0x3ea5414b	0.32276377
153	0x3f584ad0	0.84489155
154	0xbe9983fb	-0.29983506
155	0xbd9e234b	-0.07721575
156	0xbdc887a3	-0.09791496
157	0x3ee29f1b	0.44262013
158	0xbdf98864	-0.121842176
159	0x3d6ff839	0.058586333
160	0x3e088479	0.13331784
161	0x3cb2a0cf	0.021805195
162	0xbe7f8274	-0.24952108
163	0xbe935d90	-0.2878232
164	0xbe26f530	-0.16304469
165	0x3f092cda	0.53584063
166	0xbf1fc924	-0.6241629
167	0xbd241fcc	-0.040069386
168	0xbde3d0b9	-0.11123795
169	0xbf70f680	-0.9412613
170	0xbe60d44d	-0.21955986
171	0xbda38648	-0.079845965
172	0x3e5a0b33	0.21293335
173	0xbe4a21b8	-0.19739425
174	0xbed4884a	-0.4151023
175	0xbe8dd3af	-0.27700564
176	0xbbdfd084	-0.006830277
177	0x3de3bab9	0.11119599
178	0xbe77e321	-0.24207737
179	0xbde1ba0e	-0.11021815
180	0x3beda543	0.0072523667
181	0xbf92f091	-1.1479665
182	0x3e2a658f	0.16640304
183	0xbe1ae5bd	-0.151267
184	0xbe6ff272	-0.2343233
185	0xbe48323d	-0.19550414
186	0x3e208a25	0.15677698
187	0xbf283de6	-0.6571945
188	0x3e88189d	0.26581278
189	0xbd5f94eb	-0.05458538
190	0xbc072b3b	-0.008250053
191	0xbd42cefc	-0.047560677
192	0xbc9a3816	-0.018825572
193	0xbd95da58	-0.073170364
194	0xbc82a1dc	-0.015946321
195	0x3d702782	0.058631428
196	0x3e37ab5c	0.17936462
197	0xbe5bf6b5	-0.2148083
198	0xbdbf3508	-0.09336287
199	0xbeb5450e	-0.35404247
200	0xbda422ae	-0.08014427
201	0x3da6328e	0.08115111
202	0xbe3f48de	-0.1868014
203	0x3e77ee57	0.24212013
204	0x3e983901	0.2973099
205	0xbe93f0e5	-0.28894725
206	0x3e380df0	0.17974067
207	0xbd7e3906	-0.0620661
208	0x3bcdfafe	0.006286024
209	0x3de998e2	0.11406113
210	0x3bf0b547	0.0073458287
211	0xbe00f04d	-0.12591667
212	0x3f8e49fd	1.111633
213	0xbd38577a	-0.0450053
214	0x3e4eb18f	0.2018492
215	0x3ea02ca0	0.31284046
216	0x3d7a2dbf	0.061078783
217	0xbd5f523c	-0.054521784
218	0x3cd139d0	0.025540262
219	0xbbdc8ee9	-0.0067309034
220	0x3e462f4e	0.19353983
221	0x3e0f5014	0.13995391
222	0x3da9b579	0.08286566
223	0xbd4f92e2	-0.050677188
224	0x3df349de	0.118793234
225	0xbca4d656	-0.020121735
226	0xbeb3b04b	-0.35095438
227	0xbe2b4b6d	-0.16727991
228	0x3df78a01	0.12086869
229	0x3ed0a981	0.4075432
230	0x3e121953	0.14267473
231	0x3e0c8fb3	0.13726692
232	0xbd3ffe18	-0.046873182
233	0xbed6c057	-0.4194362
234	0x3e14bece	0.14525911
235	0x3e357efa	0.17724219
236	0xbde586cd	-0.11207352
237	0xbd2b553b	-0.04182933
238	0x3e3e48ae	0.18582413
239	0xbba17056	-0.0049267216
240	0xbee59f16	-0.44847935
241	0xbe08d733	-0.13363342
242	0xbe0b66a9	-0.1361338
243	0x3eb550cb	0.35413203
244	0xbe67e76e	-0.22646877
245	0x3dbc2e27	0.0918849
246	0x3d856f10	0.06515324
247	0x3e55c1c9	0.20874704
248	0x3ce84bf1	0.028356524
249	0xbf45542e	-0.77081573
250	0x3ddefc9e	0.10888027
251	0x3c4247fd	0.011857984
252	0xbe5d04d6	-0.21583876
253	0x3e103cb0	0.1408565
254	0x3e2af3ac	0.16694516
255	0x3e66ea68	0.22550356
