webnn/model-tests/resources/test-data/models/mobilenetv2_nhwc/weights/Const_60.npy (npy, 614496 bytes, 1 tensors)

array f4 [960, 1, 1, 160]
000000 44 0d 83 bc 5a b5 18 3d ba e3 d1 bb 84 9f 09 bd
       -0.015997536 0.037282325 -0.006405321 -0.03359939
000010 42 05 a3 bc ed e8 46 bb 25 1c 13 bc 97 d9 51 3c
       -0.019899968 -0.0030351237 -0.008978878 0.012808225
000020 40 46 2a bd 78 62 92 bc 1b c0 a6 3c 93 69 a6 bb
       -0.041570902 -0.01786922 0.020355275 -0.0050785034
000030 6c 69 d4 ba 81 c8 1e bc ca 49 e1 3b f4 70 ec bc
       -0.0016205735 -0.009691359 0.0068752514 -0.028862454
000040 97 2a 94 bc 63 cf 80 bb e8 00 80 3c e9 c4 b2 b9
       -0.018086715 -0.0039309724 0.015625432 -0.00034097515
000050 65 ab c5 3a 9e 1b 5b bc 30 df 72 3b 78 ef 41 bc
       0.0015080987 -0.013373284 0.00370593 -0.011836879
000060 fe b8 95 3b 87 aa 0f bc 10 10 91 3c f4 1c 78 bd
       0.004569172 -0.008768684 0.017707855 -0.060574487
000070 05 d0 5e bc 59 11 f2 3b 0a 17 06 bd fc 59 df 3b
       -0.0135994 0.007387322 -0.032736816 0.006816147
000080 18 36 29 ba 3d fe 06 3c ea d8 2c 3c 30 dd c2 bc
       -0.0006454899 0.008239326 0.010549763 -0.023787111
000090 a1 e3 95 3c 85 d5 82 3c bd bd 86 3b 71 18 e1 bb
       0.018297018 0.015970955 0.004111974 -0.0068693687
0000a0 c5 44 d8 3c b1 49 48 3d af 58 6f 3c 0d bd 94 3b
       0.02639998 0.048898403 0.014608546 0.004539138
0000b0 ee 0c 91 3c 32 89 bb bc 52 da 5f 3c f3 7b b9 bb
       0.01770636 -0.022892568 0.013662891 -0.005660528
0000c0 7c 64 d6 3c f2 f1 2b 3d 9a e2 08 3c 1e 29 fc 3b
       0.026170962 0.041978784 0.008354807 0.0076953312
0000d0 e0 5c 75 36 02 a0 8c 3c e6 d5 53 bc b5 11 39 bc
       3.6561905e-06 0.017166141 -0.012929415 -0.011295726
0000e0 c9 86 36 bc 47 b4 c9 bc 1d 6f 91 3c 3d c8 5e 3c
       -0.011140534 -0.024622096 0.017753178 0.013597545
0000f0 d5 25 5d 3c 13 ca 18 3c 52 8c c6 3a f5 7d 91 bb
       0.013497789 0.009325522 0.001514802 -0.004440064
000100 0a 13 03 bd 6d ae d5 bb d6 66 3a 3c 05 42 1a bd
       -0.03200058 -0.0065210373 0.011377057 -0.037660617
000110 b2 3b 7d bc f6 1f 76 3d 6e ce 25 3d 8c f7 6e 3c
       -0.015456127 0.060089074 0.04048007 0.014585387
000120 2d 24 08 bc 72 cd 20 3c d3 73 94 b9 10 39 90 3c
       -0.008309406 0.009814607 -0.00028315056 0.017605335
000130 63 80 d4 3c 02 4f 2f 3b 27 22 38 bd aa dd 13 bc
       0.025940126 0.0026749973 -0.044954445 -0.009025017
000140 c4 dd 09 3d 7e 39 b0 bc 7c 2e 9e 3b 46 7b a6 ba
       0.033658758 -0.02151179 0.0048273187 -0.0012701533
000150 25 d1 c8 3c e0 bb 5c 3c 7c 44 f6 3b 30 3d 58 3c
       0.02451379 0.013472527 0.007515488 0.013198182
000160 4f d3 21 bb 49 fb de 3c 35 51 9d bc d1 7a d1 3c
       -0.00246926 0.027219431 -0.019203762 0.025571259
000170 53 7a 30 bd 0b 75 b2 bb 01 8b 1d 3c 76 4e 96 bc
       -0.043085407 -0.0054460815 0.009615661 -0.01834796
000180 3c 43 36 bc 98 12 77 ba 47 91 2c 3d 21 8e 37 3c
       -0.011124428 -0.0009425073 0.042130735 0.01120332
000190 79 61 81 bb 81 b7 97 bb 39 84 0f 3d 45 34 19 3c
       -0.003948387 -0.0046300297 0.035038207 0.009350841
0001a0 b3 ac 38 bd 4c a1 9f 3b 57 6a 8b 3b e1 b4 9d 3c
       -0.045086574 0.004871523 0.00425462 0.019251289
0001b0 fa e0 8c bc a5 48 b6 bb 05 2a 65 bc 35 dd 4b bc
       -0.017197121 -0.005562859 -0.013987069 -0.012442877
0001c0 44 63 43 bb b9 fd 01 bd 77 30 4c 3c d7 e5 2a bc
       -0.0029813806 -0.03173611 0.012462727 -0.010430775
0001d0 04 a8 48 bb 86 41 cf 3c 11 d6 f0 3c ad 02 23 3c
       -0.0030617723 0.025299799 0.02939895 0.009949368
0001e0 4f af 12 3d 3f 0b 33 bc 41 8d e0 ba 80 2a e1 3c
       0.03581172 -0.010927974 -0.0017131941 0.027486086
0001f0 f1 b9 95 bc c7 3b 03 3b 90 32 ef bc dd d0 5a bb
       -0.01827714 0.0020024644 -0.029198915 -0.0033388652
000200 a2 fb ea bb 47 94 cb 3c 52 16 06 3b ad 10 d5 3c
       -0.0071711103 0.024850978 0.0020460081 0.026008928
000210 be 5e 4e bc 6d 7f 83 bc 1f d5 5d bb e1 6d ac bb
       -0.0125958305 -0.016051972 -0.0033848954 -0.005262122
000220 da 38 af bc 5f a0 b8 bb 62 a2 fe 3a 25 b6 85 3b
       -0.021389414 -0.005634352 0.0019427056 0.004080551
000230 de 02 e4 bc 3d 67 19 3c 67 8e 83 3c a1 b4 af bc
       -0.027833398 0.009362993 0.016059114 -0.021448435
000240 78 69 02 3c 51 64 eb 3b e3 ff ff 3c 83 01 43 bc
       0.007959716 0.0071835895 0.031249946 -0.011902216
000250 9c 5a 3c bd 78 c7 aa bc 1d d6 09 3d 62 17 6d bc
       -0.04598485 -0.020847067 0.03365146 -0.014470907
000260 71 a6 1c bb 71 65 9f bc d8 ce 48 3b fa dd 09 bd
       -0.0023902918 -0.01945755 0.0030640867 -0.03365896
000270 64 79 28 bd fe be 4c bc 6e 0d 35 3c 56 17 2d bc
       -0.041131392 -0.012496708 0.011050565 -0.010564646
000280 aa e8 94 bb df 8d 12 3c c2 b4 38 3c c1 8e 88 3a
       -0.0045443373 0.0089449575 0.011273565 0.001041852
000290 f4 3f 85 bc 63 17 97 3c 56 88 b6 bc ef 93 94 3b
       -0.016265847 0.018443769 -0.022281807 0.0045342366
0002a0 5c b6 22 3c 35 30 0d bc 13 98 86 bb d9 ba 53 3b
       0.009931173 -0.0086174505 -0.004107484 0.0032307415
0002b0 6a f8 08 bc 6d 63 96 bc 2e 0e dd bc 0a a1 dd 3b
       -0.008360008 -0.018357957 -0.0269843 0.006763582
0002c0 7c fb 02 bc 9f 3b 9b bb 86 3b fe 3b d7 5e a3 bc
       -0.007994529 -0.004737332 0.0077585606 -0.019942684
0002d0 f8 d1 c9 3b bb 68 ed bb 2b b0 f1 bb cf 4a 4b bb
       0.0061590634 -0.007245151 -0.007375737 -0.0031019931
0002e0 16 14 82 3c e7 e6 14 bb 42 30 8a 3c 15 ca fe 3a
       0.015878718 -0.0022720636 0.016868714 0.0019438887
0002f0 03 05 e1 bb 00 93 6a 3c 2c b5 a4 bb c8 65 0b 3b
       -0.0068670525 0.014317274 -0.00502648 0.0021270383
000300 e2 0d 9e bb a2 0c d9 3a 21 df 71 bc 95 58 49 bc
       -0.0048234323 0.0016559551 -0.014762671 -0.012289186
000310 25 9a d5 3a 08 72 17 bc 76 cc 16 3c 4d 7b d9 3b
       0.0016296549 -0.009243496 0.009204021 0.006637013
000320 17 a8 87 3c 54 50 ac bb 4b b3 89 3c 9f ce 6f bc
       0.016559644 -0.0052585993 0.016809126 -0.014636665
000330 90 3a 5f bb 46 b3 3c bc 89 38 1f bc 1e 54 24 3c
       -0.0034062006 -0.0115173515 -0.009718069 0.010029821
000340 26 d0 19 3c 0d fd 42 bc 86 e5 05 ba a7 fa c8 3c
       0.009388005 -0.011901152 -0.0005107749 0.024533583
000350 99 e7 a7 3c b7 63 da 3b 1b a2 44 bb d4 31 ae b9
       0.020496177 0.006664719 -0.003000385 -0.0003322499
000360 07 03 51 bc 6a 45 3e bc 29 c9 74 3c 21 23 ad bc
       -0.012757069 -0.011613229 0.014940538 -0.021134915
000370 3f fe ae 3b 62 0f 03 bb bf 17 18 3c 53 aa 93 bc
       0.005340367 -0.0019998183 0.009283005 -0.018025553
000380 b6 85 15 bb 90 74 8b bc ae 2b 9a bb e7 15 2c 3c
       -0.0022815294 -0.017023355 -0.004704914 0.010503269
000390 f8 6f 33 3c 89 93 8e 3c 8b f8 a9 3b 09 24 31 3c
       0.010951988 0.017404335 0.0051870993 0.010811814
0003a0 1a 36 f0 bb 89 aa cb ba 11 01 1c 3c df 3f 9b bb
       -0.007330668 -0.0015538494 0.009521739 -0.0047378386
0003b0 9b e9 56 3c de 28 23 bc 87 39 82 3a d5 07 c9 3b
       0.013117219 -0.009958474 0.0009935357 0.006134967
0003c0 42 f9 e9 38 77 6a 7d 3b 1d bc f7 bb ca 93 55 3c
       0.00011156734 0.0038668194 -0.0075602666 0.013035724
0003d0 ad 4b 87 3a cf 98 5f bc f1 97 92 3b 2f 8b 98 3c
       0.0010322236 -0.013647272 0.0044736792 0.018621055
0003e0 10 47 9a 3a 1b d7 64 3c fc 3f 4b 3b b8 86 f0 3b
       0.0011770446 0.013967301 0.003101348 0.0073402785
0003f0 73 82 1c 3b 45 cc 0a bd 5a 74 b0 3c 1d 8e 69 bc
       0.0023881465 -0.033886213 0.021539856 -0.014255074
