webnn/model-tests/resources/test-data/models/mobilenetv2_nhwc/weights/MobilenetV2_expanded_conv_1_depthwise_depthwise_bias.npy (npy, 464 bytes, 1 tensors)

array f4 [96]
00000000: e0bc 8b3d 6025 f23d 002a 853a c32e 55bf
00000010: 44a3 0f3e 2e9d 96bb 406a 1dbc c7e5 23be
00000020: 9399 72c1 9085 6d3d 137c b3c0 7854 ca40
00000030: 50bf 953c 2059 1fbf a232 8cc0 dd39 4840
00000040: 80b6 4f3d c9f7 0bbc bb2b a53f 9084 8f3f
00000050: 1cc7 173e e882 333d a836 da3f 8798 0740
00000060: 2367 a5bd c550 d43d 058e 8ac0 d425 5cbe
00000070: e2cf 7bc1 f692 e73f 3634 73bd a896 f23e
00000080: e98e a03f c548 b33f e47c 52be 3cee 7ebf
00000090: b6d3 6d3e 3116 c4c0 aded 933f e805 8a3f
000000a0: 76c9 5e3f 3dd3 bd3f 68a6 5dc1 a8fb 3e3d
000000b0: 0abe 97bc 7a89 4d40 f0ff 5c3d 1e5f 1640
000000c0: 3ac0 a840 803b b23b 4ea4 86bd 601e 8a3d
000000d0: dc31 183f 4e13 2bbc 60bb 983d 593e d83c
000000e0: a33b 0dbf a2ce 9f3f c1cc 6840 1281 893f
000000f0: 3a13 fb3f 3fd7 9c3f e5b5 413d 7a37 9b3f
00000100: d4a2 c33c 30d3 d13d 2c0c 94c0 3c6c ae3f
00000110: 989b 313d c280 153f 8816 233f 2918 1e3f
00000120: 4968 8abd bbb8 bc3d 7f6a 963f 30e2 07bf
00000130: 50a6 5a3d 50a2 a4be 7e60 9fbc 07fd da3f
00000140: 46a5 cebd f7fb 223f 87f6 cc3f f6ee a43f
00000150: e15e 1141 acdc 023f 3968 993f bf0b b33f
00000160: 0484 663e ac4e 2c3c d35f 3dc0 6503 9e3f
00000170: 56bd 2c40 ae31 203f e067 b13f 0c85 11be
0.068231344 0.11823535 0.0010159612 -0.8327448 0.14027125 -0.004596374 -0.0096078515 -0.16005622
-15.162494 0.057988703 -5.608896 6.322811 0.018279701 -0.6224537 -4.381181 3.1285317
0.050711155 -0.008542963 1.290397 1.121233 0.14822048 0.043826014 1.704793 2.1186845
-0.080763124 0.10366968 -4.3298364 -0.21498805 -15.738253 1.8091724 -0.059375964 0.47380567
1.2543613 1.4006582 -0.20555454 -0.99582267 0.23225293 -6.127709 1.1556908 1.0783052
0.87026155 1.483009 -13.853127 0.046626717 -0.018523235 3.211516 0.05395502 2.3495555
5.273465 0.005439222 -0.065743074 0.06744075 0.5945108 -0.010441614 0.07457614 0.026396917
-0.55169123 1.2484934 3.6374972 1.0742514 1.9615242 1.2253188 0.04729261 1.2126305
0.023881353 0.10245359 -4.626486 1.362678 0.043361276 0.58399594 0.63706255 0.61755615
-0.06758172 0.09214922 1.175125 -0.5307951 0.053381264 -0.32155085 -0.01945519 1.7108468
-0.10090117 0.6366572 1.6012734 1.2885425 9.085664 0.5111797 1.1984931 1.398796
0.22511297 0.010516804 -2.9589736 1.2344786 2.6990561 0.62575805 1.3859825 -0.1421091
