webnn/model-tests/resources/test-data/models/mobilenetv2_nhwc/weights/MobilenetV2_expanded_conv_5_depthwise_depthwise_bias.npy (npy, 848 bytes, 1 tensors)

array f4 [192]
0	0xbf084ccc	-0.5324218
1	0x3b311110	0.0027018227
2	0xbfbac582	-1.4591525
3	0xbedb4d84	-0.42832577
4	0x40f18b3c	7.5482464
5	0x3b644140	0.003482893
6	0x3f9f1a79	1.2429954
7	0x3ea44806	0.320862
8	0xc020f412	-2.5148969
9	0x3c1e8540	0.009675324
10	0xba021c00	-0.0004963279
11	0xc04ca55c	-3.1975927
12	0xbfc769d8	-1.5579176
13	0x3d0697c0	0.032859564
14	0x3f10cbdb	0.5656106
15	0xbfe2d9aa	-1.7722676
16	0xbf93adc9	-1.153741
17	0x3f5618ac	0.83631396
18	0xbf828992	-1.0198233
19	0xbed92eee	-0.42418617
20	0xbdd0fad8	-0.10204095
21	0x3ba4c840	0.0050287545
22	0x3ce5d6c0	0.028056502
23	0x3f3a6c44	0.7282145
24	0x3fe55906	1.7917793
25	0xc0c2c40a	-6.0864305
26	0xbe6be252	-0.23035553
27	0xba1a8400	-0.00058943033
28	0x404b4af0	3.1764488
29	0xbfe950d2	-1.8227789
30	0xc0d28095	-6.578196
31	0xbd214df8	-0.039380997
32	0x403aa97e	2.916595
33	0x3fc9f4ba	1.577781
34	0x3fb155b2	1.3854277
35	0xc02906bc	-2.641036
36	0x405a0672	3.4066434
37	0xc0128641	-2.2894442
38	0x3fc94cfd	1.572662
39	0xbee00854	-0.43756354
40	0xbb4fe900	-0.0031724572
41	0xc03ae581	-2.9202578
42	0xbb03f278	-0.0020133536
43	0x4028baee	2.6364093
44	0x3fb0251d	1.3761326
45	0xbf6fcf96	-0.93676126
46	0xbe9f6de4	-0.31138527
47	0xbf223d91	-0.6337519
48	0xbf0ff8c4	-0.5623896
49	0xbe83ba60	-0.2572813
50	0xbf126030	-0.5717802
51	0xbe0e315d	-0.13886018
52	0xbd2bfe3e	-0.04199051
53	0xc00ccaeb	-2.1998851
54	0xbd064374	-0.032779172
55	0xbe4ed94b	-0.20200078
56	0xbf8f95fe	-1.1217649
57	0x3f6c50fd	0.9231108
58	0x3c775000	0.015094757
59	0xbea59b24	-0.32344925
60	0xbfd8df9e	-1.6943243
61	0xc029c98c	-2.6529264
62	0xbee8759a	-0.45402223
63	0xbd2e4390	-0.0425449
64	0xbfae54f6	-1.3619678
65	0xbed734b2	-0.4203239
66	0x3da807fc	0.08204648
67	0x40838b2a	4.110738
68	0x3f4487cc	0.7676971
69	0x3e4a0b9c	0.19730991
70	0xbe82c6c0	-0.2554226
71	0x3fc1fb05	1.515473
72	0x3da6f338	0.08151859
73	0xbfa4e7fc	-1.2883296
74	0x40705842	3.7553868
75	0xbfb3fd64	-1.4061704
76	0x3f540262	0.82816136
77	0x3f77e693	0.96836203
78	0xbeb859fb	-0.3600615
79	0xbfd2ddec	-1.6473975
80	0x4078fd05	3.890443
81	0x4042e5f0	3.0452843
82	0xbf5393f0	-0.8264761
83	0xbfcb43a6	-1.588002
84	0xbfbe8095	-1.488299
85	0xba9b0c00	-0.0011829138
86	0xbf356afe	-0.7086638
87	0x3f7b8c7e	0.9826125
88	0x3ccbcf90	0.024879247
89	0xbd1419f8	-0.03615758
90	0xbfba7e16	-1.4569728
91	0x4021c704	2.527772
92	0xbea08eec	-0.3135904
93	0xbd0a27b8	-0.033729285
94	0xbe8060af	-0.25073764
95	0xbf0b93d4	-0.5452244
96	0xc0690564	-3.640954
97	0xc024c3d4	-2.5744524
98	0xbc7f8d00	-0.015597582
99	0xbf88b6ff	-1.0680846
100	0x4028c595	2.6370595
101	0xbf824681	-1.0177766
102	0xbf90f5cb	-1.132501
103	0xbfbe7d22	-1.4881938
104	0xbe182344	-0.14857203
105	0xc0162a35	-2.346326
106	0xbfc53420	-1.5406532
107	0x3f246bf6	0.64227235
108	0x3f98e45a	1.1944687
109	0xbb1a8c00	-0.0023581982
110	0xc02509f4	-2.5787325
111	0xc03757a4	-2.8647242
112	0xbe995c2b	-0.2995313
113	0x3f7819e7	0.96914524
114	0x3ec2e743	0.38067064
115	0x3e92a326	0.28640097
116	0xbe10e176	-0.14148507
117	0xbfdc5a9c	-1.7215152
118	0xbc0915a0	-0.008366972
119	0xbeb35364	-0.3502456
120	0x3f062faf	0.5241651
121	0x3fb7d9b2	1.436331
122	0xbe1ce790	-0.15322709
123	0x3f8c4a8a	1.0960248
124	0x403f11e1	2.9854662
125	0x4013b3a6	2.3078399
126	0x40d02e78	6.5056725
127	0x3bf8aac0	0.0075887144
128	0xc0101f7f	-2.2519224
129	0xbc0ce952	-0.00860055
130	0x3c2d94d8	0.010594569
131	0xbd8e2b69	-0.069418736
132	0xbb99d400	-0.004694462
133	0xbf8d5669	-1.1041995
134	0xbf301be7	-0.68792576
135	0x3f577b6c	0.841727
136	0xbf7dfc29	-0.9921289
137	0x40191d34	2.3924074
138	0xbf6d383c	-0.9266393
139	0xbf4e7fb8	-0.80663633
140	0x401688e5	2.3521054
141	0xbdea9610	-0.114544034
142	0xbf7059e3	-0.93887156
143	0x4102a3ba	8.164972
144	0x40093b85	2.1442578
145	0xbd4eb0d4	-0.050461605
146	0x3e31b489	0.17354025
147	0xbe11c603	-0.14235692
148	0x3ee3de0a	0.4450534
149	0xbdaf8e6b	-0.08572086
150	0xbe49dfdd	-0.19714303
151	0xbfc669d6	-1.5501049
152	0xbd632082	-0.055450924
153	0x40645351	3.5675852
154	0xbd8efa76	-0.069813654
155	0x410a5e98	8.648094
156	0xbfa8455c	-1.3146167
157	0xbc5908f6	-0.013246765
158	0xbec70496	-0.38870686
159	0xb945f000	-0.00018876791
160	0xc0251d96	-2.5799308
161	0xc00f0226	-2.2345061
162	0xbd82d3c0	-0.06388044
163	0x40b17c85	5.54645
164	0x3f6cd2e4	0.92509294
165	0xbe5409fe	-0.20706937
166	0x3e8c15fb	0.2736052
167	0xbfb466df	-1.4093894
168	0xbe02f15e	-0.12787387
169	0xc201304d	-32.29717
170	0xbced5dd0	-0.028975397
171	0xc02c2b10	-2.6901283
172	0xc00cb09b	-2.1982791
173	0xbe7feac0	-0.24991894
174	0x3ea64ada	0.32478982
175	0xbb910240	-0.004425317
176	0x4044a494	3.072545
177	0x3d9e44b6	0.07727949
178	0xbef2b356	-0.47402447
179	0x401b089d	2.4224007
180	0xc01b1bfd	-2.4235833
181	0xbeee2ace	-0.46517032
182	0xbfc51331	-1.5396482
183	0xbd099d50	-0.03359729
184	0xbe836298	-0.2566116
185	0x3f28a5d0	0.6587801
186	0xc0004077	-2.0039346
187	0xbee94953	-0.45563754
188	0xbe5b1308	-0.21393979
189	0xbfb0d8f5	-1.381621
190	0xbc41a640	-0.011819422
191	0xbf98eebe	-1.1947858
